Filters/Decimation case/model/model_KNetNew_Dec_r0_noTransfer.pt (torch, 399301 bytes, 41 tensors)

weight_ih_l0 f4 [27, 15]
0	0x3cf1df23	0.029525345
1	0x3e8f6d9e	0.2801332
2	0x3e26a2ba	0.16273013
3	0x3d8450d9	0.06460733
4	0x3e2257c1	0.15853788
5	0x3e772d2d	0.24138327
6	0x3e73b7e9	0.23800625
7	0x3d2b8ffe	0.04188537
8	0x3d8b9c34	0.06816903
9	0xbe817ac0	-0.25288963
10	0x3ea53cb4	0.32272875
11	0xbda68eeb	-0.08132728
12	0xbd71adac	-0.059003517
13	0xbe8cccf4	-0.27500117
14	0xbea15b11	-0.3151479
15	0xbd8b4779	-0.06800742
16	0xbe81de89	-0.25365093
17	0x3df30874	0.11866847
18	0x3e4b43cd	0.19850083
19	0x3eb856ac	0.36003625
20	0x3d48fffc	0.04907225
21	0x3e55eb89	0.20890631
22	0xbe9776a9	-0.29582718
23	0x3e13616a	0.1439263
24	0xbe22e6af	-0.15908311
25	0x3e6dbd40	0.23216724
26	0x3e81b637	0.2533433
27	0x3c5fef1d	0.013667849
28	0x3e44dbd9	0.1922449
29	0xbc7dfe46	-0.015502518
30	0x3e01263c	0.12612242
31	0xbca5e9c5	-0.020253072
32	0x3e763953	0.24045305
33	0xbe7766f2	-0.24160364
34	0xbe827d71	-0.2548633
35	0x3d97fb4a	0.074209765
36	0x3e73b6e9	0.23800243
37	0xbdade3ad	-0.08490691
38	0x3bd43bc1	0.00647685
39	0x3dc48ba0	0.09596944
40	0x3e4dea41	0.20108892
41	0xbe3ea11f	-0.1861615
42	0x3d1caf98	0.038253397
43	0x3ea7fd9f	0.32810685
44	0x3ea561a8	0.32301068
45	0x3d1e61aa	0.03866736
46	0x3e945c5e	0.2897672
47	0x3dfe7874	0.12425318
48	0x3dda342b	0.106544815
49	0x3e369abf	0.17832468
50	0xbd2d0cf3	-0.042248677
51	0x3e35933f	0.17731951
52	0xbcd989ab	-0.026554903
53	0x3e777999	0.2416748
54	0x3c182bde	0.0092878025
55	0x3e60ae86	0.21941575
56	0x3e47be83	0.19506268
57	0x3dfa07d5	0.12208525
58	0xbe60b608	-0.2194444
59	0x3e36601d	0.17810102
60	0xbe538b5c	-0.2065863
61	0xbea788ac	-0.3272146
62	0xbe875bab	-0.26437125
63	0x39c85950	0.00038213516
64	0x3d7e4318	0.062075704
65	0x3e50553c	0.20345014
66	0xbdb79848	-0.08964592
67	0x3eb45811	0.3522344
68	0x3e22ca00	0.1589737
69	0x3e801dfc	0.25022876
70	0x3e88a986	0.26691836
71	0x3eb5da0c	0.3551792
72	0x3da7225b	0.0816085
73	0x3e9b0542	0.3027745
74	0xbe0c547a	-0.137041
75	0x3d8f2322	0.06989123
76	0xbe278530	-0.16359401
77	0xbe878983	-0.264721
78	0x3d546360	0.051852584
79	0xbd85a1c9	-0.06524999
80	0x39c29a7e	0.0003711767
81	0x3bdc129e	0.0067160865
82	0xbdcdc435	-0.10047189
83	0x3e0ad899	0.13559188
84	0x3e949cee	0.29025978
85	0xbceada4e	-0.028668549
86	0xbc53b609	-0.0129218185
87	0x3e5a40a0	0.21313715
88	0xbe88a714	-0.2668997
89	0x3ca083bb	0.019594064
90	0xbd1f3fea	-0.038879313
91	0xbe55c6a7	-0.20876561
92	0x3e2155d9	0.15755405
93	0x3d17b378	0.03703639
94	0x3d3d8feb	0.04627983
95	0x375ed326	1.3281393e-05
96	0xbd7b01d3	-0.061281037
97	0x3e4ecbb5	0.20194896
98	0x3e343dca	0.17601696
99	0xbdf357f5	-0.11882011
100	0x3e6e4c2b	0.23271243
101	0x3ea4a167	0.3215439
102	0x3ea289de	0.3174581
103	0x3c8957a8	0.01676543
104	0xbb8da94f	-0.0043231617
105	0x39326b6b	0.00017015419
106	0x3e3fed24	0.18742806
107	0x3e5b3fb6	0.21411023
108	0xbe7cc8fb	-0.24686043
109	0xbdc7d961	-0.097582586
110	0xb94ff440	-0.00019832049
111	0x3c8e59ec	0.017376862
112	0xbe251b81	-0.16123773
113	0xbe09dcb9	-0.13463105
114	0x3e6c55a4	0.23079544
115	0x3e74bb91	0.23899676
116	0x3e2f529d	0.17121358
117	0x3e80cb91	0.2515531
118	0xbdf6ba9d	-0.120473124
119	0xbe9ce60c	-0.30644262
120	0x39773639	0.00023575955
121	0x3e03159b	0.1280121
122	0xbec109de	-0.3770284
123	0xbb8b9608	-0.0042598285
124	0xbe6923c1	-0.22767545
125	0x3dac1246	0.08401923
126	0xbe80d383	-0.2516137
127	0x3d849cd6	0.064752266
128	0xbe9db6e1	-0.30803588
129	0xbe4eaefb	-0.20183937
130	0x3df8d7cf	0.12150537
131	0xbe3e1e70	-0.18566298
132	0x3e86e8a8	0.26349378
133	0x3d6037ec	0.05474083
134	0xbea1e34e	-0.31618732
135	0x3dc2c1f4	0.0950965
136	0x3d923230	0.07138479
137	0xbd660b76	-0.056163274
138	0xbd2d8d96	-0.042371355
139	0x3ed33bba	0.41256505
140	0xbce291c0	-0.02765739
141	0xbd8f5ba5	-0.06999902
142	0x3dadcc9d	0.084862925
143	0x3e8388ca	0.256903
144	0x3ec2172e	0.3790831
145	0x3ea499d3	0.3214861
146	0x3dada8de	0.084794745
147	0x3e345a8a	0.17612663
148	0xbd9eeaca	-0.07759626
149	0xbd88d2b1	-0.06680811
150	0x3ce2e6da	0.02769797
151	0xbe472b02	-0.1945
152	0x3d1e9547	0.03871658
153	0x3dcdaefe	0.10043143
154	0x3e03351b	0.12813227
155	0xbe460e71	-0.19341446
156	0xbe36ab39	-0.17838754
157	0xbe4f8267	-0.20264588
158	0xbeb959d9	-0.3620136
159	0x3e88cedb	0.26720318
160	0x3d629027	0.055313256
161	0x3dfb2542	0.12262966
162	0x3dfa47a0	0.12220693
163	0x3dda2690	0.106518865
164	0xbe0f674d	-0.1400425
165	0xbd0ee917	-0.03489026
166	0x3e34bc56	0.1764997
167	0x3ebe3012	0.3714605
168	0xbe413ee8	-0.18871653
169	0xbe12550d	-0.14290257
170	0xb7d391a8	-2.5220987e-05
171	0xbe6f8de2	-0.23393968
172	0xbe44bd2e	-0.19212791
173	0xbdf1aa03	-0.11800005
174	0x3e3d9fca	0.18517986
175	0xbe5a7a61	-0.21335746
176	0x3d11b4c7	0.035572793
177	0x3dc1d534	0.094644934
178	0x3e166bee	0.1468961
179	0x3e9920c1	0.29907802
180	0x3d2b92c2	0.041888006
181	0x3e0d83f1	0.13819863
182	0xbe86d012	-0.2633062
183	0xbe6a63af	-0.22889589
184	0x3c69db6a	0.014273504
185	0xbe4af6d0	-0.19820714
186	0x3eaa9dae	0.33323425
187	0xbe47517e	-0.1946468
188	0xbe113b2d	-0.1418273
189	0xbead1825	-0.33807483
190	0xbe160f0b	-0.14654176
191	0x3e503bf3	0.20335369
192	0xbe6ca034	-0.23107988
193	0xbe334172	-0.17505434
194	0xbe963b9a	-0.29342347
195	0xbe623b03	-0.22092824
196	0x3d28d658	0.04122004
197	0x3e68e256	0.2274259
198	0xbd848f3b	-0.064726315
199	0x3ea8513d	0.3287448
200	0xbd989fb9	-0.0745234
201	0xbdbd3bf7	-0.09239953
202	0xbe9279e0	-0.28608608
203	0x3e2f445b	0.1711592
204	0x3d127842	0.035759218
205	0x3e14ff25	0.14550455
206	0xbe5aa435	-0.21351703
207	0x3b403dda	0.0029333741
208	0x3cfd7fde	0.03094476
209	0x3e331c81	0.17491342
210	0x3ce6187f	0.028087853
211	0xbe52b60f	-0.20577262
212	0x3e6c3554	0.23067218
213	0xbc40dc45	-0.011771266
214	0xbec9e22c	-0.39430368
215	0xbdfa2150	-0.12213385
216	0x3e838b49	0.25692204
217	0xbe4542ed	-0.19263811
218	0x3d374171	0.044740144
219	0x3e57cc2b	0.21073978
220	0x3e703917	0.23459278
221	0xbe8af6a9	-0.27141312
222	0x3e876bc4	0.26449406
223	0xbe346150	-0.17615247
224	0x3e04c62c	0.12966222
225	0x3cb0b323	0.021569794
226	0x3ec50896	0.38483113
227	0xbe38d54d	-0.18050118
228	0x3dbd8545	0.09253935
229	0x3e5ea6d2	0.21743324
230	0xbdaa72f5	-0.083227076
231	0x3e4c6501	0.19960405
232	0xbe8f1b21	-0.27950385
233	0x3eb256ae	0.34831756
234	0x3e1cb2ee	0.15302631
235	0xbce890f0	-0.028389424
236	0xbe73534e	-0.23762247
237	0x3d1ad3a5	0.037799496
238	0x3e60d702	0.21957019
239	0x3e9674e5	0.29386058
240	0x382e2d52	4.152704e-05
241	0xbea15ccc	-0.3151611
242	0xbe8b853f	-0.27250096
243	0xbdac20e1	-0.08404709
244	0x3e779ba9	0.24180473
245	0x3e16b3e6	0.14717063
246	0xbd3a029b	-0.04541264
247	0xbd78c90b	-0.060738605
248	0xbe04374c	-0.12911719
249	0xbe19650b	-0.14979951
250	0x3d8b8a8a	0.068135336
251	0xbdc96077	-0.09832852
252	0x3e999a58	0.30000567
253	0xbe684ef7	-0.22686373
254	0xbe20e923	-0.15713935
255	0xb88dd994	-6.763931e-05

weight_hh_l0 f4 [27, 9]
0	0xbe82e975	-0.2556874
1	0xbe8246b9	-0.25444582
2	0xbe175453	-0.14778261
3	0xbe2a7d44	-0.16649348
4	0xbe35a515	-0.17738755
5	0x3eadf022	0.3397227
6	0x3e44a757	0.1920446
7	0xbe34c581	-0.17653467
8	0x3e30c798	0.17263639
9	0x3d6109eb	0.0549411
10	0x3ebdb850	0.37054682
11	0xbe9993d9	-0.2999561
12	0xbe147b16	-0.14500079
13	0xbda85297	-0.08218878
14	0xbd9bfeff	-0.07616996
15	0x3e1a5f9a	0.15075532
16	0xbde1909a	-0.11013909
17	0xbd933500	-0.07187843
18	0x3e931d77	0.28733417
19	0xbe59792c	-0.2123763
20	0x3d5aa424	0.053379193
21	0x3e730d9a	0.23735657
22	0xbde696a3	-0.112592004
23	0x3e451534	0.1924637
24	0xbe724699	-0.23659743
25	0xbd24a0fb	-0.040192585
26	0x3e98f3ec	0.29873598
27	0x3bb16524	0.005413668
28	0x3e884459	0.26614645
29	0xbe7033ae	-0.23457214
30	0xbdcb0b3c	-0.09914252
31	0x3d8dd0d8	0.069245994
32	0x3e8c4c6e	0.2740206
33	0xbe8fd80d	-0.2809452
34	0xbe6bee5b	-0.23040144
35	0xbea5b4f8	-0.3236463
36	0xbeb81d82	-0.35960013
37	0x3e63f36c	0.22260827
38	0x3e2a111b	0.16608088
39	0x3e6e0819	0.23245277
40	0x3b72db0c	0.0037056832
41	0x3e11aa50	0.14225125
42	0xbe8807bc	-0.265684
43	0x3e9c0d15	0.3047873
44	0x3df16619	0.11787052
45	0xbe2cd355	-0.16877492
46	0x3e3699db	0.17832129
47	0xbddb8cf0	-0.10720241
48	0x3ebf87c1	0.3740826
49	0x3d27d1a6	0.04097142
50	0xbc06011d	-0.008178976
51	0xbead6c82	-0.33871847
52	0xbe06cee3	-0.13164859
53	0xbded6084	-0.115906745
54	0xbd4b72ed	-0.04967015
55	0xbe65fa2d	-0.22458716
56	0xbec80448	-0.39065766
57	0xbe76f30f	-0.24116157
58	0x3e5bcac8	0.21464074
59	0x3e43791e	0.19089171
60	0xbaffc030	-0.0019512232
61	0xbebe5144	-0.37171376
62	0xbeadd411	-0.33950856
63	0x3e8e69e2	0.27815157
64	0x3dbec8dc	0.09315655
65	0xbea4a91d	-0.32160273
66	0xbe9a37b6	-0.3012063
67	0x3e4f4d18	0.20244253
68	0x3da9ddf5	0.08294288
69	0x3e0487ce	0.1294243
70	0x3e85edfc	0.2615813
71	0x3c881bee	0.01661488
72	0x3d32a359	0.04361281
73	0xbe2221c2	-0.1583319
74	0x3e71e8e7	0.23624001
75	0x3debab85	0.11507324
76	0xbc2f4e19	-0.010699772
77	0x3e3b0525	0.18263681
78	0x3dee3257	0.11630695
79	0x3e88cd5d	0.2671918
80	0xbe3675a7	-0.17818318
81	0xbda3f78a	-0.08006199
82	0x3e61fd24	0.22069222
83	0xbec376b7	-0.3817651
84	0x3e2c9093	0.16852026
85	0x3e494a9e	0.1965737
86	0x3ec7ea03	0.39045724
87	0xbe4b930a	-0.1988031
88	0xbe04a761	-0.12954475
89	0xbe14f14f	-0.14545177
90	0xbe6ba10f	-0.23010658
91	0x3e0eec6b	0.13957374
92	0x3dffb254	0.12485185
93	0x3ddeb389	0.10874087
94	0x3c852f7e	0.016257998
95	0x3dc1609f	0.09442257
96	0x3e27a911	0.16373087
97	0x3d7c290a	0.061562575
98	0xbea9432e	-0.33059067
99	0x3d39a12b	0.045319717
100	0xbeb64b1d	-0.35604182
101	0xbedad386	-0.42739505
102	0xbe366bf1	-0.17814614
103	0x3eab5982	0.33466727
104	0xbe1f0d8a	-0.15532508
105	0x3e341207	0.17585002
106	0x3e29fb97	0.1659988
107	0x3d897e8d	0.06713591
108	0xbe8e9313	-0.27846584
109	0x3e19c70d	0.15017338
110	0xbd7b18d5	-0.06130298
111	0xbe3342b7	-0.17505918
112	0x3eb33c89	0.35007122
113	0x3cd9abc8	0.02657117
114	0xbe550174	-0.20801336
115	0xbce19a6b	-0.027539453
116	0x3e0a406a	0.13501135
117	0xbdb542f6	-0.088506624
118	0xbce2deff	-0.027694223
119	0x3e3a319f	0.18182991
120	0x3db2c3ba	0.08728738
121	0xbdd01835	-0.10160867
122	0xbe870ae9	-0.2637551
123	0xbe4513d4	-0.19245845
124	0xbdb8625f	-0.09003138
125	0xbc35f5f1	-0.011106
126	0x3d601d30	0.054715335
127	0x3bdcb5ea	0.006735553
128	0x3eacae32	0.3372665
129	0x3d4d1e6f	0.05007785
130	0xbdf6bb29	-0.12047417
131	0xbe9f58fb	-0.31122574
132	0xbe803f1d	-0.25048152
133	0x3ed5af37	0.4173524
134	0xbc80cc7f	-0.015722511
135	0xbe726dcd	-0.23674698
136	0xbd8abf01	-0.06774712
137	0xbd3701e4	-0.044679537
138	0x3e168e67	0.1470276
139	0xbc81b828	-0.015834883
140	0x3e5a0513	0.21290998
141	0x3d2cb0b6	0.042160712
142	0xbe8fede7	-0.28111193
143	0xbdc4c249	-0.096073695
144	0x3e13ec1c	0.14445537
145	0xbddbbecd	-0.10729752
146	0xbe1ed203	-0.155098
147	0xbe77f231	-0.24213482
148	0x3df1f788	0.11814791
149	0x3ea68d07	0.3252947
150	0xbe813855	-0.2523829
151	0xbe86d7c0	-0.2633648
152	0xbe923d4f	-0.285624
153	0xbe7b0705	-0.24514396
154	0xbe8a8e23	-0.27061567
155	0x3d08789c	0.033318147
156	0xbe694c86	-0.22783098
157	0xbc9ad6e2	-0.018901292
158	0x3d092b72	0.0334887
159	0x3d9a714f	0.07541143
160	0x3c9fb30b	0.019494554
161	0xbe3415cd	-0.17586441
162	0xbe4eae4d	-0.20183678
163	0x3ed66718	0.4187553
164	0xbea64ce6	-0.32480544
165	0x3e0bdc1d	0.13658185
166	0xbea645e3	-0.32475194
167	0xbdaf0901	-0.08546639
168	0x3d374f31	0.044753257
169	0x3d3cec13	0.046123575
170	0xbe155bd3	-0.1458581
171	0x3d60a24f	0.05484229
172	0x3d691e57	0.0569137
173	0xbe40a92a	-0.18814531
174	0x3e9aca5b	0.3023251
175	0xbe3d74bb	-0.1850156
176	0x3e3c19e5	0.18369253
177	0xbe0d5536	-0.13802037
178	0x3b9b29e2	0.0047352174
179	0xbda84af0	-0.08217418
180	0xbe68a22c	-0.22718114
181	0xbe6419da	-0.22275487
182	0x3e226e22	0.15862325
183	0xbe92e967	-0.28693697
184	0xbdfd9778	-0.12382406
185	0x3d6ab976	0.057305776
186	0xbe4a13fd	-0.19734187
187	0xbe2a01de	-0.16602275
188	0x3dbfbfda	0.09362765
189	0xbe942074	-0.2893101
190	0x3e9bd169	0.30433205
191	0xbd351b5b	-0.04421554
192	0x3da92d52	0.08260597
193	0x3e363ab9	0.17795838
194	0xbdf67cd8	-0.12035531
195	0x3e9156f7	0.2838666
196	0xbe69c622	-0.22829488
197	0x3de8ebd5	0.113731064
198	0x3e0f6d78	0.14006603
199	0xbd7b9eab	-0.061430614
200	0x3ca767fb	0.020435324
201	0x3e5a1284	0.21296126
202	0x3ea2381f	0.31683442
203	0xbe09ceb2	-0.13457754
204	0xbe4f0df4	-0.20220166
205	0x3d336423	0.04379667
206	0xbe2bb63e	-0.16768739
207	0x3d0aa51b	0.033848863
208	0xbe45b9d0	-0.19309163
209	0xbd58c28b	-0.052919906
210	0x3e115f23	0.14196448
211	0x3e88dc5f	0.2673063
212	0xbe106b70	-0.14103484
213	0x3e3c3abd	0.18381782
214	0x3e91661f	0.28398225
215	0xbdf1b1b1	-0.1180147
216	0xbeb83fca	-0.35986167
217	0x3e31eb9b	0.17375033
218	0x3e81a66e	0.25322288
219	0xbe0b77b4	-0.13619882
220	0x3e38ce23	0.18047385
221	0x3d766b6a	0.06016103
222	0x3e9e22a5	0.30885807
223	0x3e9b6730	0.30352163
224	0xbdfe4134	-0.1241478
225	0xbe6fb94b	-0.23410527
226	0xbe38c104	-0.1804238
227	0x3e908789	0.28228405
228	0xbd9dfa7e	-0.07713793
229	0xbe36d8f6	-0.17856202
230	0xbe8b853d	-0.2725009
231	0x3e3e03ea	0.1855618
232	0xbdd290c3	-0.10281517
233	0x3db806a2	0.0898564
234	0x3e4b90de	0.19879481
235	0xbe950367	-0.29104158
236	0xbdc7d5df	-0.097575895
237	0xbcee4ee3	-0.02909035
238	0x3d4ce280	0.050020695
239	0x3e92d6ae	0.28679413
240	0xbe677e53	-0.22606783
241	0x3d5db8f8	0.054131478
242	0xbe687633	-0.2270134

bias_ih_l0 f4 [27]
0	0xbdca979c	-0.098921984
1	0xbe84cff3	-0.25939903
2	0x3e22aa01	0.15885164
3	0xbe9aa5ad	-0.30204526
4	0xbe94555d	-0.28971377
5	0x3e853a64	0.2602111
6	0xbde7a43d	-0.11310623
7	0x3ead7591	0.3387876
8	0x3d94fcb4	0.07274762
9	0x3ed46e47	0.41490385
10	0xbe1c9483	-0.15291028
11	0x3e126f70	0.14300323
12	0xbe21af2e	-0.15789482
13	0x3e7c7a1b	0.24655955
14	0xbebe9a52	-0.37227112
15	0xbde50a44	-0.11183599
16	0x3e0fc307	0.14039241
17	0x3dc73fa4	0.09728935
18	0x3ea73608	0.3265841
19	0x3e2d01dc	0.1689524
20	0xbe0ae3e9	-0.13563503
21	0xbe9091d4	-0.28236258
22	0xbd035967	-0.032067683
23	0x3d9a9037	0.07547038
24	0x3e84d654	0.2594477
25	0x3e506692	0.20351627
26	0xbe18c175	-0.14917548

bias_hh_l0 f4 [27]
0	0x3d9e7f32	0.07739104
1	0x3e974476	0.2954442
2	0xbd9405c1	-0.0722766
3	0xbd905f31	-0.07049406
4	0xbd9668ab	-0.073441826
5	0x3e2d361e	0.16915175
6	0x3d13deb5	0.03610106
7	0xbe59a47f	-0.21254157
8	0xbec28a1c	-0.37995994
9	0x3dc6e19c	0.09711
10	0x3ed61d79	0.4181936
11	0xbe05c464	-0.13063198
12	0xbd4aa3c2	-0.049472578
13	0xbe8ad887	-0.27118322
14	0xbe246061	-0.1605239
15	0x3e8af499	0.27139738
16	0xbe800fef	-0.25012156
17	0xbe8106de	-0.25200552
18	0x3e8f5b02	0.2799912
19	0x3e21ebe7	0.15812646
20	0xbea2645f	-0.31717202
21	0xbdc38b63	-0.0954807
22	0x3e063209	0.13105024
23	0x3e0a0034	0.1347664
24	0x3dbfd7e6	0.09367351
25	0xbe98f511	-0.2987447
26	0xbe91f0fd	-0.28504172

weight_ih_l0 f4 [27, 24]
0	0x3cba94e6	0.022776078
1	0xbe452e2a	-0.19255891
2	0xbe8725e9	-0.2639611
3	0x3e2f7356	0.17133841
4	0x3e89337d	0.26797095
5	0x3e5790c8	0.21051323
6	0xbe2e848f	-0.17042755
7	0x3e2e3062	0.17010644
8	0xbe5ea205	-0.21741493
9	0xbd77b7f5	-0.06047817
10	0xbe4a77b3	-0.19772224
11	0xbea50f45	-0.32238212
12	0xba627922	-0.0008639266
13	0xbcc640c1	-0.024200799
14	0x3e860878	0.26178336
15	0xbe8adc21	-0.2712107
16	0x3e7e1899	0.24814071
17	0xbe8bc635	-0.27299657
18	0x3e56c1ae	0.2097232
19	0xbe6d0609	-0.23146833
20	0x3e59f5fa	0.21285239
21	0xbd356ca0	-0.044293046
22	0xbda96886	-0.082718894
23	0x3e9300ca	0.2871154
24	0x3eae2549	0.3401282
25	0x3def47f4	0.11683646
26	0x3e42deb7	0.19030271
27	0x3d9b57f7	0.07585137
28	0x3e807b45	0.25094047
29	0x3e7fe933	0.24991302
30	0xbda367b3	-0.079787634
31	0x3d0fe974	0.035134748
32	0xbdb5cead	-0.08877311
33	0x3e38850b	0.18019502
34	0xbe12dc85	-0.14341934
35	0x3e117f77	0.1420878
36	0xbcbc3d27	-0.022978378
37	0x3d892dd0	0.06698191
38	0x3e37f428	0.17964232
39	0x3e78861e	0.24269912
40	0xbdef9563	-0.11698415
41	0xbe2fcb77	-0.1716746
42	0xbd7876bf	-0.06066012
43	0x3eb28535	0.34867254
44	0xbd8c0301	-0.068365104
45	0xbde153a8	-0.11002284
46	0x3dcda338	0.10040897
47	0xbbbcd53b	-0.0057627237
48	0x3e61d6db	0.22054617
49	0x3dd839a3	0.10557868
50	0x3d9fbccb	0.07799681
51	0xbe8bcdd3	-0.2730547
52	0xbcf6c50f	-0.030123262
53	0x3d0e37bf	0.034721132
54	0x3ea321ac	0.31861627
55	0x3e333c1c	0.17503399
56	0x3e99257d	0.29911414
57	0x3e12474d	0.14285012
58	0x3c2a7e5f	0.010406106
59	0x3d2b1394	0.041766718
60	0x3d3549ca	0.044259824
61	0x3dd3113b	0.10306021
62	0x3e951fb1	0.2912574
63	0xbdced583	-0.10099318
64	0xbe720439	-0.23634423
65	0x3e4c8db8	0.19975936
66	0x3e408289	0.18799795
67	0xbe8ce1c7	-0.27516004
68	0xbea70b69	-0.32625893
69	0xbd7662a3	-0.06015266
70	0x3ded0827	0.115738206
71	0xbd5615a3	-0.052266728
72	0xbe540dbb	-0.20708363
73	0xbd3b3ea3	-0.045714032
74	0xbe96cf14	-0.29454863
75	0x3df7701d	0.12081931
76	0xbe13569e	-0.1438851
77	0xbe653297	-0.2238258
78	0x3df200ac	0.118165344
79	0xbdf90443	-0.12159016
80	0x3d2c0f1d	0.0420066
81	0xbe2dc6bd	-0.16970344
82	0xbe513d89	-0.2043363
83	0x3e9b660f	0.30351302
84	0x3e9788ce	0.2959656
85	0xbe1682b0	-0.14698291
86	0xbe35b9fe	-0.17746732
87	0x3e8ac723	0.27105054
88	0xbd0f223c	-0.034944758
89	0xbd30b4c0	-0.043141127
90	0x3dbdc412	0.09265913
91	0xbd1846c2	-0.037176855
92	0xbe17aff7	-0.14813219
93	0xbe75f98d	-0.24020977
94	0x3e4e76a9	0.20162453
95	0x3acb130e	0.001549335
96	0xbe28ddca	-0.16490856
97	0x3c6b6bde	0.014368979
98	0x3e4e8a65	0.20169981
99	0xbd848847	-0.06471305
100	0xbe7af232	-0.24506453
101	0xbd7e534d	-0.06209116
102	0x3df85c95	0.121270336
103	0x3de9d377	0.11417287
104	0x3e21e17c	0.15808672
105	0xbe33b3fd	-0.17549129
106	0xbe0ebd8f	-0.13939498
107	0xbe7f8dd9	-0.24956454
108	0x3e3659ea	0.17807737
109	0xbea84050	-0.32861567
110	0x3d9809dd	0.07423756
111	0xbea7fb38	-0.32808852
112	0x3e39ccb7	0.18144499
113	0x3dbf40b7	0.09338515
114	0xbeb4df4c	-0.35326612
115	0xbeb6d04b	-0.3570579
116	0x3d004604	0.031316772
117	0xbe15d1f5	-0.14630874
118	0xbe8a15ef	-0.2696986
119	0x3e6b88a1	0.23001339
120	0xbdad85b4	-0.084727675
121	0x3cb17fc0	0.021667361
122	0xbe16b501	-0.14717485
123	0xbd47b654	-0.048757866
124	0x3d793f64	0.06085147
125	0x3dd2b9a9	0.10289318
126	0x3df36e29	0.11886246
127	0x3e86d23e	0.26332277
128	0xbea0e57c	-0.31425083
129	0xbe6f687f	-0.23379706
130	0xbd49b268	-0.049242407
131	0x3e6b4ae9	0.22977795
132	0xbe3bd5a5	-0.18343218
133	0xbdb8b3f8	-0.09018701
134	0x3e79c5bc	0.24391836
135	0xbde6b71c	-0.11265394
136	0x3e9fcfbb	0.31213173
137	0xbe1f4aec	-0.15555924
138	0x3bc2e1fe	0.0059473505
139	0x3e0844ff	0.1330757
140	0xbe848d8a	-0.25889236
141	0xbe26dd57	-0.16295372
142	0x3ea1b904	0.31586468
143	0x3d3fc449	0.04681805
144	0x3e209643	0.1568232
145	0xbe7c10a7	-0.24615727
146	0xbd9935e7	-0.07480984
147	0x3e537977	0.20651804
148	0xbe2b306a	-0.16717687
149	0x3e6c4f71	0.2307718
150	0x3d42c694	0.04755266
151	0xbd1ff29e	-0.039049737
152	0xbe287d86	-0.16454133
153	0x3df2c0a2	0.11853148
154	0x3e57dfb0	0.21081424
155	0x3ea11185	0.3145868
156	0xbb5bbbdb	-0.0033528719
157	0xbb0b77f4	-0.0021281214
158	0xbe8daa63	-0.27669057
159	0xbd012367	-0.031527903
160	0xbe3c5f3d	-0.18395706
161	0x3c0b3741	0.00849706
162	0xbe910006	-0.2832033
163	0x3d583db6	0.052793227
164	0xbe805d8a	-0.25071365
165	0xbc8f8b74	-0.017522551
166	0x3e80e656	0.25175732
167	0x3b1c47c2	0.0023846482
168	0xbe4f0341	-0.20216085
169	0x3e6257dd	0.2210383
170	0xbea23202	-0.31678778
171	0xbe06858f	-0.13136886
172	0x3e81fdee	0.25389045
173	0x3c73bba8	0.014876284
174	0x3db46d7e	0.088099465
175	0x3e99dfe4	0.30053627
176	0x3c88beef	0.016692607
177	0xbd5cae8e	-0.053877406
178	0x3e062c8f	0.13102935
179	0xbe1cf205	-0.15326698
180	0x3e0e33d4	0.13886958
181	0x3e4ec157	0.20190941
182	0xbe9692b3	-0.29408798
183	0x3df4ca56	0.11952655
184	0xbe0c0315	-0.1367305
185	0xbe1b0d00	-0.15141678
186	0x3df8b847	0.12144523
187	0x3e2ace93	0.16680364
188	0x3d4f22c0	0.05057025
189	0x3c0ded2a	0.008662501
190	0x3cac2021	0.021011414
191	0xbe590a57	-0.2119535
192	0x3d18da8a	0.03731779
193	0x3e98f596	0.29874867
194	0x3e744ba3	0.23856978
195	0x3df2578e	0.11833106
196	0x3e5a0cd0	0.2129395
197	0x3e84350c	0.25821722
198	0x3e788fe6	0.24273643
199	0x3e84d7fb	0.2594603
200	0x3ca5b1d5	0.020226398
201	0x3e2ded38	0.16985023
202	0xbeabe057	-0.33569595
203	0x3e5d3a11	0.21604182
204	0x3e3ce9a1	0.18448497
205	0xbd81497d	-0.06312845
206	0xbe314f5e	-0.17315432
207	0x3e8a013e	0.26954073
208	0x3e9f1bde	0.31075948
209	0x3dfae2dc	0.12250301
210	0x3c488acd	0.012240124
211	0xbd1e1b24	-0.038600102
212	0x3e61d425	0.22053583
213	0xbe51e468	-0.20497286
214	0x3e90a996	0.28254384
215	0x3db67ec4	0.089108974
216	0x3e1d481e	0.15359542
217	0x3eb9b2c6	0.36269206
218	0x3cb5e242	0.022202615
219	0x3dacf9aa	0.08446057
220	0xbe8e4486	-0.27786654
221	0xbe961fc7	-0.2932112
222	0xbe8d7ae2	-0.27632815
223	0x3e2237f6	0.1584166
224	0xbe844695	-0.258351
225	0xbe31313b	-0.17303936
226	0x3e885a51	0.26631406
227	0x3d75abaa	0.059978165
228	0x3d1f5077	0.038895097
229	0x3bb2041d	0.0054326192
230	0x3e21d0b0	0.15802264
231	0xbe2b319a	-0.1671814
232	0x3ea3035b	0.31838498
233	0x3e13a2c2	0.14417556
234	0x3e038c58	0.12846506
235	0xbe4bbd6c	-0.19896477
236	0xbe47bd5e	-0.19505832
237	0xbe649355	-0.22321828
238	0x3e93c277	0.28859302
239	0x3d92af38	0.071623266
240	0xbe83d1f4	-0.2574612
241	0xbccd9164	-0.025093742
242	0xbe07ea86	-0.13273057
243	0x3e6ef28f	0.23334716
244	0xbdd10226	-0.10205488
245	0xbe1eb27b	-0.15497772
246	0xbd012b5c	-0.03153549
247	0x3e05edda	0.13079014
248	0x3b88f8cc	0.0041800495
249	0x3dff898e	0.12477408
250	0x3ea11a48	0.31465364
251	0x3e8cce48	0.2750113
252	0xbd97e8eb	-0.074174725
253	0x3eb1ded4	0.34740317
254	0x3e590ca3	0.21196227
255	0x3e965d32	0.29367977

weight_hh_l0 f4 [27, 9]
0	0x3e14151d	0.14461179
1	0x3e10028e	0.14063475
2	0xbca84f79	-0.020545708
3	0x3d850c94	0.0649654
4	0x3b136229	0.0022488928
5	0xbe948bd6	-0.29012936
6	0x3e880ee0	0.2657385
7	0x3d96eceb	0.07369407
8	0xbe170e59	-0.14751567
9	0xbd70fd57	-0.058835354
10	0x3e76395d	0.2404532
11	0xbe0c746e	-0.1371629
12	0xbd2de1b4	-0.042451575
13	0xbdb21a81	-0.086964615
14	0x3d7f0d90	0.062268794
15	0xbdcc0914	-0.09962669
16	0xbeae055e	-0.3398847
17	0xbde0f999	-0.10985107
18	0xbd1c3fa6	-0.038146637
19	0xbd9888cb	-0.07447966
20	0xbd95584c	-0.07292232
21	0x3e20c0a9	0.15698494
22	0x3e63255f	0.22182225
23	0xbda95d42	-0.08269741
24	0xbe80a1e1	-0.25123504
25	0xbd4d06f7	-0.05005547
26	0xbe5d81a1	-0.21631481
27	0x3b8d3b4b	0.004310047
28	0xbd4f0ce7	-0.050549414
29	0x3c9aa36a	0.01887675
30	0xbe853abb	-0.2602137
31	0x3d94099c	0.07228395
32	0xbe3ffbbb	-0.18748371
33	0xb9186410	-0.00014533126
34	0xbdbc3276	-0.09189312
35	0xbe184a40	-0.14872074
36	0xbe0abfc7	-0.1354972
37	0xbe4fd229	-0.20295013
38	0x3e5b0e63	0.21392207
39	0xbdf3c3d0	-0.11902583
40	0xbc9ae7db	-0.018909385
41	0xbdabb4fe	-0.08384131
42	0x3da83e99	0.082150646
43	0x3e90af67	0.2825882
44	0x3d09ae8a	0.03361372
45	0x3ca98376	0.020692568
46	0xbe980111	-0.29688314
47	0x3c93661b	0.017993024
48	0xbd848a2c	-0.06471667
49	0xbe5b81a2	-0.2143617
50	0x3e7c16e5	0.24618109
51	0x3e28b990	0.16477036
52	0x3cfe6ee7	0.031058742
53	0xbe0c18ab	-0.13681285
54	0xbc566bbf	-0.013087212
55	0x3ddae5a5	0.106883325
56	0xbd0da58e	-0.034581713
57	0x3ca7a89d	0.020466143
58	0xbe0a0ecd	-0.13482209
59	0xbe5fb493	-0.21846227
60	0x3d9e6c4a	0.07735498
61	0xbe5bffed	-0.21484347
62	0xbe5c1daa	-0.21495691
63	0xbd88f812	-0.06687941
64	0x3e65d6ae	0.22445175
65	0x3d047fdc	0.0323485
66	0x3e5db322	0.21650365
67	0x3d771535	0.06032296
68	0xbea1abb8	-0.31576324
69	0x3e6f66fa	0.23379126
70	0xbe96d168	-0.2945664
71	0x3e012700	0.12612534
72	0xbdf3c19f	-0.11902165
73	0x3e95759e	0.29191297
74	0x3e768a7c	0.24076265
75	0x3e60e717	0.21963154
76	0xbe75696a	-0.23965994
77	0xbd30f4ce	-0.043202214
78	0xbeb823af	-0.35964724
79	0x3dadfc07	0.08495336
80	0x3c162cb5	0.009165932
81	0x3e66337c	0.22480577
82	0x3e996151	0.2995706
83	0x3c311669	0.010808566
84	0x3e100a8d	0.14066525
85	0x3d07e2d5	0.03317531
86	0xbea1e79e	-0.31622022
87	0x3dfd0550	0.12354529
88	0xbd8672f8	-0.06564897
89	0xbe525b57	-0.20542656
90	0xbe52f86d	-0.2060258
91	0xbccc7908	-0.024960056
92	0x3d850219	0.06494541
93	0x3e5ce0e7	0.21570168
94	0x3baf53d3	0.005350569
95	0xbe2a25a3	-0.1661592
96	0x3ea1f04b	0.3162864
97	0xbe11886e	-0.142122
98	0xbe22e7fd	-0.15908809
99	0x3a3b3184	0.0007140862
100	0x3e75b5e3	0.23995166
101	0xbdacb1af	-0.08432328
102	0x3e9e238a	0.3088649
103	0x3d01f9bc	0.031732306
104	0xbe202e9f	-0.15642785
105	0x3e89a7fa	0.26885968
106	0xbea419d0	-0.32050943
107	0xbe221bc4	-0.15830904
108	0xbe750362	-0.23927072
109	0xbd1391f2	-0.036027856
110	0xbd4007cb	-0.046882432
111	0x3d943b19	0.072378345
112	0x3ba1a7ec	0.004933348
113	0x3d9f0916	0.07765405
114	0xbe5a3d55	-0.21312459
115	0xbe0ebdeb	-0.13939635
116	0x3e13102e	0.14361641
117	0x3e2d1f96	0.1690658
118	0xbde9f38d	-0.11423407
119	0x3cafd2f7	0.0214629
120	0x3ea2e00d	0.31811562
121	0x3e4237fd	0.1896667
122	0xbdca854b	-0.09888705
123	0xbe7ceb0d	-0.2469904
124	0xbe320860	-0.17386007
125	0x3d87c3ac	0.06629118
126	0x3ac68c38	0.001514799
127	0x3e8ee2b0	0.27907324
128	0xb97ce14d	-0.00024116524
129	0xbdb080b9	-0.08618302
130	0x3cdb1f16	0.026748221
131	0xbd5f4fe3	-0.054519545
132	0xbda626f4	-0.081128985
133	0x3d2e1f07	0.04251006
134	0x3e8c321a	0.27381974
135	0x3df0f11c	0.11764738
136	0x3d930596	0.071788
137	0xbcfe12b4	-0.031014778
138	0x3db3c47c	0.08777711
139	0xbe3bc1c7	-0.18335639
140	0x3e7dbcff	0.24779128
141	0x3e86c423	0.26321515
142	0xbe4125ab	-0.18862025
143	0x3e5c4dd4	0.21514064
144	0x3ae30c61	0.0017322415
145	0xbe85b6df	-0.26116082
146	0xbdeade31	-0.11468161
147	0xbe79e8c4	-0.244052
148	0x3e8795dc	0.2648152
149	0x3d2752bc	0.040850386
150	0x3d4e0212	0.050294943
151	0xbe182e61	-0.14861442
152	0xbd759b19	-0.059962366
153	0x3e0fc601	0.14040376
154	0xbe693f96	-0.22778162
155	0xbe6a8c5d	-0.22905107
156	0xbe63767e	-0.2221317
157	0x3e6b176e	0.22958156
158	0xbd87703a	-0.066132024
159	0x3e3c7a0b	0.1840593
160	0xbeb7f743	-0.35930833
161	0xbc1a4289	-0.009415277
162	0x3db92d35	0.09041826
163	0x3e8273d2	0.2547899
164	0x3c01b9c5	0.007917826
165	0xbe3e29f8	-0.18570697
166	0x3de493f8	0.11161035
167	0xbe590d20	-0.21196413
168	0xbea3909b	-0.31946263
169	0xbe1a2858	-0.15054452
170	0xbe9d52f0	-0.3072734
171	0x3db39f40	0.08770609
172	0xbd8621f8	-0.06549448
173	0xb78512ed	-1.5863649e-05
174	0x3e98f8bf	0.29877278
175	0xbe52e8e6	-0.20596656
176	0xbc6c6e9c	-0.014430668
177	0xbe0a99e5	-0.13535269
178	0x3cebed5e	0.028799709
179	0xbe045d00	-0.12926102
180	0x3cc6b2f6	0.024255257
181	0x3e4afc2e	0.19822761
182	0x3d2fe5fa	0.042943932
183	0x3e466e36	0.1937798
184	0xbe2d48f4	-0.1692236
185	0xbe39ce48	-0.18145096
186	0xbe8461ba	-0.2585581
187	0xbd67d8a7	-0.0566031
188	0x3e4279a1	0.1899171
189	0x37c719af	2.3734608e-05
190	0x3d77340a	0.060352363
191	0x38de6004	0.00010603669
192	0x3e25c1a5	0.16187151
193	0x3dd47851	0.10374511
194	0x3d60c9f8	0.054880112
195	0xbe100f87	-0.14068423
196	0x3e5c94ed	0.21541186
197	0xbe58b7ca	-0.2116386
198	0x3640e50d	2.8743555e-06
199	0xbe585f99	-0.21130218
200	0xbe6a4b15	-0.22880204
201	0xbe46b68e	-0.19405577
202	0xbe0634e2	-0.1310611
203	0x3e3ec141	0.18628408
204	0xbccc784e	-0.02495971
205	0xbd335fc7	-0.043792512
206	0xbd507540	-0.05089307
207	0xbd3dd83c	-0.046348795
208	0x3debd852	0.11515869
209	0x3e2a98bf	0.1665983
210	0x3d274692	0.040838785
211	0x3db58187	0.08862596
212	0xbd85624c	-0.06512889
213	0xbebd8f27	-0.3702328
214	0xbd804b9f	-0.062644236
215	0x3e7330af	0.2374904
216	0x3bf7513e	0.0075475266
217	0x3dd63feb	0.1046141
218	0xbe098269	-0.13428654
219	0x3ea765a2	0.32694727
220	0xbe5bef80	-0.21478081
221	0xbe78ac52	-0.24284485
222	0xbddce252	-0.10785355
223	0x3e990f25	0.29894367
224	0x3e36335f	0.17793034
225	0xbe71326c	-0.2355439
226	0xbda1b876	-0.07896511
227	0xbd5a3b6c	-0.053279325
228	0xbe9f41a0	-0.31104755
229	0xbe9aa1aa	-0.30201465
230	0x3e3ed81a	0.18637124
231	0x3e7e3a41	0.2482691
232	0xbda0474a	-0.07826097
233	0x3d99550f	0.07486927
234	0x3c737ab4	0.014860798
235	0x3dc7ec53	0.09761872
236	0xbdebbdd3	-0.115108155
237	0x3dda84bb	0.106698476
238	0x3cc88883	0.024479156
239	0xbd6638c0	-0.056206465
240	0xbe892683	-0.26787195
241	0x3e84fd11	0.25974324
242	0xbd8d8169	-0.06909449

bias_ih_l0 f4 [27]
0	0x3e3c9e9c	0.1841988
1	0xbe3364d6	-0.17518935
2	0x3e4ac4a2	0.19801572
3	0xbe6b515e	-0.22980258
4	0x3e2fedd8	0.17180574
5	0xbe900391	-0.2812772
6	0xbc0d153f	-0.0086110225
7	0xbe8cc28c	-0.27492177
8	0xbde54e1a	-0.11196537
9	0xbe6c4ce8	-0.23076212
10	0x3dc2990e	0.09501849
11	0x3e9c08d4	0.30475485
12	0x3cf124dc	0.029436521
13	0xbe919f6d	-0.28441945
14	0x3e1b9333	0.15192871
15	0x3d641ebb	0.05569337
16	0x3d885e05	0.06658558
17	0x3db294ee	0.08719812
18	0x3df52206	0.1196938
19	0xbd16665f	-0.036718722
20	0x3e899d61	0.26877883
21	0x3dd98830	0.10621679
22	0x3dc7db3a	0.09758611
23	0xbe992608	-0.29911828
24	0x3e22267f	0.15834998
25	0xbe7b54f4	-0.24544126
26	0xbdeebcce	-0.116571054

bias_hh_l0 f4 [27]
0	0x3d0dfdcd	0.03466587
1	0xbe013262	-0.12616876
2	0xbea674f8	-0.32511115
3	0x3e0b2a17	0.13590275
4	0x3c286486	0.010277873
5	0x3e7f3067	0.24920808
6	0xbe2d13c8	-0.16902077
7	0x3d0b19f5	0.0339603
8	0x3d8af7f0	0.067855716
9	0x3e3e5c02	0.18589786
10	0xbe81e15c	-0.25367248
11	0xbe421a28	-0.1895529
12	0xbc393ddb	-0.011306251
13	0xbe9954b8	-0.29947448
14	0xbe004192	-0.12525013
15	0x3e55f0b0	0.20892596
16	0x3e923adf	0.2856054
17	0xbe235b47	-0.15952788
18	0x3d9c3359	0.07626981
19	0x3da18b4f	0.07887899
20	0xbe1b0fda	-0.15142766
21	0xbc669791	-0.014074222
22	0xbe88df91	-0.26733068
23	0x3e972075	0.2951695
24	0xbe294135	-0.16528781
25	0x3c1f562d	0.009725136
26	0x3e4fff7f	0.20312308

weight_ih_l0 f4 [27, 39]
0	0x3ad9fb1b	0.0016630621
1	0xbe901c2e	-0.281465
2	0xbe8a322d	-0.26991406
3	0xbe34fc0d	-0.17674275
4	0xbbbdf7f0	-0.0057973787
5	0xbe72edca	-0.23723522
6	0x3e1ed0d0	0.15509343
7	0x3e44ab3d	0.19205947
8	0x3e6b8849	0.23001207
9	0x3d77559c	0.060384378
10	0x3e4d1506	0.20027551
11	0x3e1ecc77	0.15507685
12	0x3e9c92b2	0.3058067
13	0xbd80b136	-0.062838
14	0x3e80765f	0.2509031
15	0xbe5f3b76	-0.21800026
16	0xbe5a2852	-0.21304443
17	0x3d18d3d2	0.037311383
18	0x3e9f6e5a	0.3113888
19	0xbea460ec	-0.32105196
20	0xbe6ae2d2	-0.22938088
21	0xbe553d3f	-0.20824145
22	0x3ea8c9bf	0.3296642
23	0xbe6f2ae2	-0.23356202
24	0x3d661bf5	0.056179006
25	0x3b0fd84a	0.0021948987
26	0x3e6486ca	0.22317043
27	0x3ddca83f	0.10774278
28	0x3eac9b5b	0.33712277
29	0xbe745e84	-0.2386418
30	0xbe9b7b9b	-0.3036774
31	0xbe62a0b9	-0.22131623
32	0xbe75fdc7	-0.2402259
33	0xbe9475c8	-0.2899611
34	0xbdf7aeb9	-0.120938726
35	0x3d0b3e66	0.033995055
36	0xbe9d562b	-0.30729803
37	0xbdf13673	-0.117779635
38	0xbe53a70d	-0.20669194
39	0x3a356b99	0.00069206354
40	0xbded3bb8	-0.11583656
41	0x3dabecfe	0.08394812
42	0x3a82cc7e	0.0009979156
43	0x3cbabc28	0.022794798
44	0x3ddfe04f	0.10931455
45	0xbe1f34a7	-0.15547429
46	0x3e34c191	0.17651965
47	0xbea62519	-0.32450178
48	0xbdb95c56	-0.09050815
49	0x3ea33b34	0.31881106
50	0x3e0d8beb	0.13822906
51	0xbd9c2514	-0.076242596
52	0xbe419986	-0.18906221
53	0x3e93fa32	0.2890182
54	0xbcb21082	-0.021736387
55	0xbe8753d0	-0.2643113
56	0xbdc7656d	-0.09736142
57	0xbe27e265	-0.16394956
58	0x3e68460a	0.22682968
59	0x3e2e17bf	0.17001246
60	0x3d1155b3	0.03548212
61	0x3ddea066	0.10870437
62	0x3dd3d4f8	0.10343355
63	0x3e42a20f	0.19007133
64	0x3e035ea9	0.12829079
65	0x3e631cb4	0.22178918
66	0xbd8c16c9	-0.068402834
67	0xbe27de73	-0.16393451
68	0xbe254ec7	-0.16143332
69	0xbde7759d	-0.1130173
70	0xbdf64ee2	-0.120267645
71	0xbda34051	-0.07971252
72	0x3cc1c218	0.023652121
73	0xbd539d13	-0.05166347
74	0x3e120863	0.14261012
75	0x3e301870	0.17196822
76	0xbe8e099e	-0.27741712
77	0x3ea380ff	0.31934354
78	0xbe06ca8d	-0.13163204
79	0xbd7bec6b	-0.061504763
80	0x3e9db65e	0.30803198
81	0x3e1c3db9	0.1525792
82	0xb90baeeb	-0.00013321235
83	0xbe0448ae	-0.1291835
84	0xbe816a4c	-0.2527641
85	0x3e85c45f	0.26126382
86	0x3e3024be	0.17201516
87	0xbe489244	-0.19587046
88	0x3cdfb321	0.027307095
89	0x3eaead65	0.34116665
90	0x3e764c61	0.24052574
91	0xbe1ed60a	-0.15511337
92	0xbe68d53c	-0.22737592
93	0xbe386ca5	-0.18010195
94	0xbdd67012	-0.104705945
95	0x3e844b64	0.25838768
96	0x3e88fe6b	0.26756606
97	0xbeac0937	-0.3360078
98	0xbd17a1d6	-0.037019573
99	0x3e06e7ba	0.13174334
100	0x3e0ee289	0.13953604
101	0xbc949e0d	-0.01814177
102	0x3e45ecfd	0.19328685
103	0x3e4bf721	0.19918491
104	0xbe400fc3	-0.18756013
105	0xbe87e846	-0.26544398
106	0xbe389d2c	-0.18028706
107	0x3e0cff65	0.137693
108	0xbe13c5a2	-0.1443086
109	0xbe86ae6b	-0.26304945
110	0xbd90e6df	-0.07075285
111	0xbd81be86	-0.063351676
112	0x3e68fdfc	0.22753137
113	0xbe9db75b	-0.30803952
114	0x3e5f0523	0.21779303
115	0xbdd9d78a	-0.10636814
116	0x3e6a46c7	0.22878562
117	0x3e287d48	0.16454041
118	0xbe0292e3	-0.12751345
119	0xbe0628df	-0.13101529
120	0x3c3b0c99	0.011416578
121	0xbcfb43c1	-0.030671956
122	0xbe72cfa6	-0.23712024
123	0xbdd2fad8	-0.10301751
124	0xbe6a9b92	-0.22910908
125	0x3d47e613	0.0488034
126	0xbdbe48a5	-0.092911996
127	0xbe05aea6	-0.13054904
128	0x3e887c81	0.2665749
129	0x3e89ae55	0.26890817
130	0xbea4b5b8	-0.3216989
131	0x3e374feb	0.1790158
132	0x3e7ea365	0.24867018
133	0x3d6585f9	0.05603597
134	0xbe54c172	-0.20776919
135	0x3e179bf5	0.14805587
136	0xbdc68f91	-0.09695352
137	0xbd0c6e74	-0.034285024
138	0x3e0ee8dc	0.13956016
139	0xbd2e8eee	-0.042616777
140	0xbe3fb30e	-0.18720648
141	0x3e0cb5a2	0.13741162
142	0x3e3b719a	0.18305054
143	0xbcf8f92c	-0.030392252
144	0xbb46147c	-0.0030224612
145	0xbd29db61	-0.04146898
146	0xba91ede8	-0.0011133524
147	0x3de5cee9	0.112211056
148	0xbe8d31c9	-0.27577046
149	0x3cb3f85d	0.021969015
150	0x3e8870b1	0.26648477
151	0xbe86d6c3	-0.26335725
152	0xbe04b10a	-0.1295816
153	0xbd34553a	-0.04402659
154	0xbcb5a665	-0.02217407
155	0xbea94719	-0.33062056
156	0x3dbf7881	0.09349156
157	0xbeb30f0a	-0.3497241
158	0xbc2ebc11	-0.010664956
159	0x3b4185b5	0.0029529158
160	0x3e01595a	0.12631741
161	0xbe64ae77	-0.22332178
162	0x3dcdbe10	0.10046017
163	0x3cea2acb	0.028584858
164	0xbe67068a	-0.22561088
165	0x3e8b7ee8	0.2724526
166	0x3e2245bb	0.15846913
167	0xbea61a1c	-0.32441795
168	0xbe0f3ef9	-0.13988866
169	0x3d0c3259	0.034227703
170	0x3e574290	0.21021485
171	0x3dec08e1	0.11525131
172	0x3e905446	0.28189296
173	0x3e892600	0.26786804
174	0xbded664d	-0.11591778
175	0x3df119a3	0.11772468
176	0xbd92e903	-0.0717335
177	0x3e8c940f	0.2745671
178	0x3c5f5961	0.013632149
179	0x3e9e3ee4	0.30907357
180	0x3e90702b	0.28210577
181	0xbe4e65c5	-0.2015601
182	0xbe8aa579	-0.2707937
183	0xbca84c6e	-0.020544257
184	0xbe2b4e69	-0.1672913
185	0xbdd58f74	-0.10427752
186	0x3e99fb17	0.3007438
187	0x3e70d5be	0.23519036
188	0x3d9ab462	0.075539365
189	0xbe27f35a	-0.16401425
190	0x3e0d6652	0.13808563
191	0xbdc46864	-0.095902234
192	0xbda13326	-0.07871084
193	0x3d340d6b	0.04395811
194	0xbe7dfae4	-0.24802738
195	0x3d0b94f5	0.034077603
196	0x3d0b384d	0.03398924
197	0x3e11656e	0.14198849
198	0xbdcd3950	-0.10020697
199	0xbb8fc006	-0.0043869046
200	0x3df01d16	0.11724298
201	0xbe1411d9	-0.14459933
202	0xbe7ede66	-0.24889526
203	0x3e4caa02	0.19986728
204	0x3d8e9891	0.069626935
205	0xbe2836b5	-0.16427119
206	0x3eaa9b4a	0.333216
207	0x3da68673	0.08131113
208	0xbd8eea1d	-0.06978247
209	0xbe99aa69	-0.30012825
210	0x3e242a4f	0.16031764
211	0x3e940258	0.28908038
212	0x3debde58	0.11517018
213	0xbdb17f46	-0.086668536
214	0xbe81ecbb	-0.25375924
215	0xbe03fa3f	-0.1288843
216	0xbe0b5ee9	-0.13610424
217	0x3e675eb4	0.2259472
218	0xbea7963d	-0.3273181
219	0xbe1b4078	-0.15161312
220	0xbdec3706	-0.115339324
221	0xbe98a95f	-0.2981672
222	0x3c5065d5	0.012719591
223	0x3ea705d3	0.3262163
224	0xbe4eead2	-0.20206764
225	0x3e66f4a3	0.22554259
226	0xbe1502ff	-0.14551924
227	0x3e422b30	0.18961787
228	0x3ea3e640	0.32011604
229	0xbcde0fed	-0.027107203
230	0x3ea5ba63	0.32368764
231	0x3badbd13	0.0053020804
232	0x3e4b8701	0.19875719
233	0x3d3a1f7d	0.045440186
234	0xbe6f4139	-0.23364724
235	0x3e1dd79d	0.15414281
236	0x3ea0dbdc	0.3141774
237	0x3de1f366	0.11032753
238	0xbcc68959	-0.024235414
239	0x3e47e390	0.19520402
240	0xbc59dbd9	-0.013297045
241	0xbe95ed43	-0.2928258
242	0x3dbdade5	0.092616834
243	0x3e88c1bb	0.26710305
244	0x3e9d7546	0.30753535
245	0x3d2038e5	0.03911676
246	0xbe7befaa	-0.24603143
247	0xbdfea0ba	-0.12433
248	0xbe327839	-0.17428674
249	0xbea477f7	-0.32122776
250	0x3e04e41f	0.12977646
251	0xbe4672e8	-0.19379771
252	0x3d55f62c	0.05223672
253	0x3e8fae26	0.28062552
254	0xbe561b5c	-0.20908874
255	0x3e263dfa	0.1623458

weight_hh_l0 f4 [27, 9]
0	0xbe80e104	-0.25171673
1	0xbbe724bf	-0.007053941
2	0xbd9f511d	-0.07779143
3	0xbd4fd8fd	-0.050744046
4	0xbd9675eb	-0.0734671
5	0x3e49d9fd	0.19712062
6	0xbe7dcb78	-0.24784648
7	0xbe37329a	-0.17890397
8	0x3ecea4ed	0.40360203
9	0xbe3d12f0	-0.18464255
10	0x3e5b22cb	0.21399991
11	0x3e129bb3	0.14317207
12	0xbe90b73f	-0.28264806
13	0x3e4438ae	0.19162247
14	0xbe85a5dd	-0.26103106
15	0x3e776341	0.24158956
16	0xbe78de51	-0.24303557
17	0x3e0c857a	0.13722792
18	0xbcf66f63	-0.03008241
19	0x3d9ae444	0.075630695
20	0x3d276b1d	0.040873636
21	0xbcb8f3c9	-0.022577183
22	0x3eac3e1c	0.33641136
23	0x3dfaacb1	0.122399695
24	0xbe50301c	-0.20330852
25	0x3e869b31	0.26290277
26	0x3ea3d25c	0.3199643
27	0xbe1827b6	-0.14858899
28	0xbdf51504	-0.11966899
29	0x3e843492	0.25821358
30	0x3b0c65e7	0.0021423043
31	0x3ca7131e	0.020394858
32	0x3d4fc70f	0.050726946
33	0xbdbfa161	-0.093569525
34	0x3e91c67a	0.28471738
35	0x3d616568	0.05502835
36	0xbe911ad1	-0.28340772
37	0xbe370aec	-0.1787526
38	0xbd32d427	-0.043659355
39	0x3e9e30b6	0.30896538
40	0x3e242585	0.16029938
41	0x3e346e08	0.17620099
42	0x3db8995c	0.09013626
43	0xbe543f6d	-0.2072732
44	0xba0d96a7	-0.0005401172
45	0xbe95dd9d	-0.2927064
46	0x3c0322e7	0.008003927
47	0x3e266baa	0.16252008
48	0x3d9ca9f8	0.076496065
49	0xbd15f289	-0.036608253
50	0x3e7c8e67	0.24663697
51	0x3e3d3c73	0.18480091
52	0x3dc90a62	0.098164335
53	0xbde2b449	-0.11069543
54	0x3ca2bbcd	0.019864941
55	0x3e1baf40	0.15203571
56	0x3dabe1a9	0.08392651
57	0xbdec6936	-0.11543505
58	0x3e166401	0.14686586
59	0xbe8307cd	-0.2559189
60	0xbe57d0f3	-0.21075802
61	0xbdb98e58	-0.09060353
62	0x3e41e356	0.18934378
63	0xbe48077e	-0.19534108
64	0xbe4b6e09	-0.19866194
65	0xbe9475ba	-0.28996068
66	0xbb0a5d09	-0.0021112582
67	0xbe92f712	-0.28704125
68	0x3be8d367	0.0071052792
69	0xbe9aa21b	-0.30201802
70	0x39299b32	0.0001617491
71	0xbe9bfe32	-0.30467373
72	0x3df73042	0.12069751
73	0x3eac9077	0.33703968
74	0x3e695d78	0.22789562
75	0x3e049120	0.12945986
76	0x3e05b37e	0.13056752
77	0x3b4f3990	0.0031620003
78	0xbea0b010	-0.31384325
79	0x3e307265	0.17231138
80	0xbdb9dd26	-0.09075384
81	0x3df3f578	0.11912054
82	0xbeb84fe8	-0.35998464
83	0x3e2b7ae1	0.16746093
84	0x3e437538	0.19087684
85	0x3e3d65db	0.18495886
86	0x3eb34952	0.35016876
87	0xbe17ebbb	-0.14836018
88	0xbe334b00	-0.17509079
89	0x3d575274	0.052568868
90	0x3d6718b6	0.05642005
91	0xbd830ab1	-0.063985236
92	0xbe2a8517	-0.16652332
93	0xbe2afdcd	-0.1669838
94	0xbda4fee5	-0.0805643
95	0x3dd1c189	0.10241992
96	0x3e20b4ab	0.1569392
97	0x3d8cbe4a	0.06872232
98	0xbeae8151	-0.34083036
99	0x3dc00651	0.09376205
100	0xbd56d9b0	-0.052453697
101	0x3dd800aa	0.10547002
102	0xbea9436a	-0.33059245
103	0xbc7f770e	-0.01559235
104	0xbd88d2eb	-0.066808544
105	0x3c61e372	0.013787137
106	0x3e25c1f7	0.16187273
107	0x3d5babe9	0.053630743
108	0xbe8cd358	-0.27504992
109	0xbec86505	-0.39139572
110	0xbdb4f924	-0.08836582
111	0x3e52225e	0.20520923
112	0x3e4d2e62	0.20037225
113	0xbc677dfd	-0.014129159
114	0x3e3ecad4	0.1863206
115	0xbeb0a35d	-0.34499636
116	0xbe2a581f	-0.16635178
117	0x3e78720c	0.24262255
118	0xbe5ff62a	-0.21871248
119	0xbd9154c0	-0.07096243
120	0x3dd86137	0.10565417
121	0xbe848223	-0.25880536
122	0x3ea3ef22	0.3201838
123	0x3d5d3119	0.0540019
124	0x3eb3dd50	0.35129786
125	0x3e2f5be0	0.17124891
126	0xbd9a33be	-0.075294
127	0xbcd436c5	-0.025905022
128	0x3e1ff335	0.1562012
129	0xbeb3d3a1	-0.35122398
130	0xbdbd9157	-0.09256237
131	0x3cddc66f	0.02707216
132	0x3e46af6f	0.1940286
133	0x3dd26c3b	0.102745496
134	0x3e40b0c3	0.18817429
135	0xbe2c6a36	-0.16837391
136	0xbdb9ab16	-0.09065835
137	0xbc4a4b7e	-0.0123471
138	0x3e5b9a01	0.21445467
139	0xbc98f9cc	-0.0186738
140	0xbd937444	-0.0719991
141	0xbddf267f	-0.108960144
142	0xbdaf23ed	-0.08551774
143	0x3de7b855	0.113144554
144	0xbe8a7852	-0.27044922
145	0x3dae45d8	0.085094154
146	0xbe268f35	-0.16265567
147	0xbd177f92	-0.036986895
148	0xbd000fe3	-0.03126515
149	0xbdb8102c	-0.089874595
150	0xbb8ea89f	-0.0043535973
151	0xbd243b22	-0.040095456
152	0x3dd83785	0.105574645
153	0x3e8762e9	0.2644265
154	0x3e69f810	0.22848535
155	0xbe2caf57	-0.16863762
156	0xbe35b7d4	-0.17745906
157	0x3e58ec7c	0.21183962
158	0x3df9d744	0.12199262
159	0x3e8e30b5	0.27771536
160	0x3dd2db00	0.10295677
161	0x3e8687c0	0.26275444
162	0x3e553afd	0.20823283
163	0x3dfeb96b	0.124377094
164	0x3e06adb3	0.13152198
165	0x3dd672d6	0.10471122
166	0xbe8d3cc1	-0.27585414
167	0xbe95f3ad	-0.29287472
168	0x3e52788e	0.205538
169	0x3dbfcf37	0.09365695
170	0xbe047495	-0.12935098
171	0x3e8cba1c	0.2748574
172	0xbe9d9862	-0.3078032
173	0xbe4a7340	-0.19770527
174	0xbe7201ec	-0.23633546
175	0xbe988a66	-0.2979309
176	0x3d8ac9d7	0.06776779
177	0x3e32d57a	0.17464247
178	0xbe406637	-0.18788992
179	0xbe83954c	-0.25699842
180	0x3d8c61e5	0.068546094
181	0xbdee7cbe	-0.116448864
182	0x3ea1c3b1	0.31594613
183	0xbeb65adf	-0.35616204
184	0x3ea9120f	0.3302159
185	0xbe27ee95	-0.16399606
186	0x3c4f2baf	0.012644692
187	0x3e4da6bb	0.20083134
188	0x3dc78b9b	0.097434245
189	0xbe4f8d75	-0.20268805
190	0xbbf10228	-0.0073549934
191	0x3e8ea141	0.27857402
192	0x3ec67bdc	0.38766372
193	0x3cca592a	0.02470072
194	0xbcbd36e4	-0.023097463
195	0xbe70052a	-0.2343947
196	0x3e944972	0.28962284
197	0xbe73cd0d	-0.2380869
198	0xbe7dfa16	-0.24802431
199	0x3e57349d	0.21016164
200	0xbdfa981a	-0.12236042
201	0xbe407f6c	-0.18798608
202	0xbe2d3adb	-0.16916983
203	0x3da2afe4	0.07943705
204	0x3e5e1d1e	0.21690795
205	0xbe14bc92	-0.14525059
206	0x3ec71f81	0.38891223
207	0xbe967072	-0.29382664
208	0xbc4a80cf	-0.012359812
209	0xbe92237d	-0.285427
210	0xbeb7e245	-0.35914817
211	0x3d51684c	0.051124856
212	0xbea0810e	-0.3134846
213	0x3e8de7bd	0.27715865
214	0xbd3cdd62	-0.046109565
215	0xbd109e67	-0.035307314
216	0x3c420ed8	0.011844359
217	0x3dafea73	0.085896395
218	0xbe1bea9a	-0.15226212
219	0xbe0486d2	-0.12942055
220	0xbc48194a	-0.012213061
221	0x3cf0cae2	0.029393617
222	0x3de524ec	0.11188683
223	0xbe265cdd	-0.16246362
224	0x3eac5f3e	0.33666414
225	0xbea11911	-0.31464437
226	0x3e29f2ab	0.16596477
227	0xbe62fa6d	-0.22165842
228	0x3e56d25f	0.20978688
229	0xbe9c344b	-0.30508646
230	0xbe9ac6e9	-0.3022988
231	0xbe8ae7e1	-0.27130035
232	0xbe857e64	-0.2607299
233	0x3dae0a2e	0.08498035
234	0xbe41368e	-0.18868467
235	0xbcd5e52e	-0.026110258
236	0xbd71412f	-0.058900055
237	0x3e145b0a	0.14487854
238	0x3e596b13	0.21232252
239	0x3de3f85b	0.111313544
240	0xbdeb538d	-0.114905454
241	0x3e2c1297	0.16803966
242	0xbe6ac322	-0.22926

bias_ih_l0 f4 [27]
0	0x3deb135a	0.114783004
1	0xbd60cf68	-0.054885298
2	0xbd3f8c2a	-0.04676453
3	0x3e723193	0.23651724
4	0xbe964017	-0.29345772
5	0xbcfabe47	-0.03060831
6	0x3e9627fe	0.29327387
7	0x3e4d612f	0.20056604
8	0xbe1c5c60	-0.15269613
9	0x3e32b8db	0.1745333
10	0xbe40e275	-0.18836387
11	0x3e30d1ee	0.17267582
12	0x3da50bd0	0.08058894
13	0xbe853288	-0.26015115
14	0xbbbbc2f7	-0.0057300287
15	0xbd5ce61d	-0.05393039
16	0xbe171b6e	-0.14756557
17	0x3ebcf621	0.3690653
18	0xbe342428	-0.17591918
19	0xbd9bc0da	-0.07605143
20	0x3cab9db4	0.020949222
21	0x3d2ee02b	0.042694252
22	0xbc8fe144	-0.01756347
23	0xbb179d88	-0.0023134667
24	0x3e2092ac	0.15680951
25	0xbdc3a076	-0.0955209
26	0xbd51cea9	-0.051222477

bias_hh_l0 f4 [27]
0	0x3e31a52d	0.17348166
1	0xbe85a1b3	-0.2609993
2	0xbdc21041	-0.094757564
3	0xbe20289a	-0.15640488
4	0x3e74e31a	0.23914757
5	0x3e3f1570	0.18660522
6	0xbe8add10	-0.27121782
7	0x3d9de0c5	0.07708887
8	0xbeb2857b	-0.34867463
9	0x3eb2851f	0.34867188
10	0xbdfb0126	-0.122560784
11	0xbde95406	-0.11392979
12	0xbe073591	-0.13204028
13	0xbe1dcd4f	-0.1541035
14	0xbe92d720	-0.28679752
15	0x3dc8f7a6	0.0981286
16	0x3e84c998	0.25935054
17	0xbd08c20d	-0.033388186
18	0x3e739215	0.23786195
19	0x3e70b734	0.23507386
20	0x3ea5f835	0.3241593
21	0x3e1c1ed4	0.15246135
22	0x3dff1ccc	0.124566644
23	0x3e2c5bd5	0.16831906
24	0xbe99a945	-0.30011955
25	0x3db88f72	0.09011735
26	0xbd93244c	-0.071846575

weight f4 [9, 9]
0	0x3d9b090a	0.075700834
1	0x3de84278	0.11340803
2	0x3da37f62	0.07983281
3	0x3e3fd103	0.18732075
4	0x3e130474	0.14357167
5	0xb98db00d	-0.00027024784
6	0xbd120c47	-0.03565624
7	0xb96a000e	-0.00022316
8	0x3dab7090	0.08371079
9	0x3e60a4ce	0.21937868
10	0x3e7d92f8	0.24763095
11	0xbe22a1b5	-0.15881999
12	0x3c8abfc5	0.016937146
13	0x3e894a77	0.26814625
14	0x3d84d1d9	0.06485338
15	0x3bb715d3	0.0055873184
16	0xbe0c19fe	-0.1368179
17	0xbe715e34	-0.23571092
18	0x3dc03c7b	0.09386536
19	0xbe97945f	-0.29605386
20	0x3e0b4e23	0.13604026
21	0x3d9f2049	0.0776983
22	0x3e1e26c4	0.15444475
23	0xbe1732f9	-0.14765538
24	0x3d129b83	0.03579284
25	0x3d5c966d	0.053854395
26	0x3e58a642	0.21157172
27	0x3dbd6520	0.09247804
28	0x3e56162a	0.20906892
29	0xbde5083d	-0.11183212
30	0xbd26a7b6	-0.040687285
31	0x3e9b53b6	0.30337304
32	0x3ce49095	0.027900973
33	0x3e8fd5c0	0.28092766
34	0xbe411134	-0.18854219
35	0xbe89161f	-0.2677469
36	0xbd070ce0	-0.032971263
37	0x3da16a05	0.0788155
38	0xbd944d13	-0.07241263
39	0xbd93e22b	-0.072208725
40	0x3d0f4b7c	0.034984097
41	0xbcba3bea	-0.022733647
42	0xbb040a9e	-0.002014793
43	0x3e02a264	0.1275726
44	0x3e1262d2	0.1429551
45	0xbe10c4b1	-0.14137532
46	0x3e9df580	0.30851364
47	0x3ea06ead	0.3133444
48	0xbc903cc3	-0.017607098
49	0x3e92a434	0.28640902
50	0x3d80663f	0.06269502
51	0x3eabc8ad	0.3355154
52	0x3e1ec960	0.15506506
53	0xbe9e6703	-0.30937967
54	0x3df5972f	0.119917266
55	0xbea453b0	-0.32095098
56	0xbd7cddda	-0.06173501
57	0x3e2aa059	0.1666273
58	0x3ddb4629	0.10706741
59	0xbd0211a1	-0.031755093
60	0x3e8474cf	0.25870368
61	0xbe2bb7bd	-0.1676931
62	0x3e820572	0.2539478
63	0xbe5e6f77	-0.21722208
64	0x3e90af83	0.28258905
65	0xbe19a7dd	-0.15005441
66	0xbe8528c3	-0.2600766
67	0x3ebb8d8b	0.36631426
68	0x3d154981	0.036447052
69	0xbe7c592b	-0.2464339
70	0xbda46fd0	-0.08029139
71	0xbdc41c81	-0.09575749
72	0xbe8ddf30	-0.2770934
73	0xbc9cfb9e	-0.01916295
74	0xbdd6c867	-0.104874425
75	0x3daf2af5	0.08553115
76	0x3e9515e8	0.29118276
77	0x3e416b08	0.18888485
78	0xbe978fe2	-0.2960196
79	0x3e7b6d92	0.24553517
80	0x3d3e3747	0.046439435

bias f4 [9]
0	0xbe581ba5	-0.21104296
1	0x3e9396a8	0.2882588
2	0x3e0e97a0	0.13925028
3	0xbd4a682a	-0.049415745
4	0xbb95b580	-0.0045687556
5	0x3e0d94b3	0.13826256
6	0xbd30d23f	-0.043169256
7	0x3e616ada	0.22013417
8	0x3ea7e64c	0.3279289
