KNet/Decimation case/model/model_KNetNew_Dec_r0_Transfer.pt (torch, 399365 bytes, 41 tensors)

weight_ih_l0 f4 [27, 15]
0	0x3e0b255f	0.13588475
1	0x3daa2bd1	0.083091386
2	0x3d191c97	0.03738078
3	0xbe8cef2f	-0.27526233
4	0x3e8ce986	0.27521914
5	0xbe7ab525	-0.24483164
6	0xbd7e84ef	-0.062138494
7	0xbe10441e	-0.14088485
8	0x3e9a2f9c	0.30114448
9	0xbe5b573c	-0.21419996
10	0xbe2769fb	-0.16349022
11	0xbdfbfcf0	-0.123041034
12	0x3d78ed4c	0.06077318
13	0x3c32ea9f	0.010920196
14	0xbe24f893	-0.16110449
15	0x3e60adb4	0.21941262
16	0x3c81671e	0.01579624
17	0x3d9645d4	0.073375374
18	0x3d6815df	0.056661483
19	0xbd2f5cc0	-0.042813063
20	0xbde5cd00	-0.11220741
21	0xbe998d52	-0.2999063
22	0xbd60b9e4	-0.05486478
23	0x3c0729d9	0.008249723
24	0xbe32ab2f	-0.17448114
25	0xbdb896ba	-0.09013124
26	0xbe78f71d	-0.24313016
27	0xbe90bb46	-0.28267878
28	0x3dc6fc5e	0.09716104
29	0xbea889dc	-0.32917678
30	0x3bfcaf7c	0.007711349
31	0x3e90fafd	0.2831649
32	0x3e5305d9	0.206077
33	0xbd50594f	-0.05086642
34	0xbd615eed	-0.05502217
35	0xbcf3dd40	-0.029768586
36	0x3c7a633a	0.0152824465
37	0xbcec459b	-0.028841784
38	0xbe3ecfaf	-0.18633913
39	0xbd7bf19d	-0.061509717
40	0x3e9755e9	0.29557732
41	0xbe12a39c	-0.14320225
42	0xbe69833f	-0.22803973
43	0x3e8e0a42	0.277422
44	0xbe840ab2	-0.2578941
45	0x3e24b9c0	0.16086483
46	0x3ea4d499	0.3219345
47	0x3e400ef2	0.18755701
48	0x3e7ebfaa	0.24877802
49	0x3e51897d	0.20462604
50	0xbca0af58	-0.01961486
51	0x3e104a4b	0.1409084
52	0x3e4765bc	0.19472402
53	0xbe6b377e	-0.22970387
54	0xbc9e4a5a	-0.019322563
55	0xbe51877f	-0.20461844
56	0x3e70136e	0.23444912
57	0x3d9637f7	0.07334893
58	0x3e3c3dc5	0.18382938
59	0xbe5f01e9	-0.21778072
60	0xbe9438f6	-0.28949708
61	0x3e891eb7	0.26781246
62	0x3d4c8ae4	0.049937144
63	0x3ea18c5a	0.31552392
64	0xbea9699c	-0.33088386
65	0xbd28fcae	-0.0412566
66	0xbccf1238	-0.025277242
67	0xbea496f2	-0.32146412
68	0xbe8c8ba6	-0.27450293
69	0x3e3a78af	0.182101
70	0xbe81648d	-0.25272027
71	0xbdc9f7ff	-0.098617546
72	0xbe03fcd7	-0.1288942
73	0x3e6c19f1	0.23056771
74	0xbdc1e471	-0.094674
75	0xbdca9130	-0.098909736
76	0x3dc5c88c	0.09657392
77	0x3e73d784	0.23812681
78	0x3e16837f	0.146986
79	0xbe83b7dd	-0.25726214
80	0x3def2756	0.116774246
81	0x3e89bcc7	0.26901838
82	0x3ce346ab	0.027743658
83	0x3c8620e2	0.016373102
84	0x3e670046	0.22558698
85	0xbe25b185	-0.16181
86	0x3df74897	0.12074392
87	0x3e633166	0.22186813
88	0x3d431a16	0.0476323
89	0x3ddc4935	0.10756151
90	0xbe4da266	-0.20081481
91	0x3d9e1b6e	0.077200755
92	0x3d9b8bce	0.07595025
93	0x3ea32b7e	0.3186912
94	0xbac8851b	-0.0015298458
95	0x3e1ba295	0.15198739
96	0x3e9e6ff0	0.30944777
97	0x3e7146c2	0.23562148
98	0x3e5a428c	0.21314448
99	0xbe77a323	-0.24183325
100	0xbddba9aa	-0.1072572
101	0x3cc604f1	0.024172278
102	0xbe88b191	-0.26697972
103	0x3eaab32a	0.33339816
104	0x3e98f5f7	0.29875156
105	0x3c7a83f6	0.015290251
106	0xbe50408c	-0.20337123
107	0x3e9b7c84	0.30368435
108	0x3e82f78e	0.25579494
109	0x3e8b779a	0.27239686
110	0x3e3eb632	0.1862419
111	0x3db9d028	0.09072906
112	0x3e750671	0.23928238
113	0xbe7b37d4	-0.24533015
114	0x3e8ba58d	0.27274743
115	0xbbcf60ee	-0.0063286936
116	0x3cf48451	0.02984825
117	0xbdc893a4	-0.09793785
118	0xbe77b1fa	-0.24188986
119	0xbe7f52ba	-0.24933901
120	0x3daa6c94	0.08321491
121	0x3d964323	0.07337024
122	0xbddea194	-0.10870662
123	0x3ca077ed	0.019588435
124	0xbe80a8f7	-0.2512891
125	0x3e711f16	0.23547015
126	0xbe4aa121	-0.19788028
127	0xbe71fb3f	-0.23630999
128	0xbdb43ebc	-0.08801028
129	0x3c4f695d	0.012659398
130	0x3df99ccb	0.12188109
131	0xbea2f9ce	-0.3183121
132	0xbe69b01c	-0.22821087
133	0x3d933f82	0.071898475
134	0xbdc856d1	-0.09782184
135	0x3e40f4b5	0.18843348
136	0x3e69921f	0.22809647
137	0x3cf6a39d	0.030107314
138	0xbe04a1e2	-0.12952378
139	0xbe8d49d7	-0.27595398
140	0xbe866e1a	-0.26255876
141	0xbe309025	-0.17242487
142	0x3e9f3279	0.31093195
143	0x3e93327f	0.28749463
144	0xbe029281	-0.127512
145	0xbe21f1c8	-0.15814888
146	0x3e63d334	0.22248536
147	0xbe9a76be	-0.30168718
148	0x3e279e19	0.16368903
149	0xbdf8e0ba	-0.12152238
150	0xbd3e90d1	-0.046524826
151	0xbe433415	-0.19062836
152	0x3e30b73a	0.17257395
153	0xbe601169	-0.21881641
154	0xbe575fb2	-0.21032599
155	0xbe57302a	-0.21014467
156	0x3da68133	0.081301115
157	0xbe3a7c5e	-0.18211505
158	0xbca9b9ce	-0.020718481
159	0xbe0ef0a7	-0.13958989
160	0x3ded7ac9	0.11595685
161	0xbda1b6c5	-0.07896189
162	0x3d9f777f	0.07786464
163	0x3e76b076	0.24090752
164	0x3e869e94	0.2629286
165	0x3e1de80a	0.15420547
166	0x3e228c06	0.15873727
167	0xbe4a848f	-0.1977713
168	0xbea0f804	-0.3143922
169	0x3e28e2b0	0.16492724
170	0x3e2893cd	0.16462632
171	0x3e8ce6b0	0.2751975
172	0x3e0b751d	0.13618894
173	0xbe0d113b	-0.13776104
174	0x3ddbf67e	0.10740374
175	0xbde4f572	-0.111796275
176	0x3d98f1ca	0.074679926
177	0x3c48950d	0.012242568
178	0x3daa2c14	0.083091885
179	0xbe37422f	-0.17896341
180	0x3e78b3fd	0.2428741
181	0xbe427f7a	-0.18993941
182	0xbea2013c	-0.31641567
183	0xbd2066ef	-0.039160665
184	0xbe3661c4	-0.17810732
185	0xbe8841a0	-0.26612568
186	0x3cc88772	0.024478648
187	0xbdab94ba	-0.08377977
188	0xbd994773	-0.07484331
189	0x3e5aac14	0.21354705
190	0x3e81f958	0.25385547
191	0x3e828750	0.2549386
192	0xbea57691	-0.3231702
193	0xbe491c35	-0.19639666
194	0xbe9b66ba	-0.30351812
195	0x3e4c7afd	0.19968791
196	0x3e5c87f2	0.21536234
197	0x3c999981	0.018749954
198	0x3e8d34ef	0.27579448
199	0x3e1c1089	0.15240683
200	0xbc9c7314	-0.019097842
201	0x3e77b611	0.24190547
202	0x3dfb1340	0.12259531
203	0xbd32aa68	-0.043619543
204	0x3d09d002	0.033645637
205	0x3db84e77	0.08999341
206	0xbd8bc34d	-0.0682436
207	0xbe7c6d91	-0.24651171
208	0xbe9b3e85	-0.30321136
209	0xbe269f69	-0.16271748
210	0x3e0d7a0c	0.13816088
211	0xbe224a4f	-0.15848659
212	0xbe813f20	-0.25243473
213	0x3e7e552c	0.24837178
214	0x3b48d787	0.0030646042
215	0x3e774c04	0.24150091
216	0x3d23dcaa	0.040005364
217	0xbd89fe51	-0.0673796
218	0xbe293317	-0.16523395
219	0x3de7b253	0.113133095
220	0x3e8e71d3	0.27821216
221	0x3e45a854	0.19302493
222	0x3e838f6f	0.2569537
223	0xbc414784	-0.011796836
224	0x3e3d9923	0.18515448
225	0xbdff30a5	-0.1246045
226	0x3e5c7db9	0.21532334
227	0x3d85e54b	0.06537875
228	0x3e8f1e1b	0.27952656
229	0x3d1c9be2	0.0382346
230	0xbea15aa9	-0.3151448
231	0x3ea88f70	0.32921934
232	0x3df508e4	0.119645864
233	0x3de5af6d	0.112151004
234	0x3e09e2a2	0.1346536
235	0x3d9660a2	0.0734265
236	0x3e412dd1	0.18865134
237	0xbe4e8a7e	-0.20170018
238	0x3e923f87	0.28564093
239	0x3ea4be87	0.3217661
240	0x3d44df78	0.04806468
241	0x3e7c3e94	0.24633247
242	0xbe3a68e8	-0.18204081
243	0x3e49ca69	0.1970612
244	0xbe8ae8fd	-0.2713088
245	0xbdec8a2c	-0.11549792
246	0xbdbd052e	-0.092295036
247	0x3e22c8a8	0.15896857
248	0xbe91cc4e	-0.28476185
249	0x3de573bf	0.112037174
250	0x3c7f96c6	0.015599912
251	0xbdac13af	-0.08402192
252	0xbe7bf52b	-0.24605243
253	0xbd1eb6bd	-0.03874849
254	0xbe36ebf9	-0.17863454
255	0x3d4dd3b2	0.050250717

weight_hh_l0 f4 [27, 9]
0	0xbd22177f	-0.03957319
1	0xbdf22770	-0.11823928
2	0x3e6272b9	0.22114076
3	0x3df733e8	0.12070447
4	0xbe2c3201	-0.1681595
5	0x3dae61f7	0.08514779
6	0xbe956d7f	-0.291851
7	0x3e971cc6	0.2951414
8	0x3e69a226	0.22815761
9	0x3e995dc3	0.29954347
10	0xbe637541	-0.22212698
11	0xbe65cb48	-0.22440827
12	0x3e29c70b	0.16579835
13	0xbea3df2c	-0.32006204
14	0xbdf97cb3	-0.121819876
15	0xbdf0c67f	-0.1175661
16	0x3e20e411	0.15712
17	0xbe85c9a8	-0.26130414
18	0x3e79be3a	0.24388972
19	0xbe802ed8	-0.2503574
20	0xbe097239	-0.13422479
21	0xbe330787	-0.1748334
22	0x3e0fcb91	0.14042498
23	0x3e58a291	0.21155764
24	0x3cee3b8e	0.029081132
25	0x3e594089	0.21216024
26	0x3e60f685	0.2196904
27	0x3e1fc409	0.15602125
28	0xbd825bfa	-0.063651994
29	0xbe284443	-0.1643229
30	0x3e74cdc4	0.23906618
31	0x3de974b3	0.11399212
32	0xbe65f3c1	-0.22456266
33	0xbe74175f	-0.2383704
34	0xbe77e836	-0.24209675
35	0xbdcedafb	-0.10100361
36	0x3e101e57	0.14074074
37	0xbe98a3ea	-0.29812557
38	0xbe7d5b44	-0.24741846
39	0xbe11508d	-0.14190884
40	0x3de8c4ec	0.11365685
41	0xbd307648	-0.04308155
42	0x3e0d685d	0.13809343
43	0xbced8fd0	-0.02899924
44	0x3dfe0451	0.12403167
45	0x3e01e491	0.12684847
46	0x3e8a7cce	0.27048343
47	0x3cc6d86f	0.024273125
48	0x3be9920f	0.0071280072
49	0xbe9b1816	-0.30291814
50	0x3d024ee9	0.031813536
51	0xbe567dbb	-0.209464
52	0xbe35cfdf	-0.17755078
53	0xbdcb61f1	-0.0993079
54	0xbbc24714	-0.0059288833
55	0xbe9b9cc0	-0.30393028
56	0x3e961ae6	0.29317397
57	0x3e31340e	0.17305014
58	0xbe264484	-0.16237074
59	0x3df08af0	0.1174525
60	0x3e1fd2dd	0.15607782
61	0xbcf40a4c	-0.029790066
62	0xbe10d860	-0.1414504
63	0x3e4fa095	0.20276101
64	0xbc7b16f5	-0.015325298
65	0xba985d18	-0.0011624424
66	0xbcf9337f	-0.030420063
67	0x3df99060	0.121857405
68	0xbca84aa1	-0.020543398
69	0x3e659bc3	0.224227
70	0xbd3f1868	-0.046654135
71	0xbe6656a5	-0.2249399
72	0xbe8a09dc	-0.26960647
73	0xbdec3b55	-0.11534754
74	0x3e4c7046	0.19964704
75	0x3df16492	0.117867604
76	0x3e67ec95	0.22648843
77	0xbe0f5c03	-0.13999943
78	0x3e9c0db5	0.30479208
79	0x3b3c734e	0.002875525
80	0xbc019509	-0.007909068
81	0xbe8fd634	-0.28093112
82	0x3de80174	0.11328402
83	0xbe784b42	-0.24247459
84	0xbde47a66	-0.11156158
85	0xbe773f5e	-0.24145266
86	0xbde42ed4	-0.11141744
87	0x3d0dc4a7	0.03461137
88	0xbc1d49cb	-0.009600113
89	0xbea117be	-0.31463426
90	0xbea75f08	-0.3268969
91	0x3e91a439	0.28445604
92	0xbeb0950b	-0.3448871
93	0x3d364d54	0.04450734
94	0xbe92adda	-0.28648263
95	0x3e536b11	0.20646311
96	0xbdbb9c76	-0.09160702
97	0xbe94f3ef	-0.29092357
98	0x3da37ceb	0.079828106
99	0x3ea42afe	0.3206405
100	0x3e183370	0.14863372
101	0xbe3a560e	-0.1819689
102	0xbd9d373a	-0.07676549
103	0x3d458459	0.04822192
104	0x3bd939be	0.006629198
105	0xbebe9cd6	-0.3722903
106	0x3e726cce	0.23674318
107	0x3e89000b	0.26757845
108	0x3e9acee6	0.30235976
109	0x3e0c3a51	0.13694121
110	0x3ca3cdba	0.019995559
111	0xbe08a321	-0.13343479
112	0x3e9fd15f	0.31214425
113	0x3e9a6699	0.301564
114	0xbea4ad4f	-0.32163474
115	0xbd9080c4	-0.0705581
116	0xbbd1fe34	-0.006408477
117	0x3e4abfb7	0.19799696
118	0xbea67a66	-0.32515258
119	0xbe05a500	-0.13051224
120	0x3d8cb36f	0.06870162
121	0x3e886f1e	0.26647276
122	0x3d27c8c4	0.04096295
123	0xbe9806f8	-0.29692817
124	0xbe8ee404	-0.27908337
125	0x3dc10c32	0.09426154
126	0xbe9961d5	-0.29957452
127	0xbe3e1ec8	-0.1856643
128	0x3e68e898	0.22744977
129	0xbe7a9e97	-0.2447456
130	0xbe3da87e	-0.18521306
131	0x3e3543d7	0.1770166
132	0xbca4da32	-0.020123575
133	0xbe26c529	-0.16286148
134	0xbd1b3c9a	-0.03789959
135	0x3e6f1c46	0.23350629
136	0x3d8a4339	0.06751103
137	0x3e73efed	0.23821993
138	0xbe3d99a5	-0.18515642
139	0x3e9d7fde	0.30761617
140	0x3e9faf74	0.31188548
141	0xbebc84f6	-0.3682019
142	0x3e096338	0.13416755
143	0xbe8fb18c	-0.28065145
144	0xbeaa55ba	-0.3326853
145	0x3cf2ba84	0.029629953
146	0x3c641c01	0.013922692
147	0xbdabd2ab	-0.08389791
148	0xbe8fae79	-0.280628
149	0xbea2f9e1	-0.31831267
150	0xbe979cb2	-0.29611737
151	0xbe99ed0e	-0.3006367
152	0xbdab095e	-0.08351396
153	0x3d9fdda4	0.078059465
154	0xbde9404e	-0.11389218
155	0xbe30a61e	-0.17250869
156	0xbea69086	-0.32532138
157	0x3e77cde2	0.24199632
158	0xbcf738fc	-0.03017854
159	0x3cae15c1	0.021250607
160	0x3e4c9063	0.19976954
161	0x3ead6310	0.3386464
162	0x3e8ec755	0.27886453
163	0x3e1db52d	0.15401144
164	0x3e1bfffb	0.15234368
165	0x3db2a99f	0.08723759
166	0x3e271d3b	0.16319744
167	0x3df1c4bd	0.11805103
168	0xbe616359	-0.22010554
169	0x3e6a42f9	0.2287711
170	0x3ea1d4ba	0.3160761
171	0x3d962c52	0.07332672
172	0xbe560592	-0.20900562
173	0x3e99cdf9	0.30039957
174	0x3e10fe22	0.14159444
175	0xbe75431c	-0.23951381
176	0x3b434d46	0.0029800697
177	0x3d96f9a0	0.07371831
178	0x3dc3c918	0.0955984
179	0x3e9c8584	0.30570614
180	0xbe58f0a0	-0.21185541
181	0xbe7e0b8e	-0.24809095
182	0x3e973d22	0.29538828
183	0x3e7d2ace	0.2472336
184	0x3e724430	0.23658824
185	0x3dcafff3	0.099121
186	0x3e79a002	0.24377444
187	0xbe82a5cd	-0.2551712
188	0xbdf7ee33	-0.1210598
189	0x3e111338	0.14167488
190	0x3e203587	0.15645419
191	0xbea759d6	-0.32685727
192	0xbdb4e2b0	-0.088323
193	0xbdfdf2f3	-0.123998545
194	0x3e8ed35b	0.27895626
195	0xbdd48528	-0.1037696
196	0x3e2e2ed9	0.17010058
197	0x3e1dc5e6	0.15407524
198	0x3da5c3a5	0.08093957
199	0x3e5099da	0.2037119
200	0x3e2fb602	0.17159274
201	0xbccb2524	-0.024797983
202	0x3d4691f7	0.048479047
203	0xbe43ee1e	-0.19133803
204	0x3ea6f7a2	0.32610804
205	0xbddb3c09	-0.1070481
206	0xbe662222	-0.22473958
207	0x3e772755	0.24136098
208	0x3e9b11b0	0.30286932
209	0xbeae7ba8	-0.34078717
210	0x3e88ccef	0.26718852
211	0x3e114455	0.14186223
212	0xbe964a76	-0.29353684
213	0xbe3e0e7e	-0.18560216
214	0x3e89cc27	0.26913568
215	0x3e98efa3	0.29870328
216	0xbcaf2021	-0.021377625
217	0x3d57da6f	0.05269855
218	0xbe006cf2	-0.1254156
219	0x3e1532e2	0.14570192
220	0xbe406677	-0.18789087
221	0x3df67257	0.12033527
222	0xbdf870af	-0.12130868
223	0x3c8fdfbc	0.01756274
224	0xbd23bfac	-0.039977714
225	0x3e46fc63	0.19432215
226	0x3a911d99	0.0011071443
227	0xbe05e403	-0.13075261
228	0x3e5d074d	0.21584816
229	0x3d79d40c	0.06099324
230	0x3e246e0d	0.16057606
231	0xbe5bb6e2	-0.21456483
232	0xbe06243d	-0.13099761
233	0x3dba256a	0.090891674
234	0x3e4a5fb5	0.19763072
235	0x3dbe8a14	0.0930368
236	0xbdb85a9c	-0.09001657
237	0xbe3215d0	-0.17391133
238	0x3d52fd6a	0.051511206
239	0xbe093153	-0.13397722
240	0x3e8f1364	0.2794448
241	0x3e8a75d9	0.27043036
242	0xbe817a19	-0.25288466

bias_ih_l0 f4 [27]
0	0x3e1eb304	0.15497977
1	0xbdf311ea	-0.11868651
2	0x3e21ebbb	0.1581258
3	0x3e59fc26	0.21287593
4	0xbdc59cc0	-0.09649038
5	0xbe62852d	-0.22121115
6	0x3e95abc5	0.29232612
7	0xbdc5c007	-0.09655767
8	0xbd166021	-0.03671277
9	0xbe9b60c1	-0.30347255
10	0x3d8d0b40	0.068869114
11	0x3e826272	0.25465733
12	0x3c99d49b	0.018778136
13	0xbd9282b9	-0.071538396
14	0x3e589966	0.21152267
15	0xbea47724	-0.32122147
16	0xbd9e80fc	-0.077394456
17	0xbe44b392	-0.19209126
18	0xbea29ad1	-0.3175874
19	0x3e330689	0.17482962
20	0x3e3b854f	0.18312572
21	0x3e9c60cc	0.305426
22	0xbe5e3316	-0.21699175
23	0x3e5c5ff2	0.21520975
24	0x3d8e869e	0.0695927
25	0x3df7f33e	0.12106942
26	0x3e8072cd	0.25087586

bias_hh_l0 f4 [27]
0	0x3e9082d7	0.28224823
1	0xbdf6685a	-0.12031622
2	0x3cc4a44f	0.02400413
3	0x3e872460	0.2639494
4	0xbe518201	-0.20459749
5	0xbe639373	-0.22224216
6	0x3ca87f69	0.020568566
7	0x3baca46e	0.005268625
8	0xbe801fbc	-0.2502421
9	0xbe05630c	-0.13026065
10	0x3cae09fc	0.021244995
11	0xbe80e3a3	-0.25173673
12	0x3d0200ea	0.031739153
13	0x3da3df67	0.08001595
14	0xbdd7fc95	-0.10546223
15	0x3e9d0cbb	0.30673775
16	0xbecedf9b	-0.40404972
17	0xbe1655f8	-0.14681232
18	0x3e1b85c7	0.15187751
19	0x3eaabcb1	0.33347085
20	0x3e5a771d	0.213345
21	0xbe7f6f4d	-0.24944802
22	0xbdb40297	-0.087895565
23	0x3d6188d6	0.055062138
24	0x3dba5dcb	0.09099921
25	0xbdb5b520	-0.088724375
26	0x3e732591	0.23744799

weight_ih_l0 f4 [27, 24]
0	0xbe3568de	-0.17715785
1	0x3def850a	0.11695297
2	0xbe5d40a0	-0.21606684
3	0x3e69fb94	0.22849876
4	0x3e3d5847	0.18490706
5	0x3e8a3a28	0.26997495
6	0xbe6fc0a5	-0.23413332
7	0xbe0a076c	-0.13479394
8	0x3d634c5a	0.055492736
9	0x3e914a53	0.28377017
10	0xbea161f5	-0.31520048
11	0xbdbf39d4	-0.09337202
12	0x3e9b53d2	0.30337387
13	0x3e229cbd	0.15880103
14	0x3d7181f5	0.058961827
15	0xbd66cc7c	-0.056347355
16	0x3d947373	0.07248583
17	0x3e5781e5	0.21045645
18	0xbe6d9d19	-0.23204459
19	0xbddd5eac	-0.10809073
20	0xbe57c937	-0.21072851
21	0x3e9173b2	0.2840858
22	0x3e98a997	0.29816887
23	0x3e92574b	0.28582224
24	0x3d6caffb	0.057785016
25	0xbded376d	-0.11582837
26	0x3e8aff53	0.27147922
27	0xbe63040e	-0.22169515
28	0xbe0dbe61	-0.13842155
29	0x3e21328e	0.15741941
30	0x3e9b9fd7	0.30395386
31	0x3e2525d3	0.1612771
32	0xbbbf7e2b	-0.005843898
33	0x3d9ff47d	0.07810304
34	0xbea73272	-0.32655674
35	0xbe2aeaa0	-0.16691065
36	0xbc38f5a3	-0.011289033
37	0x3d1e82f6	0.038699113
38	0xbe06f601	-0.1317978
39	0xbdc6de16	-0.09710328
40	0xbd1fb1cd	-0.038987923
41	0x3e830f9a	0.2559784
42	0xbe7b162e	-0.2452018
43	0xbe1ae6fc	-0.15127176
44	0x3cd32ff8	0.02577971
45	0x3e9a854a	0.30179816
46	0x3ea36a05	0.31916824
47	0xbdf80325	-0.12109975
48	0xbe8d1c8b	-0.2756084
49	0x3e98bd43	0.29831895
50	0x3df1257d	0.117747284
51	0x3c9559b0	0.018231243
52	0xbe0a9fdc	-0.13537544
53	0xbe4e41be	-0.20142266
54	0x3e5cf71a	0.21578637
55	0xbde6fb3e	-0.112783894
56	0x3e78d1c5	0.2429877
57	0x3d6b39b8	0.05742809
58	0xbe6bbd3d	-0.23021407
59	0xbdec25a7	-0.11530619
60	0xbe4c9f5d	-0.19982667
61	0xbd575ddc	-0.052579746
62	0x3e9c81aa	0.30567676
63	0x3e96294d	0.29328385
64	0x3e3df6bf	0.18551157
65	0x3e1cf537	0.15327917
66	0xbde53a19	-0.11192722
67	0xbe5a30d2	-0.21307686
68	0x3e56cf9b	0.20977633
69	0x3e3984f9	0.18117131
70	0x3e57f3cc	0.21089095
71	0xbe243538	-0.16035926
72	0x3e959752	0.2921701
73	0x3e392dce	0.1808388
74	0x3e528451	0.20558287
75	0xbd8d63c9	-0.06903798
76	0x3e1e0e2a	0.1543509
77	0xbdee1d30	-0.11626661
78	0x3e054e1a	0.13018075
79	0xbe6790a7	-0.22613774
80	0x3eace3fb	0.33767685
81	0x3e0e65c2	0.13906005
82	0x3e60729a	0.21918717
83	0xbe547205	-0.2074662
84	0x3e923f03	0.285637
85	0x3e7720e7	0.24133645
86	0xbdc70001	-0.097167976
87	0xbe0fdf55	-0.14050038
88	0x3e3d8526	0.18507823
89	0xbd84723f	-0.06467103
90	0x3e8e68e7	0.2781441
91	0x3e90628f	0.28200194
92	0xbe399b6e	-0.18125698
93	0xbe67e498	-0.22645795
94	0x3e4b5473	0.19856434
95	0xbe930412	-0.28714043
96	0xbddbb56f	-0.10727965
97	0x3e1bed1f	0.15227173
98	0xbe037743	-0.12838463
99	0x3dd5fb58	0.10448331
100	0xbd573ed5	-0.052550156
101	0xbe409146	-0.18805417
102	0xbd965321	-0.07340074
103	0xbe4c43cf	-0.19947742
104	0xbe0be64d	-0.13662072
105	0x3da73028	0.08163482
106	0xbe9a0a5a	-0.30086023
107	0xbeacf088	-0.3377726
108	0xbe92de1e	-0.28685087
109	0x3e91ac11	0.2845159
110	0x3e794dea	0.24346128
111	0xbe65bbe8	-0.22434962
112	0x3e1e1cb0	0.15440631
113	0xbdfb9b50	-0.12285483
114	0xbdda5bc3	-0.106620334
115	0x3ea2b79f	0.31780717
116	0xbe4ecb1f	-0.20194672
117	0xbe00dd95	-0.12584527
118	0x3c70bebc	0.014693912
119	0xbe6c7918	-0.23093069
120	0x3de13ffc	0.10998532
121	0x3e93db58	0.28878284
122	0xbe2ccdd8	-0.16875398
123	0x3e1c8a90	0.15287232
124	0x3d9a73a2	0.075415865
125	0xbe1b211a	-0.15149346
126	0xbd87b6ea	-0.06626685
127	0xbe69c50d	-0.22829075
128	0xbdb90627	-0.090343766
129	0xbe8c9304	-0.27455914
130	0xbde0cd37	-0.109766416
131	0x3e2b1b9e	0.16709754
132	0x3e8151e2	0.25257784
133	0xbe53d917	-0.20688282
134	0xbe52cce6	-0.20585975
135	0xbea1b54b	-0.31583628
136	0xbd269740	-0.040671587
137	0xbe8b1b6a	-0.27169353
138	0x3dc35f9a	0.09539719
139	0xbe7241ae	-0.23657867
140	0xbd7435c5	-0.05962159
141	0xbe82b49f	-0.25528428
142	0xbddcdfa1	-0.10784841
143	0x3dc00fb2	0.09377994
144	0xbe3946a9	-0.18093361
145	0xbe074230	-0.13208842
146	0x3d9b832f	0.07593381
147	0xbe626190	-0.2210753
148	0xbe87a18a	-0.26490432
149	0x3e95d084	0.29260647
150	0x3e7e31ac	0.24823636
151	0x3e51f781	0.20504571
152	0x3e259cc3	0.16173081
153	0xbdb4e8cf	-0.08833467
154	0x3cc9e715	0.024646321
155	0xbe328c07	-0.17436229
156	0x3d280ca9	0.0410277
157	0xbdbedc31	-0.09319342
158	0x3de37804	0.111068755
159	0xbe6c8dc1	-0.2310095
160	0x3e5d5d50	0.21617627
161	0xbdae9a23	-0.08525493
162	0xbec79458	-0.38980365
163	0x3e9a0f0d	0.30089608
164	0xbd1b8a3a	-0.03797362
165	0xbe604d9f	-0.2190461
166	0xbe674943	-0.22586541
167	0x3d034aeb	0.03205387
168	0x3e33e689	0.17568411
169	0x3e68facb	0.2275192
170	0x3e84652e	0.25858444
171	0x3e65af04	0.22430044
172	0xbb91f637	-0.0044544
173	0xbdf04b60	-0.11733127
174	0x3e792e9d	0.24334188
175	0x3d955aa4	0.07292679
176	0xbdbcfe7d	-0.09228227
177	0x3dfcc54e	0.123423204
178	0xbe2ecbdc	-0.17069954
179	0xbd6849ce	-0.05671101
180	0xbe89654b	-0.26835093
181	0xbe5188a5	-0.20462282
182	0xbdc81d3e	-0.097712025
183	0xbe62ee42	-0.221612
184	0xbb8eb07a	-0.0043545337
185	0xbe9c1863	-0.30487356
186	0xbe98dad8	-0.29854465
187	0x3e1121ec	0.14173096
188	0x3d9129ab	0.07088026
189	0xbeac277f	-0.33623883
190	0x3d650f3f	0.055922743
191	0x3e787ec0	0.24267101
192	0xbdf15dca	-0.11785467
193	0xbdaa46c1	-0.083142765
194	0xbe90fdcc	-0.28318632
195	0x3e99844f	0.29983756
196	0xbe16627c	-0.14686006
197	0x3e3115a9	0.17293419
198	0xbdd2330c	-0.10263643
199	0xbea29984	-0.31757748
200	0xbe45e6dc	-0.19326347
201	0x3e4add6d	0.1981103
202	0x3e9282ba	0.2861536
203	0xbe5f877d	-0.21829028
204	0x3d4277ad	0.047477413
205	0xbe90218a	-0.28150588
206	0xbdb2afb7	-0.08724921
207	0x3e206826	0.1566473
208	0x3e5b669b	0.2142586
209	0xbe74d541	-0.23909475
210	0x3e097a25	0.134255
211	0x3e9a2be9	0.30111626
212	0xbbcd4ce5	-0.00626527
213	0xbe7b0af9	-0.24515904
214	0x3db53c86	0.088494346
215	0xbe06cf8f	-0.13165115
216	0xbb34a2aa	-0.0027562776
217	0xbe8ac891	-0.27106145
218	0x3e4e8341	0.20167257
219	0xbe9e3330	-0.30898428
220	0x3e9e31bf	0.30897328
221	0xbd80810b	-0.06274613
222	0x3d622619	0.055212114
223	0xbeb82862	-0.3596831
224	0x3e1329c1	0.14371397
225	0x3e8e56a2	0.2780047
226	0xbe90d57c	-0.28287876
227	0x3ea47daa	0.32127124
228	0x3e44c6e5	0.19216497
229	0xbe3080a7	-0.17236577
230	0xbea2fae2	-0.31832033
231	0xbea95362	-0.3307143
232	0xbdf884cc	-0.12134704
233	0xbecf18f0	-0.40448713
234	0xbe97cfba	-0.2965067
235	0x3e8f4000	0.27978516
236	0x3e2cd068	0.16876376
237	0xbe8b830d	-0.2724842
238	0x3d5402a8	0.051760346
239	0x3b178951	0.0023122618
240	0x3e9776e0	0.29582882
241	0xbe2b47b9	-0.16726579
242	0xbe6a060d	-0.2285387
243	0x3dd1d555	0.10245768
244	0x3dd90f88	0.105986655
245	0x3e3983c7	0.18116675
246	0x3e885b79	0.26632288
247	0xbaa6b4f4	-0.0012718723
248	0x3e6891da	0.22711888
249	0x3b253a71	0.0025211836
250	0x3cc8e439	0.024522888
251	0xbe612d07	-0.21989833
252	0x3e416c99	0.18889083
253	0x3d13e04e	0.036102585
254	0xbca53076	-0.02016471
255	0xbe44080c	-0.19143695

weight_hh_l0 f4 [27, 9]
0	0xbe2748fc	-0.16336435
1	0xbdd50bc4	-0.10402635
2	0x3d3c818f	0.046021994
3	0x3cc9177b	0.02454733
4	0x3d0a5eee	0.03378194
5	0x3be18a2f	0.006882928
6	0x3de3770f	0.11106693
7	0x3e91f03a	0.2850359
8	0xbe952b3b	-0.29134545
9	0x3e1959e7	0.14975701
10	0x3cbf57e3	0.023357337
11	0xbdf3f1b4	-0.119113356
12	0x3e46ddcb	0.19420545
13	0xbd1e4530	-0.0386402
14	0x3e9d366b	0.3070558
15	0x3e02861a	0.12746468
16	0x3e979365	0.2960464
17	0x3e0a1dc1	0.13487913
18	0x3d9c9ea9	0.076474495
19	0x3e894673	0.2681156
20	0xbe1f5285	-0.15558822
21	0x3e9eb21b	0.3099526
22	0x3e05ff89	0.1308576
23	0xbb8c2faa	-0.004278143
24	0x3e2a5e80	0.16637611
25	0x3e644974	0.22293645
26	0x3dff7653	0.124737404
27	0x3de90937	0.11378711
28	0xbd5f9434	-0.054584697
29	0xbe7e0f4c	-0.24810523
30	0xbe0d3a0b	-0.13791673
31	0xbdeb9e93	-0.11504855
32	0xbddcb441	-0.10776568
33	0x3cfde0ad	0.030990923
34	0xbdb05d3e	-0.086115345
35	0xbe0521be	-0.13001153
36	0x3e8617d4	0.26190054
37	0xbe4c1dab	-0.19933192
38	0xbda25444	-0.07926229
39	0x3e2704c6	0.16310415
40	0xbc980c2a	-0.018560488
41	0xbe57d4ff	-0.21077345
42	0x3d0c9968	0.034325987
43	0xbe8fbb6e	-0.28072685
44	0xbea221a4	-0.3166629
45	0xbdd2a41f	-0.1028521
46	0xbe0c58c6	-0.1370574
47	0x3e7d93a9	0.24763359
48	0xbe82ff72	-0.25585514
49	0xbd6b4ead	-0.057448078
50	0x3e996966	0.29963225
51	0x3e76c665	0.24099119
52	0x3de5e3dc	0.11225101
53	0x3e851458	0.25992084
54	0x3d4e627d	0.050386894
55	0xbe86ba75	-0.2631413
56	0xbdaf53ef	-0.08560931
57	0xbe845a87	-0.25850317
58	0xbe78ddde	-0.24303386
59	0x3d3501c8	0.04419115
60	0x3e2701a8	0.16309226
61	0xbd2358b1	-0.039879505
62	0xbe96f284	-0.294819
63	0xbe383491	-0.17988802
64	0x3e3f3386	0.18671998
65	0x3e6068ae	0.21914932
66	0x3e5775fd	0.21041103
67	0xbe327848	-0.17428696
68	0x3d6251cc	0.05525379
69	0xbdd74538	-0.10511249
70	0xbd14ce4e	-0.03632956
71	0x3e1a4515	0.15065415
72	0xbd277f9c	-0.040893182
73	0xbe3bcc32	-0.18339613
74	0x3e30162d	0.1719596
75	0xbdf75f17	-0.12078684
76	0xbcf5b311	-0.029992612
77	0x3e155d9e	0.14586493
78	0xbc28727e	-0.010281203
79	0x3ced34ce	0.028955843
80	0xbe1d2a18	-0.15348089
81	0x3e8b367a	0.2719
82	0xbd93cc37	-0.07216685
83	0xbd8c94bd	-0.06864307
84	0xbe755291	-0.23957278
85	0x3d5b8401	0.053592686
86	0xbebeab27	-0.37239954
87	0x3d9c859d	0.07642672
88	0xbe72d774	-0.23715001
89	0x3e2775bd	0.16353507
90	0xbcafa9ff	-0.021443365
91	0xbcee9bf8	-0.029127106
92	0xbe9492aa	-0.29018146
93	0x3e70807e	0.23486516
94	0xbe43adb7	-0.19109236
95	0x3e944a1a	0.28962785
96	0x3e697886	0.22799882
97	0xbde16bf8	-0.110069215
98	0x3e8f9e8a	0.28050643
99	0x3deb5b61	0.114920385
100	0xbe82051c	-0.25394523
101	0x3e769f3d	0.24084182
102	0x3dadb05f	0.08480906
103	0x3d99057d	0.0747175
104	0x3e1d10e8	0.1533848
105	0x3e3a95c2	0.1822119
106	0xbe7fe7d7	-0.24990784
107	0xbde3984c	-0.11113033
108	0x3ca1ed1c	0.019766383
109	0xbe823f8a	-0.254391
110	0xbe3ae73f	-0.18252276
111	0xbd843b54	-0.064566284
112	0x3e98ff50	0.29882288
113	0xbe87cd09	-0.26523617
114	0x3e49970d	0.19686528
115	0xbe241787	-0.160246
116	0x3e7e8bd5	0.24858029
117	0x3b5b6d92	0.0033482057
118	0xbdf0f80e	-0.11766063
119	0x3d90664c	0.070507616
120	0x3e0a099c	0.13480228
121	0x3e889848	0.2667868
122	0xbea0b5e3	-0.3138877
123	0x3e7b29cc	0.24527663
124	0x3cee9021	0.02912146
125	0xbe8216d6	-0.25408047
126	0xbead461c	-0.33842552
127	0x3da368ee	0.07978998
128	0xbe9d41ba	-0.30714208
129	0x3e84f542	0.25968367
130	0x3e9af938	0.30268264
131	0xbe442888	-0.19156086
132	0x3e029135	0.12750705
133	0xbdbd0766	-0.09229927
134	0xbe9bddb2	-0.30442578
135	0x3e3d0deb	0.1846234
136	0xbda6b092	-0.08139147
137	0x3e8f860a	0.2803195
138	0xbe8b3cdb	-0.27194867
139	0x3e5a4850	0.21316648
140	0x3e2e4bfc	0.17021173
141	0xbe1c09c3	-0.15238099
142	0xbd089a7e	-0.03335046
143	0xbdcfe4a5	-0.10151032
144	0xbe2dddc3	-0.16979127
145	0x3de4009a	0.11132927
146	0xbeaab2ab	-0.33339438
147	0xbe4b0d52	-0.198293
148	0x3e18ecff	0.14934157
149	0xbe3d9385	-0.18513305
150	0x3d74a582	0.059728153
151	0x3d3e3a7f	0.046442505
152	0xbe2d3959	-0.16916408
153	0xbe644d66	-0.2229515
154	0x3d32cb18	0.043650717
155	0x3e924f2c	0.28576028
156	0x3ea455d2	0.32096726
157	0x3e167d1b	0.14696161
158	0x3e8b3f4a	0.27196723
159	0x3dd19cdc	0.10234997
160	0xbea0f87b	-0.31439576
161	0x3e8e7e6b	0.27830824
162	0xbe16c4dd	-0.14723535
163	0x3e62d1f0	0.22150397
164	0x3e854c72	0.26034886
165	0xbe056489	-0.13026632
166	0x3e743447	0.23848067
167	0x3e52dda1	0.20592357
168	0xbe7a08ad	-0.24417372
169	0xbe412ae4	-0.18864018
170	0xbe861762	-0.26189715
171	0x3e8f51f8	0.27992225
172	0x3cd7b973	0.026333546
173	0xbe17c941	-0.14822866
174	0xbe378ec0	-0.17925549
175	0x3e645db9	0.22301377
176	0xbe8e4bee	-0.27792305
177	0x3dfa34ca	0.122171
178	0xbea357f7	-0.3190305
179	0xbe2b2bba	-0.16715899
180	0xbea708e5	-0.32623973
181	0x3e7c82cf	0.24659275
182	0x3e436935	0.19083102
183	0xbd85b352	-0.06528343
184	0x3e3f9929	0.1871077
185	0x3e9638a5	0.2934009
186	0xbe0e8dfd	-0.13921352
187	0xbe79f10a	-0.24408355
188	0x3df19d77	0.11797612
189	0xbe377aae	-0.17917892
190	0x3e76f43c	0.24116606
191	0xbd8b7015	-0.06808487
192	0xbe63c4a4	-0.22242981
193	0xbe1099cd	-0.1412117
194	0xbe8ea6f8	-0.27861762
195	0xbe447301	-0.19184496
196	0xbe768d8f	-0.24077438
197	0x3e1dfacd	0.15427704
198	0x3ea97b86	0.33102053
199	0xbe6c9242	-0.23102668
200	0x3ea8f364	0.32998192
201	0xbd0b22f0	-0.033968866
202	0xbe39ed4e	-0.18156931
203	0xbd5280b6	-0.05139228
204	0x3d193113	0.037400316
205	0xbdfa512c	-0.122225136
206	0x3e89a62f	0.268846
207	0xbdb8e641	-0.090282924
208	0x3e307ba0	0.17234659
209	0x3e6b1750	0.22958112
210	0xbcdc5b5c	-0.026899032
211	0xbe79358a	-0.2433683
212	0xbe4c544a	-0.19954029
213	0x3da4210d	0.080141164
214	0x3d8fc367	0.07019692
215	0x3e19b726	0.15011272
216	0xbdf035c1	-0.11729003
217	0xbcca6b9d	-0.024709517
218	0x3ea2ab4f	0.31771323
219	0xbe9c548c	-0.30533254
220	0xbe1d54a7	-0.15364324
221	0xbe5f122e	-0.21784279
222	0x3e28e716	0.16494402
223	0xbe47fc90	-0.19529939
224	0x3e725750	0.2366612
225	0xbe3d387a	-0.18478575
226	0xbcf9a082	-0.030472044
227	0xbe7d8e84	-0.24761397
228	0x3e5298ad	0.20566054
229	0x3dcf52c0	0.10123205
230	0xbe89a8c3	-0.26886567
231	0x3e56adf9	0.20964803
232	0x3e2850e7	0.16437112
233	0x3e9526a5	0.29131046
234	0xbdda2649	-0.106518336
235	0xbe0dea68	-0.1385895
236	0xbc6c4d17	-0.0144226765
237	0xbe545c56	-0.20738348
238	0x3e2dfde4	0.16991383
239	0xbc3c6a96	-0.011500021
240	0xbe02cc28	-0.12773192
241	0x3e1217b8	0.1426686
242	0xbe8421bf	-0.25806996

bias_ih_l0 f4 [27]
0	0x3d71a691	0.05899674
1	0x3e903778	0.2816732
2	0x3d4de495	0.05026682
3	0xbe2cede8	-0.16887629
4	0xbce6036d	-0.028077805
5	0xbe7d62da	-0.2474474
6	0x3d9f52f4	0.07779494
7	0xbe92efbf	-0.28698537
8	0xbd86a66e	-0.06574713
9	0x3dd78037	0.10522502
10	0xbea6d32b	-0.32582983
11	0x3e2eab1a	0.17057458
12	0xbe4088d4	-0.18802196
13	0x3dd6f152	0.10495247
14	0xbea53df4	-0.3227383
15	0xbe93093e	-0.2871799
16	0xbe9785f2	-0.2959438
17	0xbd4422aa	-0.04788462
18	0xbe2208cf	-0.15823673
19	0xbd8d1c27	-0.06890135
20	0xbe349d66	-0.17638168
21	0xbe39633c	-0.18104261
22	0x3e9a52dc	0.30141342
23	0xbe57f4f6	-0.21089539
24	0x3de3d770	0.11125076
25	0xbe90a51e	-0.28250974
26	0xbe4dd13b	-0.20099346

bias_hh_l0 f4 [27]
0	0x3e3f61bc	0.18689626
1	0x3dc8ee83	0.098111175
2	0xbe815c19	-0.25265577
3	0x3e94b618	0.29045177
4	0xbe2e9c7c	-0.17051882
5	0x3e95270a	0.29131347
6	0x3e321de1	0.1739421
7	0x3e4883bf	0.19581507
8	0xbe957a55	-0.29194894
9	0xbd9032ed	-0.07040963
10	0xbe789830	-0.24276805
11	0x3e65b7d2	0.22433403
12	0x3d8700a5	0.0659192
13	0xbe24ba93	-0.16086797
14	0xbe432bfb	-0.19059746
15	0xbe8d373c	-0.27581203
16	0x3cf2f7f3	0.029659247
17	0xbe6cf8fb	-0.23141854
18	0x3e01a93a	0.12662211
19	0x3abae3de	0.0014258584
20	0xbd82c7bd	-0.06385753
21	0xbcb8d8ed	-0.022564376
22	0xbe2470e0	-0.16058683
23	0x3e4da364	0.2008186
24	0xbe1b7f80	-0.15185356
25	0xbd8e3978	-0.06944555
26	0x3d0bc365	0.03412189

weight_ih_l0 f4 [27, 39]
0	0xbd9fa928	-0.07795936
1	0x3e886a4d	0.266436
2	0xbe7f4941	-0.24930288
3	0xbe10be76	-0.14135155
4	0x3ea3c7fb	0.3198851
5	0x3dc40caa	0.09572728
6	0xbe9d2d00	-0.30698395
7	0x3e183288	0.14863026
8	0x3d77d8df	0.06050956
9	0x3e79d0de	0.24396083
10	0xbde92103	-0.113832496
11	0xbea8773f	-0.32903478
12	0xbb3081a2	-0.0026932736
13	0x3e66c17f	0.2253475
14	0x3e9955a5	0.29948154
15	0x3c630f59	0.01385864
16	0x3dd15e4f	0.10223066
17	0x3e25b7a6	0.16183338
18	0x3e983de3	0.29734716
19	0xbde6e131	-0.112734206
20	0x3ea59bba	0.32345372
21	0xbe93fb10	-0.28902483
22	0xbe8e3c8b	-0.27780566
23	0x3e415028	0.18878233
24	0x3e877b65	0.2646133
25	0x3cc57d8d	0.024107719
26	0xbe6f16ee	-0.2334859
27	0xbc0fc704	-0.008775476
28	0xbdc75be6	-0.09734325
29	0x3e28cf27	0.16485272
30	0xbc629e65	-0.0138317095
31	0x3c480485	0.012208109
32	0xbc357c07	-0.011076934
33	0xba14ee61	-0.0005681273
34	0x3da9e4ef	0.08295619
35	0x3e20d7f0	0.15707374
36	0xbd98ff4b	-0.07470568
37	0x3dd79b11	0.105276234
38	0xbe18a114	-0.14905196
39	0xbe5ad2bf	-0.21369456
40	0xbdaec3d9	-0.08533449
41	0x3db61bde	0.08892034
42	0x3e1fbea9	0.15600075
43	0x3de16ad5	0.11006705
44	0x3c4e26bd	0.012582478
45	0x3e0ea76a	0.13931051
46	0xbce4ada3	-0.027914828
47	0x3e8938d2	0.26801163
48	0xbdc5e3f5	-0.0966262
49	0xbe041e57	-0.12902199
50	0xbe9ab813	-0.30218562
51	0xbe81ec1a	-0.25375444
52	0xbe309d3e	-0.17247483
53	0x3c0b360e	0.008496774
54	0xbd81741a	-0.06320973
55	0xbe23b8d5	-0.15988477
56	0x3c65c8c0	0.014024913
57	0xbe61a668	-0.22036135
58	0x3d3cd81b	0.04610453
59	0xbd5d40aa	-0.054016747
60	0x3c558cc4	0.013034049
61	0xbddef170	-0.10885894
62	0x3e4b41fe	0.19849393
63	0xbd6eb791	-0.05828053
64	0x3e235c09	0.15953077
65	0xbc7fbd93	-0.015609163
66	0x3e755f42	0.23962119
67	0xbc2637e3	-0.01014516
68	0x3e9d708e	0.30749935
69	0xbd26259e	-0.04056322
70	0xbea63746	-0.32464045
71	0xbd923293	-0.071385525
72	0xbea95d00	-0.33078766
73	0xbdb968bc	-0.090531796
74	0x3e2bf1e4	0.16791493
75	0x3e970ac3	0.29500398
76	0xbe426f58	-0.18987787
77	0x3e3a9138	0.18219459
78	0xbdde702a	-0.10861237
79	0xbde9efdc	-0.11422703
80	0xbdbbe8a2	-0.091752306
81	0x3d40258e	0.046910815
82	0xbe518346	-0.20460233
83	0xbe0a423c	-0.13501829
84	0x3c97157e	0.018442865
85	0x3e5e61d3	0.21717004
86	0x3e802f0d	0.25035897
87	0xbe144f2d	-0.14483328
88	0xbe9b744e	-0.3036217
89	0x3e84b5b1	0.2591987
90	0x3dcbbcc0	0.099481106
91	0xbc2cb072	-0.010540115
92	0x3dc212ed	0.09476266
93	0x3dc3bea4	0.09557846
94	0x3e7a9295	0.24469979
95	0xbd76400e	-0.06011968
96	0xbe84c47c	-0.25931156
97	0x3c60c223	0.013718161
98	0xbddce7a9	-0.10786373
99	0x3e8fb7f4	0.28070033
100	0xbdb76837	-0.08955424
101	0xbd231f46	-0.039824747
102	0xbe72f6e7	-0.23726998
103	0x3e9aa66d	0.30205098
104	0xbd3f2ae6	-0.04667177
105	0x3ddc37a5	0.10752801
106	0xbe7ab227	-0.24482022
107	0xbdbb37dc	-0.09141514
108	0xbe7551ed	-0.23957033
109	0x3dd3d6e6	0.10343723
110	0x3d020d56	0.031751
111	0xbe1602c1	-0.14649488
112	0xbe3bb9ed	-0.18332644
113	0xbe7c906b	-0.24664466
114	0xbc01e6f7	-0.0079286015
115	0x3e389fc2	0.18029693
116	0x3d9aaa06	0.07551961
117	0xbe23b1ee	-0.15985844
118	0x3e7f8ce4	0.2495609
119	0xbe6ee545	-0.23329647
120	0x3e7e54dc	0.24837059
121	0xbe72e43f	-0.23719881
122	0xbe5fb7ee	-0.21847507
123	0x3df88478	0.121346414
124	0x3e2e0482	0.16993907
125	0xbe585cc6	-0.2112914
126	0x3e76d8ce	0.24106142
127	0xbd883ad1	-0.06651843
128	0x3e97771e	0.29583067
129	0xbe77b8f2	-0.24191645
130	0x3d825716	0.063642666
131	0xbe8d05b1	-0.27543405
132	0x3b73ac0e	0.003718141
133	0xbe929038	-0.28625655
134	0xbdc7dad6	-0.097585365
135	0x3e913e79	0.28367975
136	0x3d78ddd8	0.06075844
137	0xbe6859ab	-0.22690456
138	0x3e963acd	0.29341736
139	0xbe34de5a	-0.17662945
140	0x3e5248e3	0.20535617
141	0x3e95337f	0.2914085
142	0xbbe5e45a	-0.007015747
143	0xbb74b6a0	-0.0037340298
144	0xbd8e5688	-0.06950098
145	0x3da10d33	0.07863846
146	0xbdfe27cc	-0.124099344
147	0x3e8c6ba1	0.27425864
148	0xbe619742	-0.22030357
149	0xbe38c22b	-0.18042819
150	0xbe859e8e	-0.2609753
151	0x3dc07af9	0.09398455
152	0x3ea6911d	0.32532588
153	0xbc1b8bc8	-0.009493776
154	0x3daa6d1f	0.083215944
155	0x3d37b526	0.04485049
156	0xbe95a1ad	-0.2922491
157	0xbde98501	-0.114023216
158	0xbd1bf644	-0.038076654
159	0x3ea86f04	0.32897198
160	0x3e5e1df0	0.21691108
161	0xbdd0e269	-0.10199434
162	0xbe0d3bc7	-0.13792334
163	0x3dbb55d8	0.09147233
164	0xbea1f467	-0.31631777
165	0xbe3611cb	-0.17780225
166	0xbea4504b	-0.3209251
167	0x3e8d80c7	0.27637312
168	0xbe20ec27	-0.15715085
169	0x3e2084d8	0.15675676
170	0xbe9925bf	-0.2991161
171	0x3e275726	0.16341838
172	0xbdc31e1e	-0.09527229
173	0xbea07e57	-0.3134639
174	0x3ddbc445	0.10730795
175	0x3d593575	0.053029496
176	0x3d9a487a	0.07533355
177	0x3e293fda	0.16528264
178	0x3e7b6f57	0.24554192
179	0x3dbb5e93	0.09148898
180	0xbe976a4d	-0.2957329
181	0xbe2f1d6f	-0.17101072
182	0xbd859f7b	-0.06524559
183	0x3e7ef8bf	0.24899577
184	0xbd568873	-0.052376222
185	0x3e088d0b	0.13335054
186	0x3e5d04c0	0.21583843
187	0xbe2542f1	-0.16138817
188	0xbd6dba57	-0.058039036
189	0x3e1bb1ff	0.15204619
190	0x3ea4d60b	0.32194552
191	0x3e8cea10	0.27522326
192	0xbe043e91	-0.12914492
193	0x3e20f304	0.15717703
194	0xbdd7aef9	-0.1053142
195	0xbdb43f4d	-0.08801136
196	0x3e444b66	0.19169387
197	0x3d030e4a	0.03199605
198	0xbe8efbd7	-0.27926514
199	0x3e9e8b72	0.30965763
200	0x3e97b1c5	0.29627815
201	0x3dec8045	0.11547903
202	0x3e8dce6f	0.2769656
203	0xbe79a1b2	-0.24378088
204	0xbe17ec69	-0.14836277
205	0xbcbad88b	-0.022808334
206	0xbe30552d	-0.17219992
207	0x3dfe82ed	0.12427316
208	0x3e93d927	0.28876612
209	0xbc0c77a3	-0.0085734455
210	0x3e97967f	0.29607007
211	0x3dd5d744	0.10441449
212	0x3ea495a5	0.3214542
213	0x3e831693	0.2560316
214	0x3e96dc65	0.29465023
215	0x3e8d46d7	0.2759311
216	0xbe0d9a9b	-0.13828509
217	0x3e484836	0.19558796
218	0x3e3269e7	0.17423211
219	0x3d3cf622	0.046133168
220	0x3d407a18	0.046991438
221	0xbe89ab98	-0.26888728
222	0xbe97e44f	-0.29666373
223	0xbda8a43f	-0.082344525
224	0xbe59d95a	-0.2127432
225	0x3d749964	0.059716597
226	0x3e1fd7de	0.1560969
227	0x3e0aff0f	0.1357386
228	0x3e63aa9c	0.22233051
229	0x3ea45760	0.32097912
230	0xbdb5efca	-0.08883627
231	0x3ddab95c	0.10679886
232	0xbe002044	-0.12512308
233	0xbdecc592	-0.11561121
234	0xbe00f8e9	-0.12594952
235	0xbdebbdf6	-0.115108415
236	0x3dd3a109	0.103334494
237	0x3d26f763	0.04076327
238	0xbe07d24b	-0.13263814
239	0xbcd61306	-0.026132118
240	0x3cb91197	0.022591395
241	0x3e79d97f	0.24399374
242	0x3e69adb1	0.22820164
243	0x3c4595e6	0.012059664
244	0xbe926624	-0.28593552
245	0x3d54e44d	0.051975537
246	0xbdd1f655	-0.10252062
247	0x3b8188fe	0.0039530983
248	0xbe0ce4be	-0.13759133
249	0xbe6df7b0	-0.23239017
250	0x3e200d4e	0.15630075
251	0x3ea64500	0.32474518
252	0xbe7e068c	-0.24807185
253	0xbe728c81	-0.2368641
254	0xbdf2d1f5	-0.118564524
255	0x3ea05f9f	0.31322953

weight_hh_l0 f4 [27, 9]
0	0xbe292ed3	-0.16521768
1	0x3ea535a7	0.32267496
2	0x3d1b91ac	0.03798072
3	0x3d17a132	0.037018962
4	0xbd9501bf	-0.07275724
5	0xb6a62c59	-4.9523483e-06
6	0xbd8fab60	-0.07015109
7	0x3e3e6418	0.1859287
8	0x3e8494a4	0.25894654
9	0xbdb8339f	-0.08994221
10	0x3e172483	0.14760022
11	0x3e80e365	0.25173488
12	0xbdaa6a06	-0.083210036
13	0xbe136ae9	-0.14396252
14	0xbd1c6453	-0.038181614
15	0x3ea0b24a	0.31386024
16	0xbe50d7e8	-0.20394862
17	0x39ece41d	0.00045183385
18	0x3ce23cbe	0.027616855
19	0x3e4a6f75	0.1976908
20	0xbdafa52c	-0.08576426
21	0xbdd0044a	-0.10157068
22	0x3e2cf81e	0.16891524
23	0x3e787754	0.2426427
24	0x3e24978e	0.16073439
25	0x3e458209	0.19287886
26	0xbdba1fa3	-0.090880655
27	0xbe5b6acc	-0.21427459
28	0x3e9c760c	0.30558813
29	0x3e276668	0.16347659
30	0xbe0c5619	-0.13704719
31	0xbd7e63f6	-0.06210705
32	0xbe498ba3	-0.19682173
33	0x3ddf240a	0.10895546
34	0xbdf34b59	-0.11879606
35	0x3d8d362b	0.06895097
36	0xbdc2c93e	-0.0951104
37	0xbe122504	-0.14271933
38	0xbe97e88a	-0.296696
39	0xbea18e97	-0.315541
40	0xbebaed76	-0.36509293
41	0x3ea88eb7	0.32921383
42	0x3e828b2e	0.2549681
43	0x3d286bab	0.041118305
44	0xbeaf8ac6	-0.34285563
45	0xbdb7a857	-0.08967655
46	0xbd81a0c4	-0.06329492
47	0x3ea0b2cd	0.31386414
48	0xbd085d97	-0.03329238
49	0xbea0e7b6	-0.3142678
50	0xbe45ff19	-0.19335593
51	0xbe3ddfd0	-0.18542409
52	0x3e70a5e2	0.2350078
53	0xbea6af0a	-0.3255542
54	0xbe64687a	-0.2230548
55	0x3db0025c	0.085942
56	0x3d59198e	0.053002886
57	0x3e03c82d	0.1286933
58	0x3db802eb	0.089849316
59	0xbcf2d876	-0.029644232
60	0x3d85f93c	0.06541678
61	0x3e1b4ce8	0.15166056
62	0x3e8f82e3	0.28029546
63	0xbd521c35	-0.05129643
64	0x3e7681f5	0.24073012
65	0x3e703313	0.23456983
66	0x3e4e3cc8	0.20140374
67	0xbea3de17	-0.3200538
68	0xbe9a976e	-0.30193657
69	0xbe577a2b	-0.21042697
70	0x3e2680a1	0.16260006
71	0x3e7b5a3c	0.2454614
72	0xbe91399d	-0.28364268
73	0xbe2493e5	-0.16072042
74	0xbdcbb5cf	-0.099467866
75	0x3d8cc7df	0.0687406
76	0xbd18bc3e	-0.037288897
77	0x3e890a4b	0.26765665
78	0xbe756898	-0.2396568
79	0xbbd23852	-0.0064154053
80	0xbc16fbe3	-0.009215328
81	0xbe0e7435	-0.13911517
82	0xbe5bc6ec	-0.21462601
83	0xbe25c941	-0.16190054
84	0xbe143a37	-0.14475332
85	0x3ea031a7	0.31287882
86	0x3e625b8e	0.22105238
87	0x3e9e32c2	0.308981
88	0x3d76fc23	0.06029905
89	0x3ea607c6	0.32427806
90	0x3b9e2aca	0.004826878
91	0xbe6aeae3	-0.22941165
92	0x3e889286	0.2667429
93	0xbe331d42	-0.1749163
94	0xbe90631c	-0.28200614
95	0xbe084ef6	-0.13311371
96	0xbe898769	-0.26861122
97	0x3d96c167	0.07361107
98	0xbd4f02a4	-0.050539628
99	0xbe78d59e	-0.24300238
100	0x3c48e64e	0.01226194
101	0x3e87e4b6	0.2654168
102	0x3e094eba	0.13408938
103	0x3e93caac	0.28865564
104	0xbdb63c88	-0.08898264
105	0x3dfe82a3	0.12427261
106	0xbe40b121	-0.1881757
107	0x3d4ec8d8	0.05048451
108	0xbea79c72	-0.32736546
109	0x3e117b1e	0.14207122
110	0x3d1221b7	0.035676684
111	0xbc4acc68	-0.012377836
112	0x3da9be72	0.08288278
113	0xbdacfd1f	-0.084467165
114	0x3d671284	0.056414142
115	0x3cb2d891	0.021831783
116	0x3e25494c	0.16141242
117	0x3e07efe3	0.13275103
118	0xbda32675	-0.079663195
119	0xbe8efd6b	-0.27927718
120	0xbe8b6be1	-0.27230743
121	0x3db8b9d5	0.0901982
122	0xbea54095	-0.32275835
123	0x3eaa3c00	0.332489
124	0xbea47c76	-0.32126206
125	0xbe348306	-0.17628106
126	0xbe39dbbc	-0.18150228
127	0xbd681751	-0.05666286
128	0xbe1e0f5e	-0.1543555
129	0xbe3bbd86	-0.18334016
130	0x3da78c0c	0.08181009
131	0x3e0e757f	0.13912009
132	0xbe9b2fba	-0.3030985
133	0xbe266afc	-0.16251749
134	0x3d84deda	0.06487818
135	0xbde27cae	-0.11058937
136	0xbe34a8e3	-0.1764255
137	0xbe34ce0e	-0.17656729
138	0x3ea28cad	0.31747952
139	0x3c046e3a	0.008082921
140	0xbe24f17a	-0.16107741
141	0xbea8f713	-0.33001003
142	0x3d204c9a	0.039135553
143	0xbea49a28	-0.32148862
144	0x3d22c75f	0.039740916
145	0x3e96a32e	0.2942137
146	0x3e38d8d0	0.18051457
147	0xbc9da6a1	-0.019244494
148	0x3dcae496	0.099068806
149	0x3e309f9d	0.17248388
150	0x3cbc0b22	0.022954527
151	0x3e70be6c	0.2351014
152	0x3e711be8	0.23545802
153	0xbdac0ad7	-0.08400505
154	0x3dee489b	0.11634942
155	0xbe20ffcb	-0.15722577
156	0xbe795d41	-0.2435198
157	0x3da171a1	0.07883001
158	0x3d7a5fa2	0.06112636
159	0x3e8a5dc6	0.27024668
160	0x3d3ff5bb	0.046865206
161	0x3e702d8b	0.23454873
162	0xbe93b2a9	-0.28847244
163	0x3cbac362	0.022798244
164	0xbe3a6d4f	-0.1820576
165	0x3dcdd0b6	0.10049574
166	0x3c8a0e38	0.016852483
167	0xbe9030fc	-0.28162372
168	0xbea84142	-0.32862288
169	0x3e6eb504	0.2331124
170	0xbe6d3f46	-0.23168668
171	0x3e8db62b	0.27678046
172	0xbe0397bb	-0.1285085
173	0x3e0ba3c4	0.1363669
174	0x3d00b3de	0.031421535
175	0x3d83b2a4	0.06430557
176	0xbe529d6f	-0.20567869
177	0xbe1a0af5	-0.15043242
178	0xbea18d38	-0.31553054
179	0x3e82ecac	0.2557119
180	0xbdb9f839	-0.09080548
181	0xbe7ef152	-0.24896744
182	0xbd4bfe45	-0.049803037
183	0x3e9629c2	0.29328734
184	0x3e2613d7	0.16218506
185	0xbeaa1439	-0.33218554
186	0x3e5d1882	0.2159138
187	0xbbde1cd8	-0.006778341
188	0x3e8063cb	0.25076136
189	0x3ea3cceb	0.31992278
190	0xbdb2cad6	-0.08730094
191	0x3e8e5e0e	0.27806133
192	0x3cd29c2d	0.025709236
193	0xbe8d2c10	-0.2757268
194	0xbe50d261	-0.20392753
195	0xbe56ed6a	-0.20989004
196	0xbe8b12d8	-0.27162814
197	0x3d77274e	0.06034022
198	0x3ea06083	0.31323633
199	0xbd042d3e	-0.03226971
200	0xbe323612	-0.17403439
201	0x3e262327	0.16224347
202	0xbe16d2b5	-0.14728816
203	0xbdcf9b85	-0.10137085
204	0x3bf52e07	0.0074822935
205	0x3eaa2975	0.33234754
206	0x3e0ce318	0.13758504
207	0x3e39dedf	0.18151425
208	0xbe49a7e5	-0.19692953
209	0xbe098393	-0.13429098
210	0x3e8fb282	0.28065878
211	0x3e9fd142	0.3121434
212	0x3e858a97	0.26082298
213	0x3e9f8ff7	0.31164524
214	0x3d90ae6f	0.070645206
215	0xbe8f3a9c	-0.27974403
216	0x3cc8b14e	0.024498608
217	0x3e9a0a9e	0.30086225
218	0xbdc89486	-0.097939536
219	0xbdff3d03	-0.12462809
220	0xbd858e14	-0.0652124
221	0x3cc4c33d	0.024018878
222	0x3e9ca1aa	0.3059209
223	0xbe76f90d	-0.24118443
224	0x3ba4d820	0.005030647
225	0xbe400dce	-0.18755266
226	0x3de97080	0.11398411
227	0x3e084fe8	0.13311732
228	0x3e219ed5	0.15783246
229	0x3e877b70	0.26461363
230	0xbe212976	-0.15738472
231	0xbe2a2ee9	-0.16619457
232	0x3e8ee96e	0.27912468
233	0xbd93a1a4	-0.07208565
234	0xbe602399	-0.2188858
235	0xbd0419e1	-0.032251243
236	0xbc266450	-0.010155752
237	0x3a1951d0	0.0005848678
238	0xbea2f8cc	-0.31830442
239	0x3da01473	0.078164004
240	0x3e046de5	0.12932546
241	0x3e060709	0.13088621
242	0xbde91224	-0.11380413

bias_ih_l0 f4 [27]
0	0x3e4e8feb	0.20172088
1	0xbdefcb99	-0.11708755
2	0x3ceecc9f	0.029150305
3	0x3e6f208f	0.23352264
4	0xbd411f50	-0.047149003
5	0x3d9dcbc3	0.0770488
6	0xbe2cfb95	-0.16892846
7	0x3d8e24db	0.069406234
8	0x3d8d44da	0.06897898
9	0x3e7677ff	0.24069212
10	0x3ea8aba8	0.32943463
11	0x3e3a6f98	0.18206632
12	0xbe8cf215	-0.27528444
13	0xbe955e0b	-0.29173312
14	0x3e1ecd1a	0.15507928
15	0xbc777eb9	-0.015105897
16	0x3d008b84	0.031383052
17	0xbdb16baa	-0.086631134
18	0xbea07ab8	-0.31343627
19	0xbe0edda1	-0.13951732
20	0x3e095c50	0.1341412
21	0x3e3b746d	0.18306132
22	0xbcbbfc11	-0.022947343
23	0x3dcd480c	0.100235075
24	0xbe49a84c	-0.19693106
25	0x3e0c1eb6	0.1368359
26	0xbda76292	-0.08173098

bias_hh_l0 f4 [27]
0	0x3c1dfb6f	0.009642466
1	0x3e319866	0.17343292
2	0xbd26c0bc	-0.04071115
3	0x3ea37ee5	0.3193275
4	0x3e16af81	0.14715387
5	0x3e337b8a	0.17527595
6	0xbe87c9c3	-0.2652112
7	0x3e96a99d	0.2942628
8	0xbe9c79ad	-0.3056158
9	0x3e729a3d	0.2369165
10	0xbe123438	-0.14277732
11	0x3e3b7fc0	0.18310452
12	0x3d9d1650	0.076702714
13	0xbe4a5e46	-0.19762525
14	0x3db01ecb	0.08599623
15	0x3e472d2e	0.19450828
16	0x3e7ac3c3	0.2448874
17	0xbe851a04	-0.2599641
18	0x3ea91cb2	0.33029705
19	0xbe396dbd	-0.18108268
20	0x3e76317b	0.24042313
21	0xbe8702be	-0.2636928
22	0xbe0341d1	-0.12818076
23	0x3d3eb054	0.04655488
24	0xbcaec873	-0.021335816
25	0x3e1fba58	0.15598428
26	0xbe47e5c3	-0.19521241

weight f4 [9, 9]
0	0xbe9f41e8	-0.3110497
1	0x3c519b38	0.012793355
2	0x3b80db1d	0.0039323703
3	0xbe7006de	-0.2344012
4	0x3e31ddc6	0.17369756
5	0xbddcf7be	-0.107894406
6	0x3d815ec5	0.06316904
7	0x3e89296a	0.2678941
8	0x3e956bfe	0.29183954
9	0xbea9d3b2	-0.33169323
10	0x3e8a03db	0.26956066
11	0x3d815fd2	0.063171044
12	0x3d92b68b	0.071637236
13	0xbdc92f7c	-0.0982351
14	0x3d919805	0.071090735
15	0x3d0a2879	0.033730004
16	0xbe6efd8d	-0.2333891
17	0x3df9656a	0.12177546
18	0xbba5dc70	-0.0050616786
19	0x3db69615	0.089153446
20	0x3c6d25c9	0.014474341
21	0xbe91a1da	-0.28443795
22	0xbe757a7f	-0.2397251
23	0xbe7e8544	-0.24855524
24	0xbe14c5a4	-0.14528519
25	0x3e097274	0.13422567
26	0xbe8aa12d	-0.27076092
27	0xbe0ed224	-0.1394735
28	0xbe42b25a	-0.19013348
29	0x3ea37915	0.31928316
30	0x3e9285d5	0.2861773
31	0x3e2c56e2	0.16830018
32	0x3e82119e	0.25404066
33	0x3d8241b4	0.06360188
34	0x3cfacb14	0.030614413
35	0x3da8d85f	0.082443945
36	0x3e0091b2	0.12555578
37	0x3e420b85	0.18949707
38	0xbd09a6ad	-0.03360622
39	0x3e95cd65	0.29258266
40	0x3e7fd44b	0.24983327
41	0xbe63a033	-0.2222908
42	0x3e6fdb36	0.23423466
43	0x3dd211ef	0.10257327
44	0xbd17bc75	-0.03704496
45	0xbe98abf8	-0.29818702
46	0xbdecc6c7	-0.11561351
47	0xbe2d16ce	-0.1690323
48	0xbe7398e4	-0.23788792
49	0x3dad67f7	0.08467095
50	0x3ea84f85	0.3287317
51	0xbbe884d0	-0.0070959106
52	0xbd7063d8	-0.05868897
53	0xbd96aab9	-0.073567815
54	0x3d2a2c14	0.041545942
55	0xbe96328d	-0.29335442
56	0xbe28d03f	-0.1648569
57	0xbe8ff26a	-0.28114635
58	0xbe2b417f	-0.16724204
59	0x3da2cb94	0.07948986
60	0x3e15cf5e	0.14629886
61	0xbe865470	-0.26236296
62	0x3d4ea5de	0.050451152
63	0xbd22704d	-0.03965788
64	0xbe9cfc6d	-0.30661336
65	0xbe0d7174	-0.1381281
66	0xbd83d81d	-0.06437705
67	0x3c389322	0.011265548
68	0xbe826bac	-0.25472772
69	0x3e01df80	0.12682915
70	0x3e99b4a9	0.30020645
71	0xbe50a9f5	-0.20377333
72	0x3d7d1454	0.061786965
73	0x3e1b51fb	0.15167992
74	0xbe94107a	-0.2891882
75	0xbe8a2798	-0.26983333
76	0xbe3648f9	-0.17801274
77	0x3e3d0d21	0.1846204
78	0x3ea89ae1	0.32930663
79	0xbcc725f5	-0.024310092
80	0x3e5e5703	0.2171288

bias f4 [9]
0	0xbe14d049	-0.1453258
1	0x3d8f7434	0.07004586
2	0xbe27fa36	-0.16404042
3	0x3ea1e834	0.3162247
4	0x3e6cebd2	0.23136833
5	0x3dba44c8	0.0909515
6	0xbc9b09cb	-0.018925568
7	0x3da960ac	0.08270392
8	0x3e5e74f4	0.21724302
