KNet/KNet_TSP/KNet/model/Toy/model_KNet_point4_partial.pt (torch, 47402 bytes, 41 tensors)

weight_ih_l0 f4 [12, 10]
0	0x3e0a3712	0.1349757
1	0xbe53c949	-0.20682253
2	0xbe75fd2b	-0.24022357
3	0xbed325fb	-0.41239914
4	0xbe834ff5	-0.2564694
5	0x3eef815c	0.4677838
6	0x3ed4798b	0.4149898
7	0x3e67db7b	0.22642319
8	0x3e94d7c5	0.2907087
9	0x3c8cdd9f	0.01719552
10	0xbdf74052	-0.12072815
11	0x3e283555	0.16426595
12	0xbe5852c7	-0.21125327
13	0x3c3361c5	0.010948603
14	0x3da44cf9	0.08022494
15	0xbc836378	-0.016038641
16	0x3e55df0a	0.20885864
17	0xbea07357	-0.31337997
18	0x3db6e41c	0.08930227
19	0x3c443115	0.011974593
20	0x3ec9bb3e	0.39400667
21	0xbd19bde8	-0.037534624
22	0xbe6e4f57	-0.23272453
23	0xbe9d5a3d	-0.3073291
24	0xbef6a59f	-0.48173234
25	0x3e823348	0.2542975
26	0xbe9b0186	-0.302746
27	0xbc345558	-0.011006676
28	0xbecf8348	-0.40529847
29	0x3e297cd0	0.16551518
30	0x3dfa5f91	0.12225259
31	0xbdd2d16a	-0.10293849
32	0xbe5e9ba0	-0.21739054
33	0x3c1a271c	0.009408738
34	0xbed7e9f1	-0.4217067
35	0x3e2bdfc3	0.16784577
36	0xbddfb815	-0.10923783
37	0x3eea7792	0.4579435
38	0xbe634a5e	-0.22196338
39	0x3ebe5f8d	0.37182274
40	0xbdd28fd5	-0.1028134
41	0xbe2b9b2a	-0.16758409
42	0x37c74e94	2.375924e-05
43	0xbec7ea65	-0.39046016
44	0x3eb0b39a	0.34512025
45	0x3ea39393	0.31948528
46	0xbec8a2cd	-0.39186707
47	0x3ea86565	0.32889858
48	0xbe25f5f7	-0.1620711
49	0x3e8f5cd0	0.28000498
50	0xbee40286	-0.44533175
51	0x3de29ca4	0.11065033
52	0x3e4c24c2	0.19935897
53	0xbec4abeb	-0.38412413
54	0xbe025649	-0.12728228
55	0x3dda536f	0.10660445
56	0xbebfa322	-0.37429148
57	0xbecc4f96	-0.3990447
58	0x3e0dbb32	0.1384094
59	0x3dbd7465	0.09250716
60	0xbe32a74a	-0.17446628
61	0xbd9a0374	-0.0752019
62	0x3e86418d	0.26221886
63	0x3ce82c3c	0.028341405
64	0x3ef8fd99	0.4863098
65	0x3ea8db95	0.32980028
66	0x3ea09d85	0.31370178
67	0x3ca6a733	0.020343399
68	0xbe811cbf	-0.25217244
69	0xbe34b8dd	-0.17648645
70	0x3e102023	0.14074759
71	0xbcf09ba2	-0.029371087
72	0xbdbd2bbe	-0.09236859
73	0xbccc537c	-0.024942152
74	0xbdd5c977	-0.10438817
75	0xbeb808ef	-0.35944316
76	0x3e19c512	0.15016583
77	0x3e9d83ba	0.30764562
78	0xbec94585	-0.39310852
79	0x3eee427a	0.46535093
80	0xbe7ebff2	-0.24877909
81	0x3df68dc9	0.12038762
82	0xbd15d85e	-0.036583297
83	0xbed4a6d4	-0.4153353
84	0x3ee1c9b9	0.44099215
85	0x3e873bd2	0.26412827
86	0x3cdb7ada	0.026791979
87	0x3e90d288	0.28285623
88	0xbc2cd7b6	-0.010549476
89	0xbd1b1fdf	-0.03787219
90	0x3ed13c2c	0.4086622
91	0x3eced36c	0.40395677
92	0xbe84c945	-0.25934806
93	0x3ecc5e86	0.39915866
94	0xbea35b76	-0.31905717
95	0x3effabc7	0.49935743
96	0x3e6303fa	0.22169486
97	0x3eda170c	0.42595708
98	0x3e73ae62	0.2379699
99	0xbed918f7	-0.4240186
100	0xbe87a848	-0.26495576
101	0x3ea31833	0.318544
102	0xbc929352	-0.017892513
103	0xbdad335a	-0.0845706
104	0xbe37288d	-0.17886563
105	0x3e00b58b	0.12569253
106	0x3e1e5a99	0.15464248
107	0xbe901541	-0.28141215
108	0xbe23a778	-0.15981853
109	0xbe6f2468	-0.23353732
110	0xbe9de0ed	-0.30835667
111	0x3b8d70fe	0.0043164482
112	0xbe42f1bb	-0.19037525
113	0xbef501bb	-0.47852883
114	0x3ebb686c	0.36603105
115	0xbed68b56	-0.4190318
116	0x3b349ff9	0.0027561171
117	0xbeb11b2e	-0.3459105
118	0xbdce71d3	-0.10080304
119	0xbe37d5d0	-0.17952657

weight_hh_l0 f4 [12, 4]
0	0x3de4715a	0.111544326
1	0x3ea03ad1	0.31294873
2	0xbe10d749	-0.14144625
3	0x3e30fb1c	0.1728329
4	0x3e1f7c2d	0.15574713
5	0x3b5178f9	0.0031962974
6	0xbe99162c	-0.29899728
7	0x3e8280af	0.25488803
8	0x3e65447b	0.22389404
9	0x3dc62feb	0.096771084
10	0x3eaacb0d	0.3335804
11	0x3d496dac	0.049176857
12	0x3efc5e40	0.49290657
13	0x3d4af881	0.049553398
14	0x3e6abd87	0.22923861
15	0x3e1f186f	0.15536664
16	0xbecbda1d	-0.39814845
17	0xbe15536d	-0.14582606
18	0xbf04ea00	-0.51919556
19	0xbed776fd	-0.42082968
20	0x3e0c70f5	0.13714965
21	0x3e86198b	0.26191363
22	0x3e80bf8d	0.25146142
23	0xbe39af63	-0.18133311
24	0x3ee6f06c	0.45105302
25	0xbed8dab1	-0.42354348
26	0x3ecb4b95	0.39706102
27	0xbd9ae3d2	-0.075629845
28	0x3ebb00ac	0.3652395
29	0xbe9a73ec	-0.30166566
30	0xbed2365c	-0.41057098
31	0x3e647606	0.22310647
32	0xbee13bb5	-0.43990865
33	0x3d048ee1	0.032362822
34	0xbee3f187	-0.44520208
35	0xbe471b43	-0.19443993
36	0xbeeaa677	-0.45830128
37	0x3ec77b86	0.38961428
38	0x3d341d9b	0.043973546
39	0xbe1ed3ae	-0.15510437
40	0xbe3888ed	-0.18020983
41	0x3e9592a6	0.29213446
42	0x3e80473a	0.25054342
43	0xbee5bd52	-0.44871002
44	0xbeee2d0d	-0.46518746
45	0xbe45826a	-0.1928803
46	0x3e94482f	0.28961322
47	0x3eb01025	0.34387317

bias_ih_l0 f4 [12]
0	0xbd47b917	-0.0487605
1	0xbe4bf5c8	-0.19917977
2	0x3ec768a2	0.38947016
3	0xbe0f3391	-0.13984515
4	0x3e40bb11	0.1882136
5	0x3e9ca747	0.30596372
6	0x3e08431a	0.13306847
7	0xbec461d2	-0.3835588
8	0x3e359da6	0.1773592
9	0x3e1fc62c	0.1560294
10	0xb7ecc957	-2.8227149e-05
11	0xbdffc0d3	-0.1248795

bias_hh_l0 f4 [12]
0	0xbe8e8a53	-0.27839908
1	0xbeed5592	-0.46354347
2	0xbdf99c9b	-0.12188073
3	0x3e8c9aa9	0.27461746
4	0xbeeb2197	-0.45924065
5	0x3cd00783	0.025394207
6	0x3ed727be	0.42022508
7	0x3e29e433	0.16590957
8	0xbeb2e9aa	-0.34943897
9	0xbe3d63c7	-0.18495093
10	0xbdaa69a4	-0.083209306
11	0x3edf4745	0.43609062

weight_ih_l0 f4 [12, 14]
0	0xbe92e1cd	-0.28687897
1	0xbdc818b7	-0.09770339
2	0x3ebe9bee	0.3722834
3	0x3ebe2df4	0.37144434
4	0xbea20d10	-0.3165059
5	0x3e7f94e9	0.24959148
6	0x3e88a56f	0.26688716
7	0x3ebd5718	0.3698051
8	0xbe93f616	-0.28898686
9	0x3e175949	0.14780153
10	0x3eb378a0	0.35052967
11	0xbecd9cc0	-0.40158653
12	0x3ec6cc7f	0.38827893
13	0xbec45541	-0.38346294
14	0x3ee9bd7d	0.4565238
15	0x3e93503d	0.28772154
16	0x3eb60d3f	0.3555698
17	0x3ed6388b	0.41840014
18	0x3e206685	0.15664108
19	0xbee20602	-0.4414521
20	0xbdff7cef	-0.12475001
21	0x3b41453e	0.0029490734
22	0xbecc4494	-0.3989607
23	0xbe8c4b54	-0.2740122
24	0xbe85ff17	-0.2617118
25	0xbde4f45f	-0.111794226
26	0x3c8436f7	0.01613949
27	0xbeb4c367	-0.3530533
28	0x3e6b537b	0.22981064
29	0xbe3eeb23	-0.18644385
30	0xbe22f4f6	-0.15913758
31	0xbee46619	-0.44609144
32	0xbc3c8b5a	-0.011507833
33	0x3e3ed13d	0.18634506
34	0xbebf19f4	-0.37324488
35	0xbe80b31d	-0.25136653
36	0xbe597be0	-0.21238661
37	0xbe010fe0	-0.12603712
38	0x3e829d2b	0.25510535
39	0x3d01ddac	0.031705543
40	0x3dde8112	0.10864462
41	0x3ee1e824	0.44122422
42	0xbed87611	-0.42277578
43	0x3e3c3b90	0.18382096
44	0x3e06440f	0.131119
45	0x3e2b3c73	0.16722278
46	0x3ded2c1d	0.115806796
47	0x3e22ba24	0.1589132
48	0x3e6f5c0e	0.2337496
49	0xbe0e2147	-0.13879882
50	0x3e75d112	0.24005535
51	0x3d752bb9	0.05985615
52	0x3e979f46	0.29613703
53	0xbea0e6d3	-0.31426105
54	0x3ef5a8ac	0.4798025
55	0xbee975f3	-0.455978
56	0x3e804f1c	0.25060356
57	0x3ed25fb3	0.41088638
58	0xbe10c2f6	-0.14136872
59	0xbe3207a1	-0.17385723
60	0x3ce0373f	0.027370093
61	0xbebdee7c	-0.37096012
62	0xbe116302	-0.14197925
63	0x3e2b5ee7	0.16735421
64	0x3ee02933	0.43781433
65	0x3e72f935	0.23727877
66	0xbd8efc17	-0.06981676
67	0xbcb18a2e	-0.021672335
68	0xbe14b37f	-0.14521597
69	0xbe2881ac	-0.16455716
70	0xbe8fbe12	-0.280747
71	0xbd16b5fb	-0.036794644
72	0x3efb67eb	0.4910272
73	0x3d9cef8d	0.07662878
74	0xbe5f18a7	-0.21786748
75	0x3e9240f6	0.28565186
76	0xbe912612	-0.28349358
77	0x3dd64731	0.104627974
78	0x3e264492	0.16237095
79	0x3ee39331	0.44448236
80	0x3ea98d39	0.33115557
81	0xbe724f2a	-0.23663011
82	0xbecf5252	-0.40492493
83	0x3e04db61	0.12974311
84	0x3e0232a4	0.1271463
85	0xbea950ef	-0.3306956
86	0x3e923efb	0.28563675
87	0xbef8a60f	-0.48564193
88	0xbcc464fe	-0.023973938
89	0x3e762766	0.24038467
90	0x3dace213	0.08441558
91	0x3e68faa6	0.22751865
92	0x3e525200	0.20539093
93	0xbde7a615	-0.113109745
94	0xbdb26066	-0.08709793
95	0xbe89dfae	-0.26928467
96	0x3e82edde	0.25572103
97	0x3e9c547f	0.30533215
98	0x3ebda4f6	0.37039918
99	0xbe0a7cc1	-0.13524152
100	0x3ec628e3	0.3870307
101	0x3e2e5552	0.17024735
102	0xbe856969	-0.26056984
103	0x3d675745	0.05647971
104	0x3e39dc1f	0.18150376
105	0x3e0d0bdd	0.13774057
106	0xbe79759c	-0.2436127
107	0xbeb9af5f	-0.3626661
108	0xbeb4b8a0	-0.35297108
109	0xbe95e82b	-0.29278693
110	0x3e18fefd	0.1494102
111	0xbee4e16c	-0.44703233
112	0xbd0e79c0	-0.03478408
113	0x3eeeb46c	0.46622026
114	0xbecfa90b	-0.40558657
115	0xbe74de1f	-0.23912857
116	0x3eeda7b5	0.46417013
117	0x3dcd157c	0.100138634
118	0xbe3ad722	-0.18246129
119	0x3ebdce5d	0.37071505
120	0x3cb74f61	0.022376718
121	0xbe598a30	-0.2124412
122	0x3e83cc9a	0.25742036
123	0xbe6ef690	-0.23336244
124	0xbefaec8f	-0.49008605
125	0xbe8a49d2	-0.27009445
126	0x3eaa6422	0.3327952
127	0x3e45a72f	0.19302057
128	0x3e598f61	0.21246101
129	0x3cd3230b	0.025773546
130	0xbec4fda7	-0.3847477
131	0xbe6f808a	-0.23388878
132	0xbec3f85d	-0.38275424
133	0xbe73f13e	-0.23822495
134	0x3e9e887e	0.3096351
135	0xbe5af462	-0.21382287
136	0xbe3a3837	-0.18185507
137	0xbe61abe0	-0.22038221
138	0xbeb51bc8	-0.35372758
139	0x3dd9a6fd	0.106275536
140	0xbe427c00	-0.18992615
141	0xbe076f30	-0.13226008
142	0xbeaddbf6	-0.3395688
143	0xbd75d35c	-0.06001602
144	0xbe5aba6e	-0.2136018
145	0xbe92fffb	-0.28710923
146	0xbdc098d8	-0.09404153
147	0xbe8ce70c	-0.27520025
148	0xbe7e12ef	-0.2481191
149	0xbece554e	-0.40299457
150	0x3e1ff631	0.15621258
151	0xbd221dba	-0.03957913
152	0xbd9d0b1e	-0.07668136
153	0xbeb4321d	-0.35194483
154	0x3e9d6b89	0.30746105
155	0xbe552a21	-0.20816852
156	0x3ed3793f	0.4130344
157	0x3ef7470b	0.4829639
158	0xbaa23e7e	-0.0012378243
159	0xbdd1b5df	-0.10239767
160	0x3eb3b7fb	0.35101303
161	0x3e984b96	0.29745167
162	0xbe98ff20	-0.29882145
163	0x3ee33137	0.44373485
164	0x3e8947da	0.2681263
165	0xbee191c0	-0.4405651
166	0xbeb24fa8	-0.34826398
167	0xbe34cd2e	-0.17656395

weight_hh_l0 f4 [12, 4]
0	0x3e457b80	0.19285393
1	0x3e5b385a	0.21408215
2	0xbe4e42d3	-0.20142679
3	0x3e70368c	0.23458308
4	0xbe7c6bdd	-0.24650522
5	0x3ee6b6b7	0.45061275
6	0xbec8fa42	-0.39253432
7	0xbe0de4dc	-0.13856834
8	0x3e8e8acb	0.27840266
9	0x3d9e98a9	0.07743961
10	0x3e8b7d05	0.2724382
11	0x3d998150	0.074953675
12	0x3eb7224c	0.35768354
13	0xbe9addca	-0.30247337
14	0xbd1619c4	-0.036645666
15	0xbf008c38	-0.50213957
16	0xbee1bde7	-0.44090196
17	0xbe738130	-0.2377975
18	0xbe93a572	-0.28837162
19	0xbe02dc31	-0.12779309
20	0x3eac6c52	0.33676392
21	0xbec38448	-0.3818686
22	0xbe4d55e9	-0.20052303
23	0xbe1886fe	-0.14895245
24	0x3ec56dab	0.38560233
25	0x3ea5941e	0.32339567
26	0x3eac4dc1	0.33653072
27	0x3eef817d	0.4677848
28	0xbe1c342f	-0.15254281
29	0x39248d51	0.00015692903
30	0xbe9dc855	-0.30816904
31	0x3d978264	0.07397917
32	0x3c2a3e67	0.010390854
33	0xb90f155f	-0.00013645504
34	0xbe76fb57	-0.24119316
35	0x3ead2925	0.33820453
36	0xbeb0f77d	-0.3456382
37	0xbd84fea6	-0.06493883
38	0x3eb337f8	0.35003638
39	0xbebfa20d	-0.37428322
40	0x3e8aaf10	0.27086687
41	0xbe81af66	-0.2532913
42	0x3da9dd77	0.08294194
43	0x3e6dbdb1	0.23216893
44	0x3df2043c	0.11817214
45	0xbaf74352	-0.0018864668
46	0xbeb70c04	-0.35751355
47	0xbef1b478	-0.47208

bias_ih_l0 f4 [12]
0	0xbed7be8e	-0.4213757
1	0xbe57f06f	-0.21087812
2	0x3dfafff7	0.12255853
3	0xbe49906a	-0.19683996
4	0x3cf881b1	0.03033528
5	0xbea5e752	-0.32403046
6	0x3e6c70f8	0.23089969
7	0x3dc0d723	0.09416034
8	0x3d07b99d	0.033136
9	0xbefa5f19	-0.4890068
10	0x3e935d15	0.28781953
11	0xbea47d3e	-0.32126802

bias_hh_l0 f4 [12]
0	0xbefa4d8f	-0.48887298
1	0xbe4d9ba9	-0.20078911
2	0x3e3d534b	0.18488805
3	0x3ee2946a	0.44253856
4	0xbd8089cc	-0.06276283
5	0xbed5f481	-0.41788104
6	0x3d9ec592	0.07752527
7	0xbe9cca96	-0.3062331
8	0xbc2e0aae	-0.010622663
9	0xbe04a236	-0.12952504
10	0x3e8b39b1	0.27192453
11	0x3ea040cb	0.31299433

weight_ih_l0 f4 [12, 24]
0	0xbe5e2727	-0.21694623
1	0xbea93736	-0.33049935
2	0xbe10e7a5	-0.14150865
3	0x3ee55336	0.44790047
4	0x3d1b18c1	0.037865404
5	0xbda81a36	-0.08208124
6	0xbedafa61	-0.4276915
7	0xbeb350d8	-0.35022616
8	0xbe6d767b	-0.23189728
9	0x3e0a595e	0.13510653
10	0xbe9f3f6d	-0.31103078
11	0x3ea9852a	0.3310941
12	0x3dcbbf6a	0.09948619
13	0x3e98ce22	0.29844767
14	0xbc8d8afa	-0.017278183
15	0x3eaaf7df	0.33392236
16	0x3de77a4c	0.11302623
17	0xbe7d4899	-0.24734725
18	0xbcbaebe5	-0.022817561
19	0x3db36b89	0.08760745
20	0xbd3ce7e9	-0.046119604
21	0xbe8f9cc5	-0.28049293
22	0x3e0ce464	0.13758999
23	0x3ec2f688	0.38078713
24	0x3e91c15d	0.28467837
25	0x3e9961af	0.2995734
26	0xbe958979	-0.29206446
27	0x3e81e614	0.25370848
28	0x3e5b337b	0.21406357
29	0x3ec03885	0.3754312
30	0x3e7ffe44	0.24999338
31	0xbdff282a	-0.124588326
32	0x3e039800	0.12850952
33	0xbedf9a91	-0.43672612
34	0x3ea0683a	0.3132952
35	0xbec10c34	-0.37704623
36	0x3eddd019	0.43322828
37	0xbec2022d	-0.37892285
38	0xbd6f4f9b	-0.058425527
39	0xbee66a48	-0.4500296
40	0xbea1a55f	-0.3157148
41	0x3eaecaa5	0.3413898
42	0x3dcea019	0.1008913
43	0x3e561248	0.20905411
44	0xbe150044	-0.14550883
45	0x3ee3e90b	0.44513735
46	0x3e6bc160	0.23022985
47	0x3e82b447	0.25528166
48	0x3ec31b4b	0.3810676
49	0x3e4969b8	0.19669235
50	0xbef43fd1	-0.47704938
51	0xbe0df5b0	-0.13863254
52	0xbd396e1c	-0.045271024
53	0xbec94472	-0.39310032
54	0xbeb676b4	-0.35637438
55	0xbd3bbba0	-0.04583323
56	0xbdb2c561	-0.08729053
57	0x3dd07d54	0.101801544
58	0x3e0bd106	0.13653955
59	0x3ed55c2b	0.4167188
60	0x3e544aad	0.20731612
61	0xbe0e31a8	-0.1388613
62	0x3eb29842	0.34881788
63	0x3ee40dcc	0.44541776
64	0x3ea9db6d	0.3317522
65	0xbe96e7de	-0.29473776
66	0x3ef8f862	0.48627
67	0x3d41a886	0.047279857
68	0x3db8044f	0.08985197
69	0xbd8a2add	-0.06746457
70	0xbed0fd3f	-0.4081821
71	0xbdb6f40b	-0.08933266
72	0x3dc5b539	0.09653706
73	0xbd947d2d	-0.07250438
74	0xbe16d0dc	-0.14728111
75	0xbe54ec15	-0.20793183
76	0x3e551a3c	0.20810789
77	0x3cb15d54	0.021650948
78	0x3e87c764	0.2651931
79	0x3d557829	0.052116547
80	0xbe0b6263	-0.1361175
81	0x3ea03943	0.31293687
82	0x3edd912d	0.43274823
83	0x3ea273ce	0.31728977
84	0xbe16d82a	-0.14730898
85	0xbd8c8cd7	-0.068628006
86	0xbeb4d41f	-0.35318086
87	0xbe12537a	-0.14289656
88	0x3d9b8634	0.075939566
89	0xbe42e05d	-0.190309
90	0x3cb1bd10	0.021696597
91	0x3e991e05	0.29905716
92	0x3cadab78	0.021199927
93	0x3e91616a	0.28394634
94	0xbe74eca7	-0.239184
95	0x3ecdd2c4	0.40199864
96	0xbe05aedf	-0.1305499
97	0xbe90c8b9	-0.2827814
98	0x3d3ed026	0.046585225
99	0x3e0cfb35	0.13767703
100	0x3ec14d8f	0.37754485
101	0x3e41f43b	0.18940823
102	0x3e7c8729	0.24660935
103	0xbd31dfdf	-0.04342639
104	0xbe9eff5e	-0.31054205
105	0xbdb41f03	-0.087949775
106	0x3e888990	0.26667452
107	0x3e10bfa0	0.14135599
108	0x3ee06c12	0.4383245
109	0x3c6857e7	0.014181114
110	0x3eb31132	0.34974056
111	0xbe614004	-0.21997076
112	0xbe27878b	-0.163603
113	0xbcade1c8	-0.021225825
114	0x3e11b1a7	0.14227925
115	0x3ee19768	0.44060826
116	0xbe540f19	-0.20708884
117	0xbda23787	-0.07920747
118	0x3e7a2f73	0.24432163
119	0x3d0c6ee8	0.034285456
120	0x3e5cdc57	0.21568428
121	0xbeac1443	-0.33609208
122	0x3e52caa8	0.2058512
123	0xbee0768f	-0.43840453
124	0xbc3f355e	-0.011670439
125	0xbe403276	-0.1876925
126	0xbe6edb0e	-0.2332575
127	0xbe14010e	-0.14453527
128	0x3ea1250b	0.31473574
129	0xbdad1d56	-0.08452861
130	0x3eaa2e38	0.33238387
131	0xbeb9d6ba	-0.36296636
132	0xbe18f1ab	-0.14935939
133	0xbe5a947d	-0.21345706
134	0x3e1ed0f2	0.15509394
135	0x3ee65478	0.4498632
136	0xbe2cc3c2	-0.1687155
137	0x3e4b4575	0.19850715
138	0x3ee985e5	0.45609966
139	0xbc33e175	-0.010979046
140	0x3e3e1bfa	0.1856536
141	0xbe546291	-0.20740725
142	0xbe89e394	-0.2693144
143	0x3e996ff0	0.29968214
144	0xbeec1c0c	-0.46115148
145	0xb5a93889	-1.2607935e-06
146	0x3d25f65a	0.040518142
147	0x3e278707	0.16360103
148	0x3da05f27	0.07830649
149	0xbed6e1a9	-0.4196904
150	0xbe0725c0	-0.13197994
151	0xbd3fa2b6	-0.046786033
152	0x3e89fe18	0.2695167
153	0xbee17480	-0.44034195
154	0x3ec5d663	0.38640127
155	0xbe7df197	-0.2479919
156	0xbe64d61a	-0.22347298
157	0x3e828b7a	0.25497037
158	0x3ebda3f4	0.3703915
159	0xbe78e461	-0.2430587
160	0x3eb99347	0.36245176
161	0x3e7a545f	0.24446248
162	0xbe2417ce	-0.16024706
163	0x3d955630	0.072918296
164	0xbe73d9ae	-0.23813507
165	0x3e60db8d	0.21958752
166	0xbd8e9e8c	-0.06963834
167	0x3c9dffa6	0.019286942
168	0xbe9bdc4c	-0.3044151
169	0x3eb1856b	0.34672102
170	0xbe8af238	-0.27137923
171	0xbdd91985	-0.106005706
172	0xbb96c75c	-0.004601402
173	0x3db5b712	0.088728085
174	0xbd359d43	-0.04433943
175	0xbe29a2cb	-0.16566007
176	0x3e3baee1	0.1832843
177	0x3e276812	0.16348293
178	0xbda36993	-0.07979121
179	0xbea9d010	-0.33166552
180	0x3eab232e	0.33425277
181	0xbed6f424	-0.4198314
182	0x3e5f7f17	0.21825825
183	0x3e96945d	0.29410067
184	0xbe9d5c00	-0.30734253
185	0x3ec12362	0.37722307
186	0x3ef5e56f	0.48026606
187	0xbe157fd2	-0.14599541
188	0x3e56b7a4	0.20968491
189	0x3e915e79	0.2839239
190	0x3e5113f9	0.20417775
191	0x3efbb57c	0.491619
192	0x3e268603	0.16262059
193	0x3e82d956	0.2555644
194	0xbe94b017	-0.29040596
195	0xbdee734b	-0.11643084
196	0x3ebcf742	0.36907393
197	0xbbbccbfb	-0.005761621
198	0x3e1c6f6c	0.15276879
199	0x3e6ce171	0.23132874
200	0xbe680588	-0.2265836
201	0x3eab48c4	0.33453953
202	0x3edca402	0.43093878
203	0x3ed0bec0	0.4077053
204	0xbeb868b9	-0.36017397
205	0x3ef3b26b	0.4759706
206	0xbe980ed7	-0.29698822
207	0x3cc60013	0.024169957
208	0xbe856c29	-0.26059082
209	0x3e90110b	0.28138003
210	0x3eda2fcb	0.42614588
211	0x3c39c87e	0.011339305
212	0x3eedbd5b	0.4643353
213	0x3d5e6792	0.05429799
214	0xbe9540ba	-0.29150945
215	0xbd666b54	-0.0562547
216	0x3e796ea4	0.24358612
217	0x3e0e4e4a	0.13897052
218	0xbe3d3849	-0.18478502
219	0xbda663b9	-0.08124489
220	0x3e89e462	0.26932055
221	0xbe4c09a3	-0.19925551
222	0x3d33c9a7	0.043893483
223	0xbd0a4c3d	-0.033764113
224	0x3d58657a	0.05283115
225	0x3ed7060b	0.41996798
226	0x3e8b858b	0.27250323
227	0xbe9cf387	-0.30654547
228	0xbd3c5efa	-0.045989014
229	0xbea0984e	-0.313662
230	0x3eb8ed3f	0.36118504
231	0x3e95353e	0.29142183
232	0xbe856bff	-0.26058957
233	0xbe301520	-0.17195559
234	0x3ece203d	0.4025897
235	0xbeb10304	-0.34572613
236	0xbd2f302d	-0.042770553
237	0x3e725bea	0.23667875
238	0x3e7f1bfb	0.24913017
239	0xbe221028	-0.15826476
240	0x3e10c479	0.14137448
241	0xbe9f0af6	-0.3106305
242	0xbdf10299	-0.117680736
243	0xbead8005	-0.33886734
244	0x3ef2a6ac	0.47392786
245	0x3ec38da2	0.38193995
246	0xbebb6588	-0.366009
247	0x3e0870a3	0.13324217
248	0xbeb0e405	-0.34548965
249	0x3e33b193	0.17548208
250	0xbe3bc801	-0.18338014
251	0x3e131224	0.14362389
252	0x3e7efc10	0.24900842
253	0xbe4c553a	-0.19954386
254	0xbe706b42	-0.23478416
255	0xbeb37bbc	-0.3505534

weight_hh_l0 f4 [12, 4]
0	0x3ebbc74f	0.36675498
1	0xbe86c910	-0.26325274
2	0xbd66e288	-0.05636838
3	0xbedf223e	-0.43580812
4	0xbe8aa845	-0.27081504
5	0x3dc3ab04	0.09554103
6	0x3e96af33	0.2943054
7	0xbe5a99ac	-0.21347684
8	0x3cd3391f	0.025784073
9	0xbea6ceb6	-0.32579583
10	0x3e8b8ba7	0.27254984
11	0xbe992312	-0.2990957
12	0x3e0b082f	0.1357734
13	0xbe17cb2f	-0.14823602
14	0x3e8e4df6	0.27793854
15	0xbedf7e67	-0.43651125
16	0x3ecd847f	0.4014015
17	0xbd913493	-0.07090106
18	0x3edb0ea7	0.42784616
19	0xbeeaf88e	-0.45892757
20	0x3ed8737e	0.42275614
21	0xbea13a44	-0.31489766
22	0x3ee59eee	0.44847816
23	0xbeabc311	-0.3354726
24	0xbf02e341	-0.5112801
25	0xbd7dbb65	-0.06194629
26	0xbe6ab4c0	-0.22920513
27	0x3e817c53	0.25290164
28	0xbe93838b	-0.28811297
29	0xbe02c1eb	-0.12769286
30	0x3e8d863d	0.27641478
31	0x3ec7840e	0.38967937
32	0xbe996640	-0.29960823
33	0xbeb6c620	-0.35698032
34	0x3e9cbdf0	0.3061366
35	0x3ee47481	0.44620135
36	0x3e690e9e	0.22759482
37	0xbef281a3	-0.4736453
38	0xb9d3c9b8	-0.00040395348
39	0x3e3d654a	0.1849567
40	0x3eaabb43	0.33345994
41	0xbc86d39f	-0.01645833
42	0xbeae46aa	-0.34038287
43	0x3ec9ee0c	0.39439428
44	0xbe106f11	-0.14104868
45	0xbe0245fc	-0.1272201
46	0x3e0f3fbb	0.13989155
47	0x3ec67057	0.38757583

bias_ih_l0 f4 [12]
0	0xbcb44934	-0.022007562
1	0x3d78c18b	0.060731452
2	0x3ce18f26	0.027534079
3	0xbe2cd386	-0.16877565
4	0xbe84851f	-0.25882813
5	0xbe17f45a	-0.14839306
6	0x3e75eb6e	0.2401559
7	0x3d01a894	0.03165491
8	0x3d929ab4	0.071584135
9	0x3e734d41	0.23759939
10	0xbef3bab2	-0.47603375
11	0x3e4588ee	0.19290516

bias_hh_l0 f4 [12]
0	0xbed0bb94	-0.4076811
1	0xbeb48dd5	-0.3526446
2	0xbe55da9d	-0.20884176
3	0xbe18a348	-0.14906037
4	0xbd15a5a9	-0.03653494
5	0x3ef60ba6	0.48055762
6	0x3d746795	0.059669096
7	0xbe2e4aba	-0.17020693
8	0xbe006d17	-0.12541614
9	0x3e35392d	0.17697592
10	0xbef57c69	-0.4794648
11	0xbc07c0c9	-0.00828571

weight f4 [4, 4]
0	0x3e3b2783	0.18276791
1	0x3ea2aa73	0.31770667
2	0xbe219783	-0.15780453
3	0xbeeeb6b9	-0.4662378
4	0x3d82c338	0.06384891
5	0xbe82f0a9	-0.25574234
6	0xbe889aa4	-0.2668048
7	0x3edc030a	0.4297107
8	0xbdc65bc0	-0.09685469
9	0xbc085bf1	-0.008322702
10	0xbd1063ff	-0.035251614
11	0xbd5967e7	-0.053077605
12	0xbec6cb0c	-0.38826787
13	0x3e429234	0.19001085
14	0x3d5c09b4	0.05372019
15	0x3bc9b1ee	0.006155244

bias f4 [4]
0	0x3edb0157	0.4277446
1	0xbeb9e413	-0.3630682
2	0x3dcd425f	0.10022425
3	0xbcce3a4b	-0.02517428

weight f4 [320, 8]
0	0x3db76a17	0.08955782
1	0xbdd2c856	-0.10292117
2	0x3e58d6d5	0.21175702
3	0x3eacca25	0.33747974
4	0x3d9fc1a2	0.078006044
5	0x3e15d6bf	0.146327
6	0xbdb30532	-0.08741225
7	0x3e27fc1c	0.16404766
8	0x3e31ba87	0.17356311
9	0xbd760d6e	-0.0600714
10	0xbe64be90	-0.22338319
11	0xbe503930	-0.20334315
12	0x3e8869bd	0.26643172
13	0xbea0ed00	-0.31430817
14	0x3df747a8	0.12074214
15	0xbe832d40	-0.2562046
16	0x3db6ddee	0.089290485
17	0xbea6003c	-0.32422054
18	0x3d01e8f6	0.03171631
19	0x3d454417	0.04816064
20	0x3e3addfe	0.18248746
21	0xbe18dc3d	-0.14927764
22	0x3e1ab9d3	0.15109949
23	0xbe3caedd	-0.1842608
24	0x3e152dc6	0.14568242
25	0xbe3acfde	-0.18243358
26	0xbd0530b8	-0.032517165
27	0x3cd9f82f	0.026607601
28	0xbd2ba0cf	-0.041901406
29	0xbe5e2202	-0.2169266
30	0x3a857659	0.0010182365
31	0x3cebb0ed	0.028770888
32	0xbe251dc3	-0.16124634
33	0xbe8766bd	-0.2644557
34	0x3e1bc61c	0.15212291
35	0x3ce827e1	0.028339328
36	0xbda1abfb	-0.07894131
37	0x3e740a7f	0.23832129
38	0xbe0634e3	-0.13106112
39	0xbea25eed	-0.31713048
40	0x3db18558	0.086680114
41	0xbe64f95c	-0.22360748
42	0x3e84c869	0.2593415
43	0xbdf33454	-0.11875215
44	0xbe94547e	-0.28970712
45	0xbe37b586	-0.1794034
46	0x3e62abb7	0.22135817
47	0xbe8caac2	-0.27474028
48	0x3d23dc55	0.040005047
49	0x3e8e41b5	0.27784505
50	0xbea544c8	-0.32279038
51	0x3e882b67	0.26595613
52	0x3e9c3001	0.30505374
53	0x3dcb4c96	0.09926717
54	0x3dc4db2a	0.09612115
55	0xbe828d88	-0.25498605
56	0xbe2ee99d	-0.17081304
57	0xbdb1ac01	-0.08675385
58	0xbea95600	-0.33073425
59	0x3ea5a710	0.3235402
60	0x3d690a80	0.05689478
61	0xb9a7138e	-0.00031867292
62	0xbe53538e	-0.20637342
63	0xbd8f8607	-0.070079856
64	0xbc70e217	-0.0147023415
65	0xbe6e2858	-0.23257577
66	0x3e3df4e2	0.18550447
67	0x3d237ec4	0.039915815
68	0xbde3be2a	-0.11120255
69	0xbe776b20	-0.24161959
70	0x3e23ab32	0.15983275
71	0x3ea1a966	0.31574553
72	0x3e9bfd54	0.30466712
73	0x3e823fe0	0.25439358
74	0x3e9e2089	0.30884197
75	0x3e0d7d9f	0.13817452
76	0x3e771c45	0.24131878
77	0xbdf86de5	-0.12130336
78	0x3e5765c0	0.21034908
79	0x3e53ad55	0.2067159
80	0x3e238ba2	0.15971234
81	0xbeb78396	-0.3584258
82	0x3e8aed76	0.27134293
83	0x3e91a9e0	0.28449917
84	0x3e3103a7	0.1728655
85	0x3d66df6a	0.056365408
86	0x3e9dc56f	0.30814692
87	0x3e8494b4	0.258947
88	0x3d2fbee5	0.04290666
89	0xbe28b2e7	-0.16474496
90	0x3eb5b1cf	0.3548722
91	0x3d36dfd1	0.04464704
92	0xbea1ef02	-0.3162766
93	0x3e9872ae	0.29774994
94	0xbeab74e9	-0.33487633
95	0xbc961e2a	-0.01832493
96	0xbe9256c8	-0.28581834
97	0x3d205693	0.039145064
98	0xbda14723	-0.078748964
99	0x3dac083f	0.0840001
100	0x3ea00759	0.31255606
101	0xbb7fc6a8	-0.003902832
102	0x3e6c80ae	0.23095962
103	0x3c3a0fd2	0.011356311
104	0x3e842d39	0.25815752
105	0xbe4241d4	-0.18970424
106	0xbe65a869	-0.22427525
107	0x3daccd8a	0.08437641
108	0x3e9f3122	0.31092173
109	0x3dfbd15d	0.12295792
110	0xbe425eee	-0.18981525
111	0x3da8dfed	0.082458355
112	0x3e3719ab	0.17880885
113	0x3e2c68d7	0.16836868
114	0x3d9ae43d	0.07563064
115	0xbe088689	-0.13332571
116	0x3cfb308a	0.030662794
117	0xbe410f38	-0.18853462
118	0x3d43cbac	0.04780166
119	0x3e90f81e	0.28314298
120	0x3d25d056	0.040481888
121	0xbdd77ce0	-0.10521865
122	0x3d8d3fd7	0.06896942
123	0x3e781d55	0.2422994
124	0xbea4e329	-0.3220456
125	0xbe2cb53d	-0.16866012
126	0x3e90d132	0.28284603
127	0x3e3e24de	0.18568751
128	0x3e878b5e	0.26473516
129	0x3e4bb164	0.19891888
130	0xbea924aa	-0.33035785
131	0xbdc25c00	-0.09490204
132	0xbe15009f	-0.14551018
133	0x3d8b3455	0.06797091
134	0x3e1a4405	0.1506501
135	0xbe37fb16	-0.17966875
136	0x3d930253	0.07178178
137	0x3e68e417	0.2274326
138	0xbe4b3644	-0.1984492
139	0x3e12d3f9	0.14338674
140	0x3e8d1623	0.2755595
141	0x3dcb7bbd	0.099357106
142	0x3e63e6a0	0.22255945
143	0x3eabe881	0.33575824
144	0x3e7e88c1	0.24856855
145	0x3e765e5f	0.24059437
146	0xbe33ebe8	-0.1757046
147	0x3e6ebeeb	0.23315017
148	0xbe92bb4a	-0.28658515
149	0x3e87fe85	0.2656137
150	0xbd6e24a5	-0.058140416
151	0x3eb2d4b2	0.349279
152	0x3e3b1421	0.18269397
153	0xbe8c038f	-0.27346465
154	0xbe90543b	-0.28189263
155	0xbd846c62	-0.06465985
156	0xbe4ec932	-0.20193937
157	0x3e381841	0.17978002
158	0x3da2ed77	0.07955449
159	0x3e917a2d	0.28413525
160	0x3e2fcbad	0.1716754
161	0x3e8d786a	0.2763093
162	0x3c000b7c	0.007815238
163	0x3ea77118	0.3270347
164	0xbb80a6bf	-0.0039261277
165	0xbdf4b76e	-0.11949049
166	0xbd96702c	-0.07345614
167	0x3e8b14a7	0.27164194
168	0xbc872fbf	-0.01650226
169	0x3e4a7639	0.19771661
170	0x3e451577	0.1924647
171	0xbeb025de	-0.3440389
172	0x3d76d172	0.060258336
173	0x3e4261fb	0.18982689
174	0x3c662213	0.01404621
175	0xbe9db870	-0.30804777
176	0x3e91fd1d	0.28513423
177	0xbeb346a6	-0.35014838
178	0xbe9a4fb3	-0.3013893
179	0xbd150825	-0.03638472
180	0x3d89255d	0.066965796
181	0xbdb6ed14	-0.08931938
182	0xbd813a98	-0.06310004
183	0x3df73526	0.12070684
184	0xbe893e98	-0.26805568
185	0xbe56e0e4	-0.20984226
186	0x3e3c0020	0.18359423
187	0x3e9db322	0.3080073
188	0x3e9d8934	0.3076874
189	0x3e0827dc	0.13296455
190	0xbe7716b8	-0.2412976
191	0x3e83ea92	0.257649
192	0x3a1334d3	0.00056154764
193	0xbd7c0f3c	-0.061537966
194	0xbe3cff15	-0.18456681
195	0xbe53cbbe	-0.2068319
196	0x3c9cf018	0.019157454
197	0xbe01cba1	-0.12675335
198	0x3e86d0c6	0.26331156
199	0xbe6387b1	-0.22219731
200	0x3d8c5663	0.068524145
201	0xbcf6ff2e	-0.030150976
202	0x3e70493d	0.23465438
203	0x3dc8f821	0.09812952
204	0x3dc0368c	0.09385404
205	0x3e3d2d80	0.18474388
206	0x3e975a5b	0.29561123
207	0xbe7b3ab0	-0.24534106
208	0xbe93f649	-0.28898838
209	0x3e160a9b	0.14652483
210	0x3e852a0f	0.2600865
211	0x3ab52f3d	0.0013823282
212	0x3e58a913	0.21158247
213	0x3e67c576	0.22633919
214	0xbe89c7a8	-0.26910138
215	0x3e816a07	0.25276205
216	0x3e99584b	0.29950175
217	0xbd226338	-0.039645404
218	0x3dc829c3	0.097735904
219	0xbc66bbf6	-0.014082899
220	0xb8e5ada3	-0.00010951913
221	0xbd35c457	-0.044376697
222	0x3e30d368	0.17268145
223	0x3df09c42	0.11748554
224	0x3e9381ac	0.2880987
225	0x3e8f0814	0.2793585
226	0xbe1a7f68	-0.15087664
227	0xbe71cfa7	-0.2361437
228	0x3e17a519	0.14809074
229	0xbd57961c	-0.05263339
230	0x3e37e250	0.17957425
231	0x3e29678a	0.16543403
232	0xbdf2a71e	-0.11848281
233	0xbe7e5ae9	-0.24839367
234	0xbe8e227f	-0.27760693
235	0x39e7c22e	0.0004420443
236	0x3b42c147	0.0029717253
237	0x3e7904fb	0.24318306
238	0x3d9b6243	0.07587101
239	0x3e0bdb61	0.13657905
240	0x3e579589	0.21053137
241	0xbe51b556	-0.2047933
242	0x3e767558	0.240682
243	0x3e83b5a6	0.25724524
244	0x3e95cbf1	0.29257157
245	0x3d8a02c3	0.06738808
246	0x3e86c767	0.26324007
247	0x3e69eef3	0.22845058
248	0xbea3e641	-0.32011607
249	0xbd7457d1	-0.05965406
250	0xbe1a5132	-0.15070036
251	0x3dc441e1	0.09582878
252	0xbe82d485	-0.25552765
253	0x3e05ef0a	0.13079467
254	0xbe9009bd	-0.2813243
255	0xbe2b8709	-0.1675073

bias f4 [320]
0	0x3b7bdac2	0.003842995
1	0x3e1576f4	0.14596158
2	0x3eb23aac	0.34810388
3	0xbdf3ef09	-0.11910827
4	0x3dd5caa7	0.104390435
5	0xbe3ecb81	-0.18632318
6	0x3eb1f83f	0.3475971
7	0x3ea8234a	0.32839423
8	0xbe2d5cf2	-0.16929987
9	0xbdf6d2d7	-0.12051933
10	0xbe1cf1c4	-0.15326601
11	0x3d59f738	0.05321428
12	0xbd878254	-0.06616655
13	0xbb0f9565	-0.0021909114
14	0x3c85c0f9	0.016327368
15	0xbc9b1986	-0.018933069
16	0x3e8b530f	0.27211806
17	0x3e539b84	0.20664793
18	0x3e1d1e30	0.15343547
19	0x3e7ccf06	0.24688348
20	0xbe71f7ff	-0.23629759
21	0xbd06a8ac	-0.0328757
22	0xbddf72fe	-0.10910605
23	0xbe91be61	-0.2846556
24	0xbe3a3f71	-0.18188263
25	0xbe35813c	-0.1772508
26	0xbe82184b	-0.2540916
27	0xbe566c50	-0.20939755
28	0xbe05ac08	-0.13053906
29	0xbe90a91a	-0.28254014
30	0x3ea861c6	0.32887095
31	0x3eab9876	0.33514756
32	0x3eb1b597	0.34708855
33	0x3df70bf3	0.12062826
34	0x3db24ee1	0.08706451
35	0x3e87ebff	0.26547238
36	0x3e23180e	0.15927145
37	0xbe8f10a3	-0.2794238
38	0x3e0f4899	0.13992538
39	0x3e71b918	0.23605764
40	0xbe8b2e50	-0.2718377
41	0x3e85e596	0.26151723
42	0xbe025480	-0.12727547
43	0xbd805610	-0.06266415
44	0xbdf3e834	-0.119095236
45	0x3d2c2233	0.042024802
46	0xbd938009	-0.07202155
47	0x3eb01735	0.34392706
48	0xbe7388cc	-0.23782653
49	0xbe4bb577	-0.19893442
50	0xbe6965ef	-0.22792791
51	0xbd42ea5e	-0.04758679
52	0x3c27019f	0.010193258
53	0x3e11bf9e	0.14233252
54	0x3e19e3cf	0.15028308
55	0xbe00298f	-0.12515853
56	0x3ea8bbde	0.3295583
57	0x3e0844e4	0.1330753
58	0xbe8d24a5	-0.2756702
59	0x3df304dd	0.11866162
60	0x3dd3b842	0.10337879
61	0x3e7eb2d8	0.24872911
62	0x3ea18968	0.31550145
63	0x3e5e180d	0.21688862
64	0xbe3868be	-0.18008706
65	0x3e7bd094	0.24591285
66	0x3e3127a1	0.17300273
67	0x3e11def6	0.14245209
68	0x3eabe857	0.335757
69	0x3e56d9be	0.209815
70	0x3eac28a6	0.33624762
71	0x3b438054	0.0029831128
72	0xbdec86a7	-0.115491204
73	0x3e98bb20	0.29830265
74	0x3d94dc4d	0.072685815
75	0xbe9f0847	-0.31061003
76	0xbe9ca373	-0.30593452
77	0x3e6bed70	0.23039794
78	0xbe25ae48	-0.16179764
79	0xbe5d9f74	-0.21642858
80	0x3e988e27	0.29795954
81	0xbd0fb984	-0.03508903
82	0x3e8f5e76	0.28001755
83	0xbd1d3726	-0.03838267
84	0x3d5ea03c	0.05435203
85	0xbe269dfa	-0.16271201
86	0x3e8d8547	0.27640745
87	0xbe71f4f4	-0.23628598
88	0x3e455663	0.19271235
89	0xbd1c55a5	-0.038167614
90	0xbe2798e0	-0.16366911
91	0x3e712f10	0.23553109
92	0xbe0a8a8d	-0.13529415
93	0x3e634e22	0.22197774
94	0xbd87548c	-0.06607923
95	0xbe020fb9	-0.1270131
96	0x3e9f9711	0.31169942
97	0xbe992c91	-0.29916814
98	0xbe5dcd07	-0.21660243
99	0xbe8d2966	-0.27570647
100	0x3d1dc3bf	0.038516756
101	0x3e07e93f	0.1327257
102	0xbe161716	-0.14657244
103	0x3eb097ac	0.34490716
104	0x3ea5227b	0.3225287
105	0x3e05c514	0.1306346
106	0x3e6ab155	0.2291921
107	0x3e37ef44	0.17962366
108	0xbaf41c1c	-0.00186241
109	0x3e5079b2	0.20358923
110	0xbdaee9ab	-0.085406624
111	0xbe66b170	-0.22528625
112	0xbdc9f9b8	-0.09862083
113	0x3e298a39	0.16556634
114	0x3d720f58	0.059096664
115	0x3e9992fe	0.2999496
116	0x3d819b24	0.06328419
117	0x3e5bd01b	0.21466105
118	0x3e6e2b57	0.2325872
119	0xbce76c72	-0.028249953
120	0xbe90d78a	-0.28289443
121	0x3db303ad	0.087409355
122	0xbd2bbd8b	-0.04192881
123	0x3e16f0c0	0.14740276
124	0xbe6b9b5c	-0.23008484
125	0xbe069823	-0.13143973
126	0x3e70d7fb	0.2351989
127	0x3d0bbb59	0.034114216
128	0x34f9a50b	4.649995e-07
129	0x3e9d8eb6	0.30772942
130	0x3d0f203c	0.03494285
131	0xbe79ae10	-0.24382806
132	0xbe2db243	-0.16962533
133	0xbdf7758a	-0.12082966
134	0xbdfcb61d	-0.12339423
135	0x3db091ae	0.08621536
136	0x3e928430	0.28616476
137	0xbe3ef322	-0.18647435
138	0x3e1f428c	0.1555273
139	0xbe567d58	-0.20946252
140	0xbdcd852c	-0.10035166
141	0xbe229272	-0.15876177
142	0xbda04ed9	-0.07827539
143	0x3d8cab2a	0.068685845
144	0x3e7b55a7	0.24544393
145	0x3e55a2e1	0.20862915
146	0x3e5a5c7a	0.2132434
147	0xbe0f3268	-0.13984072
148	0xbdec4857	-0.11537235
149	0x3dd90fef	0.10598742
150	0x3e8a4edf	0.270133
151	0x3e524d27	0.20537244
152	0xbe35a28b	-0.17737786
153	0xbdc5b6c0	-0.096539974
154	0x3e71d92f	0.23618005
155	0x3d915fd8	0.07098359
156	0xbe2bd554	-0.16780597
157	0x3dadf5ba	0.08494134
158	0xbe9bc00b	-0.30419955
159	0x3e4f5bea	0.20249906
160	0x3ea2d227	0.3180096
161	0x3e4af006	0.19818124
162	0x3dc7e61f	0.09760689
163	0x3d8d0fc9	0.068877764
164	0xbbf26c0a	-0.007398133
165	0xbb3617d4	-0.0027785199
166	0x3db4d7ce	0.08830224
167	0xbe86e0e3	-0.2634345
168	0xbd5535ca	-0.05205325
169	0xbdd7b0d0	-0.10531771
170	0x3e46a105	0.19397362
171	0x3d43ed0b	0.047833484
172	0xbdd5742d	-0.104225494
173	0xbe257237	-0.16156851
174	0x3e969ad6	0.29415005
175	0x3e794bd3	0.24345331
176	0x3d06cdab	0.032910984
177	0xbe816e03	-0.25279245
178	0x3e029c8f	0.12755035
179	0xbd9f80a1	-0.07788206
180	0x3ea5d5e5	0.3238975
181	0x3e0bfb57	0.13670097
182	0xbe1722bb	-0.14759342
183	0xbca80db2	-0.020514343
184	0x3e070a23	0.1318746
185	0x3daf1f6f	0.08550917
186	0xbe126800	-0.14297485
187	0xbe0caac3	-0.13737015
188	0xbdb21987	-0.08696275
189	0x3e833a42	0.25630385
190	0x3e93c3d3	0.2886034
191	0x3d5f8473	0.054569673
192	0xbdb664ea	-0.089059666
193	0x3c31d5a3	0.010854158
194	0xbc040459	-0.008057677
195	0x3e8665db	0.26249585
196	0xbcc78cd4	-0.024359144
197	0x3bfb4108	0.0076676644
198	0x3ca14cfb	0.019690027
199	0x3e16058f	0.14650558
200	0xbea4663d	-0.32109252
201	0x3e0dedc4	0.13860232
202	0xbe7bbf3f	-0.24584673
203	0xbe00489b	-0.12527697
204	0x3cbfa11d	0.023392254
205	0x3e8a5f20	0.270257
206	0x3e540d33	0.2070816
207	0x3c262927	0.010141647
208	0xbe8db2f1	-0.27675584
209	0x3e68cb59	0.22733821
210	0x3e9dece6	0.30844802
211	0x3e57b9f4	0.21067029
212	0xbe967a1c	-0.29390037
213	0xbe9b910e	-0.30384105
214	0x3d76b269	0.06022874
215	0xbddd428f	-0.10803711
216	0xbe1de152	-0.15417984
217	0x3c90233d	0.017594928
218	0x3d155a22	0.03646291
219	0xbe1112a4	-0.14167267
220	0xbe875ef7	-0.2643964
221	0x3e940430	0.28909445
222	0xbddeb42a	-0.10874207
223	0x3e30ae09	0.17253889
224	0xbe43bf1b	-0.1911587
225	0x3dc1cc1d	0.0946276
226	0x3e825dc6	0.25462168
227	0x3e4c0b6c	0.19926232
228	0x3e79a050	0.2437756
229	0xbe2b488f	-0.16726898
230	0x3d593271	0.05302662
231	0x3e8cb3c6	0.27480906
232	0x3d7508e4	0.059822932
233	0x3e121f04	0.14269644
234	0x3e04a2a3	0.12952666
235	0xbe973810	-0.2953496
236	0x3e5a6b63	0.21330027
237	0x3df01d05	0.11724285
238	0xbc972675	-0.018450955
239	0xbe6dc586	-0.2321988
240	0x3e130f4c	0.14361304
241	0xbe87a869	-0.26495674
242	0x3e10b5a7	0.14131795
243	0x3c6cee85	0.014461164
244	0xbe472776	-0.19448647
245	0x3c262cf6	0.010142555
246	0x3e3dcb45	0.18534572
247	0xbd82412b	-0.06360086
248	0x3e3da27d	0.18519016
249	0x3d442aac	0.047892258
250	0x3de92b21	0.11385179
251	0x3e906029	0.28198364
252	0x3c043ec0	0.008071601
253	0xbcd010b8	-0.025398597
254	0x3e98bbb1	0.29830697
255	0x3e97400a	0.29541045

weight f4 [4, 320]
0	0xbc0115f5	-0.00787877
1	0xbb77824e	-0.0037766877
2	0x3d2b4c87	0.04182103
3	0xbcb20522	-0.021730963
4	0x3c61414e	0.01374848
5	0x3ca6e7d8	0.020374224
6	0xbd45f3df	-0.048328277
7	0x3bae75fb	0.005324123
8	0xbd4a1d1e	-0.049344175
9	0x3d122215	0.035677034
10	0x3d0e1342	0.034686334
11	0x3ce2b809	0.027675645
12	0xbd602f1b	-0.054732423
13	0x3d71d53c	0.059041247
14	0xbc83c4af	-0.016084997
15	0xbd164a97	-0.03669223
16	0x3d57446f	0.052555498
17	0x3c52f8ab	0.01287667
18	0xbc70dc67	-0.0147009855
19	0xbcaa3d81	-0.02078128
20	0x3cd8ba0f	0.026455907
21	0xbcc3f62b	-0.023921093
22	0x3b19322b	0.002337585
23	0xbc63e02b	-0.013908426
24	0xbc38be48	-0.011275835
25	0x3991a4e7	0.00027779417
26	0xbacfb612	-0.0015847108
27	0xb988b25d	-0.00026072832
28	0xbadd571b	-0.0016886921
29	0x3c9b995e	0.01899403
30	0x3c65e136	0.014030745
31	0x3d4c8255	0.04992898
32	0xbce18099	-0.02752714
33	0xbd0b95d6	-0.03407844
34	0x3ba7a354	0.005115906
35	0xbd30ec50	-0.043194115
36	0x3c7fc3ed	0.015610677
37	0xba95cbd0	-0.0011428539
38	0xbcaffd5a	-0.021483112
39	0x3d54fb33	0.051997375
40	0x38a0b128	7.6623925e-05
41	0xbad865e6	-0.001650986
42	0xbabf955c	-0.0014616656
43	0xbc8b1131	-0.016975971
44	0xbd3c457c	-0.045964703
45	0x3a996698	0.0011703549
46	0xbcaf873f	-0.021426795
47	0x3bd93962	0.006629155
48	0x3da8ac3b	0.08235975
49	0xb802d8eb	-3.1196436e-05
50	0x3b20cfcb	0.0024537917
51	0x3ccef149	0.025261538
52	0x3d29d613	0.041463923
53	0x3d4d0c09	0.050060306
54	0x3cc0e47f	0.023546455
55	0x3beeeb9f	0.007291272
56	0xbc061ae8	-0.008185126
57	0x3c5f7b29	0.0136402035
58	0x3b89b21d	0.004202141
59	0x3c5d174c	0.013494324
60	0xbd1e9ea4	-0.03872551
61	0x3d2ac113	0.041688036
62	0xbc5718c4	-0.013128463
63	0xbc04be50	-0.008102015
64	0x3ba56a79	0.005048093
65	0x3d265617	0.040609445
66	0x3ce4a0cb	0.027908703
67	0xbd0f5775	-0.034995515
68	0x3d21214f	0.039338406
69	0x3d3a92d6	0.04555019
70	0xbc08c1ed	-0.008347017
71	0x3c0ee7b0	0.008722231
72	0xbc334686	-0.010942107
73	0x3c820736	0.015872579
74	0xba8e9508	-0.0010878155
75	0x3d5e21e1	0.05423153
76	0xba4da69c	-0.0007844956
77	0xbca24b91	-0.019811423
78	0x3c1fc633	0.009751844
79	0xbce944ff	-0.028475283
80	0x3c60ff5b	0.0137327565
81	0xbd3924cb	-0.045201104
82	0x3cbe2822	0.023212496
83	0x3d1d2631	0.0383665
84	0x3d46b1ef	0.048509534
85	0x3ce7258e	0.02821615
86	0x3c9b2212	0.018937144
87	0x3bf2ccfb	0.0074096895
88	0xbc3fb89c	-0.011701729
89	0x3d37bf02	0.044859894
90	0xbba7e3de	-0.0051235994
91	0x3d43a889	0.04776815
92	0xbd401f99	-0.046905134
93	0x3d072b2e	0.033000164
94	0xba57efd7	-0.0008237338
95	0xbb364127	-0.002780983
96	0x3d25ec5c	0.040508613
97	0x3bbd3968	0.0057746656
98	0xbbdde23f	-0.0067713554
99	0x39d41b64	0.000404562
100	0xbd550dfa	-0.052015282
101	0xbbae96de	-0.0053280434
102	0xbb975981	-0.004618824
103	0x3d6c3ef7	0.057677235
104	0xbc4719b6	-0.012152126
105	0xbca06bbe	-0.019582625
106	0xbcdd061d	-0.026980454
107	0xbccea266	-0.025223922
108	0x3ce2f0c9	0.027702706
109	0x3d4d4f40	0.050124407
110	0xbd12d811	-0.03585059
111	0xba49ec8f	-0.00077027915
112	0xbcb30714	-0.021853961
113	0x3ad4eb93	0.0016244523
114	0xbc0634e3	-0.00819132
115	0x3a311c44	0.0006756226
116	0x3d458830	0.04822558
117	0xbd26d501	-0.04073048
118	0xbd4bdab3	-0.049769115
119	0xb7979e58	-1.8074337e-05
120	0x388f85a0	6.843661e-05
121	0x3d58af84	0.05290176
122	0x3cf73816	0.030178111
123	0xbc70085a	-0.014650429
124	0xbc9ddbad	-0.019269789
125	0xbbb6aa74	-0.005574519
126	0xbcd12fde	-0.02553552
127	0x3cd825c0	0.026385188
128	0x3b0912bb	0.0020915705
129	0xbcd1b2cb	-0.02559795
130	0x3d2afdb0	0.04174584
131	0x3d5b1fd5	0.053497154
132	0x3b02ff89	0.0019988737
133	0xbbdf15d6	-0.006808023
134	0x3d25756e	0.040395193
135	0xbcd41b3f	-0.025891898
136	0x3cc033c9	0.023462193
137	0xbd42e5ad	-0.047582317
138	0x3cda3f31	0.02664146
139	0x3c9cd556	0.019144695
140	0xbcca051f	-0.024660645
141	0x396da0df	0.0002266201
142	0xbd152cbe	-0.036419623
143	0x3c6126c0	0.013742149
144	0x3c884a08	0.016636863
145	0xbbc54924	-0.006020682
146	0xbc95baf7	-0.018277628
147	0xbd3bf413	-0.045887064
148	0x3d190cfd	0.037365902
149	0x3d2e8ac3	0.042612802
150	0x3ccfc2d6	0.02536146
151	0x3c17b09a	0.009258414
152	0x3b7cc1c0	0.0038567632
153	0xbc5700ef	-0.013122781
154	0xbd2f000b	-0.04272465
155	0x3d095aaa	0.03353373
156	0x3d6a289e	0.05716764
157	0x38f6caf5	0.00011767998
158	0x3cb77b48	0.022397652
159	0xbd090986	-0.033456348
160	0x3d75cb8e	0.060008578
161	0x3ce08c74	0.027410723
162	0xbd24ff94	-0.0402828
163	0xbd350752	-0.044196434
164	0x3d294832	0.041328616
165	0xbb94810f	-0.0045319865
166	0xbc5d521a	-0.013508344
167	0x389041d3	6.878716e-05
168	0x3d165e6d	0.036711145
169	0x3c1d710a	0.00960947
170	0xbd4f1f3f	-0.050566908
171	0xbcfad310	-0.03061822
172	0xbbd16dac	-0.0063912477
173	0x3abef2e3	0.0014568235
174	0x3c09276e	0.008371217
175	0x3ce044e6	0.027376603
176	0x3ad50ba9	0.0016254085
177	0xbc8854c5	-0.016641984
178	0xbb9eb53c	-0.004843382
179	0xbc7c9a13	-0.0154175935
180	0xbc2dc5b4	-0.010606218
181	0x3d3edf65	0.046599764
182	0x3b7db06e	0.0038709897
183	0xbbd46175	-0.0064813443
184	0x3c9c349e	0.019068059
185	0x3cfa3c74	0.030546404
186	0x3d22dbe8	0.0397605
187	0xbca3e64d	-0.020007277
188	0xba8d849e	-0.0010796969
189	0xbafe25fe	-0.0019389985
190	0xbcb60afb	-0.022222033
191	0xbd3cca20	-0.0460912
192	0xbb8877c8	-0.0041646697
193	0x3d30fa2c	0.043207332
194	0xbc861a7c	-0.01637005
195	0x3c8e66f1	0.01738307
196	0x3b93e0c9	0.0045128805
197	0xbd3fda5f	-0.046839114
198	0x3ca854ac	0.020548187
199	0x3cc5c255	0.024140516
200	0xbc4ac863	-0.0123768775
201	0xbcc2e330	-0.023789972
202	0xbc86a38d	-0.016435409
203	0xbc9e60cc	-0.019333266
204	0x39038e6d	0.00012546191
205	0xbba803d4	-0.0051274095
206	0xbd148135	-0.036256034
207	0x3c32e446	0.010918682
208	0x3a4fdda4	0.00079294504
209	0xba81e340	-0.0009909645
210	0xbd3ad1a8	-0.0456101
211	0x3c91d10b	0.017799875
212	0x3ceffd32	0.029295538
213	0xbc44a9b0	-0.012003347
214	0xbd157327	-0.03648677
215	0xbc221426	-0.009892499
216	0xb90a6bd4	-0.00013200875
217	0x3d0326d2	0.032019444
218	0xbd2f4b1f	-0.04279625
219	0xbd076112	-0.033051558
220	0xbca2b966	-0.019863795
221	0xbbab30b7	-0.005224313
222	0xb9dfd513	-0.00042692627
223	0x3d63144b	0.055439275
224	0x3c1fabcf	0.009745552
225	0x3d480d3d	0.04884075
226	0xbd1900e3	-0.03735436
227	0x3cb317ca	0.02186193
228	0xbb811226	-0.003938931
229	0x3c208fe5	0.009799932
230	0xbd337d96	-0.04382094
231	0x3d362917	0.04447278
232	0xbc991917	-0.018688722
233	0xbcd2ec08	-0.025747314
234	0xbd0f3f93	-0.03497274
235	0xba829a47	-0.0009964191
236	0x3cd0694e	0.025440838
237	0x3c699a44	0.014257971
238	0x3bf15350	0.007364668
239	0xbb074ffa	-0.0020647035
240	0xbc8ca956	-0.01717059
241	0x3c865dfb	0.016402235
242	0xbbf9a071	-0.007618003
243	0xbd3383e1	-0.04382694
244	0x3c13a97c	0.009012576
245	0xbc81ecdd	-0.015860016
246	0x3d07de41	0.033170942
247	0xbd237e90	-0.03991562
248	0xbd19cf9e	-0.037551515
249	0x3ca21851	0.019786986
250	0xbd0931f0	-0.03349489
251	0x3c8e29fd	0.017354006
252	0xbd310ef0	-0.043227136
253	0x3cb7bc8f	0.022428779
254	0x3c75a093	0.014991897
255	0x3c110ed7	0.008853636

bias f4 [4]
0	0xbcb2361c	-0.021754317
1	0xbd21b8f6	-0.039483033
2	0xbc9b9f30	-0.018996805
3	0xbd401b52	-0.046901055

weight f4 [4, 8]
0	0x3e963e2d	0.2934431
1	0x3c0346c5	0.008012478
2	0x3a2e0a75	0.00066391315
3	0x3d47accb	0.048748773
4	0x3e67660a	0.22597519
5	0x3e669b5f	0.22520207
6	0x3ea2cb81	0.31795886
7	0xbe9a2edd	-0.3011388
8	0xbdece9dd	-0.115680434
9	0x3e7c263a	0.24623957
10	0x3e9a80c7	0.30176374
11	0xbb3c4bd9	-0.0028731732
12	0x3e4662d5	0.19373639
13	0xbdcede92	-0.10101046
14	0x3e6673de	0.22505137
15	0xbe838c3b	-0.25692925
16	0x3dde7f96	0.10864179
17	0xbda9d4c8	-0.08292538
18	0xbe4f783c	-0.2026071
19	0x3def65e2	0.116893545
20	0xbdaefd79	-0.0854444
21	0xbe99f63d	-0.30070677
22	0x3dd0b360	0.10190463
23	0xbe8c7943	-0.27436265
24	0x3da484ba	0.08033128
25	0x3de9dda3	0.11419227
26	0x3c5cc346	0.013474291
27	0x3e2fa423	0.17152457
28	0xbccd27cb	-0.025043389
29	0xbc67a03b	-0.014137323
30	0xbe12d743	-0.14339928
31	0x3e6192ff	0.22028731

bias f4 [4]
0	0x3ce143dd	0.02749818
1	0x39fb6e6a	0.00047956716
2	0x3e8b8588	0.27250314
3	0xbe65adb9	-0.22429551

weight f4 [4, 8]
0	0x3bbb3ede	0.0057142815
1	0xbcbbf8ff	-0.022945879
2	0x3de8b940	0.11363459
3	0x3e2e8e91	0.17046572
4	0xbdca272d	-0.098707534
5	0xb78fb948	-1.7133207e-05
6	0x3cf7e6e7	0.03026147
7	0xbe133364	-0.14375073
8	0x3ba1b422	0.0049348036
9	0xbde92d69	-0.113856144
10	0x3db21f34	0.08697358
11	0xbe1e2cf1	-0.15446831
12	0xbd1c1f55	-0.038115818
13	0xbd3eb6ea	-0.04656116
14	0x3b5e9a91	0.003396664
15	0x3e7d3005	0.24725349
16	0x3e9afa2e	0.30268997
17	0xbe57b7bd	-0.21066184
18	0x3de1b020	0.11019921
19	0xbe230338	-0.15919197
20	0xbe84a7ae	-0.2590918
21	0x3e846a69	0.25862435
22	0xbdf48c55	-0.11940829
23	0x3e904f6e	0.281856
24	0x3d748158	0.059693664
25	0x3eae2232	0.34010464
26	0xbe5c2926	-0.21500072
27	0x3ea8e2b6	0.32985467
28	0x3d82d17a	0.06387611
29	0xbbbd4b2e	-0.0057767844
30	0x3e7b4cc5	0.24541004
31	0x3e83b4a2	0.2572375

bias f4 [4]
0	0xbe4c4583	-0.19948392
1	0xbe2a41c9	-0.16626658
2	0xbe1d1cf9	-0.15343083
3	0x3e4c8788	0.19973576

weight f4 [10, 2]
0	0x3f27bc42	0.65521634
1	0x3e4319f8	0.19052875
2	0x3d9f78ae	0.0778669
3	0xbe439173	-0.19098453
4	0xbe079636	-0.13240895
5	0x3e67e601	0.22646333
6	0xbd80d8df	-0.06291365
7	0x3e391527	0.18074475
8	0x3f19d144	0.6008494
9	0xbc5c5913	-0.013448971
10	0x3eb387f5	0.35064664
11	0x3d657b66	0.056025885
12	0xbf2646f8	-0.6495204
13	0x3f1fc536	0.62410295
14	0x3e5f9b36	0.21836552
15	0x3da1b107	0.078950934
16	0xbf228b74	-0.6349404
17	0xbe7da2a2	-0.2476907
18	0x3f1f3e56	0.6220449
19	0x3eb26e33	0.348497

bias f4 [10]
0	0xbea645c9	-0.32475117
1	0xbe7ea86a	-0.24868932
2	0xbf08021f	-0.53128237
3	0xbe2ec8e1	-0.17068817
4	0x3f244478	0.64166975
5	0x3e146649	0.14492144
6	0xbe197754	-0.14986926
7	0x3f035730	0.5130491
8	0x3dd4d54e	0.10392247
9	0xbebfa44c	-0.37430036

weight f4 [10, 2]
0	0xbf0dd5ad	-0.5540417
1	0x3f2ca064	0.67432237
2	0xbdddd7e5	-0.10832194
3	0x3d1b038b	0.037845176
4	0xbc826543	-0.015917426
5	0x3c7af90f	0.015318169
6	0x3e3fd418	0.18733251
7	0x3e7a4a7f	0.2444248
8	0xbe9512cb	-0.291159
9	0x3d10c8c3	0.03534771
10	0xbebb8f58	-0.366328
11	0x3f10df98	0.56591177
12	0xbe51b9e3	-0.20481066
13	0x3f0127ed	0.50451547
14	0x3f293481	0.6609574
15	0x3eadcf83	0.3394738
16	0x3eb3ad20	0.3509302
17	0x3ea5de2f	0.32396075
18	0x3e4dfc29	0.20115723
19	0x3f2bad49	0.6706129

bias f4 [10]
0	0xbf233004	-0.6374514
1	0x3f01c328	0.5068841
2	0xbeb2d91a	-0.3493126
3	0xbee47d6c	-0.4462694
4	0x3e9342b5	0.2876183
5	0x3e7af6a7	0.24508153
6	0xbe597f28	-0.21239913
7	0xbf335c26	-0.7006248
8	0xbdab4ee2	-0.08364655
9	0xbefd1efc	-0.49437702

weight f4 [20, 4]
0	0x3ecfb5f8	0.4056852
1	0x3e7f1521	0.24910404
2	0xbe8592f0	-0.26088667
3	0xbe68d93d	-0.2273912
4	0x3eb3b12c	0.3509611
5	0x3bf0c86e	0.007348112
6	0xbee41a9c	-0.4455155
7	0xbeaccc66	-0.33749694
8	0x3ee41e49	0.44554356
9	0x3ebd8e17	0.37022468
10	0x3ed926d2	0.4241243
11	0x3ebc3c36	0.36764687
12	0xbd82abc8	-0.06380421
13	0xbdb1a21f	-0.086735
14	0xbda270f4	-0.079317
15	0xbea5e0d6	-0.323981
16	0xbc9da35a	-0.019242931
17	0x3ef191c1	0.47181514
18	0x3ef038a7	0.46918222
19	0x3e371c4f	0.17881893
20	0x3b4eba41	0.0031544121
21	0xbd20ef41	-0.03929067
22	0xbdffc22e	-0.12488209
23	0x3f02c791	0.51085764
24	0xbed97b88	-0.4247706
25	0x3e95c3cd	0.29250947
26	0xbe0cfad7	-0.13767563
27	0x3e8b75a3	0.27238187
28	0xbdfb418c	-0.122683614
29	0x3c9d9c5b	0.019239595
30	0x3c30e058	0.010795675
31	0xbd141399	-0.036151502
32	0x3dbebc84	0.093133
33	0xbd1019aa	-0.035180725
34	0xbec1971f	-0.3781061
35	0x3e7e9e7a	0.24865142
36	0xbe5ec091	-0.21753146
37	0xbe9b1c38	-0.30294967
38	0x3ed04199	0.40675047
39	0x3e431f83	0.1905499
40	0x3d6a9aa8	0.057276398
41	0x3e8a94c1	0.27066615
42	0x3ea26385	0.31716552
43	0xbecbdecd	-0.3981842
44	0x3e869dfd	0.2629241
45	0xbe866cf3	-0.26254997
46	0xbe2a9623	-0.16658835
47	0xbd4aa0bc	-0.049469694
48	0xbee71428	-0.45132565
49	0x3e40adc9	0.18816294
50	0xbc681f70	-0.0141676515
51	0x3e28f2a5	0.16498812
52	0xbda26a8f	-0.07930481
53	0xbe97d11b	-0.29651722
54	0x3dd960ff	0.10614204
55	0xbe2688d6	-0.16263136
56	0xbed7fcbc	-0.4218501
57	0x3e8acdab	0.27110037
58	0xbef22bbf	-0.47299
59	0x3e8ad53b	0.27115807
60	0xbe07f0a2	-0.13275388
61	0xbe72eb81	-0.2372265
62	0xbe63efe4	-0.2225948
63	0x3def0b86	0.1167212
64	0x3ce029be	0.027363654
65	0x3efb18b3	0.49042282
66	0x3edbe420	0.42947483
67	0xbea0c38d	-0.31399193
68	0xbef5a775	-0.47979322
69	0xbd1509f2	-0.036386438
70	0x3d091c12	0.033474036
71	0xbed25998	-0.4108398
72	0xbeaf9daa	-0.34299976
73	0xbe853be2	-0.2602225
74	0x3e97801b	0.29589924
75	0x3e29b4d0	0.1657288
76	0xbef6ca58	-0.4820125
77	0x3e1f4c68	0.1555649
78	0xbdd4709c	-0.10373041
79	0x3e956a21	0.29182532

bias f4 [20]
0	0xbeab5539	-0.33463457
1	0xbd394e44	-0.045240656
2	0x3eeedb1c	0.46651542
3	0xbadd5ec4	-0.0016889204
4	0x3ea2fc89	0.31833294
5	0xbe19c579	-0.15016736
6	0x3dcae80c	0.09907541
7	0xbed66c7e	-0.41879648
8	0x3e4de960	0.20108557
9	0x3eb7d413	0.35903987
10	0xbeac09ad	-0.33601132
11	0xbe5880e5	-0.2114292
12	0xbe55db15	-0.20884354
13	0x3efc0c90	0.49228334
14	0xbee120f2	-0.43970448
15	0xbecbf8f1	-0.39838365
16	0xbec11800	-0.37713623
17	0xbecdf25d	-0.4022397
18	0x3b589d4b	0.0033052738
19	0x3ec696a8	0.38786817

x_out f4 [2]
0	0x3fdd11ba	1.7271035
1	0x3fdbb65a	1.7165024

m1x_posterior f4 [2, 1]
0	0x3fdd11ba	1.7271035
1	0x3fdbb65a	1.7165024

m1x_posterior_previous f4 [2, 1]
0	0x3fde70b2	1.7378142
1	0x3fdc2a00	1.7200317

m1x_prior_previous f4 [2, 1]
0	0x3ffe3808	1.9860849
1	0x3ffe93c9	1.988885
