KNet/KNet_TSP/KNet/model/Toy/model_KNet_point1_full.pt (torch, 47402 bytes, 41 tensors)

weight_ih_l0 f4 [12, 10]
00000000: d354 efbe 86ca 8cbe 7a4c 85bd 3b62 0a3e
00000010: 37fa 53bc 6910 a03e 8d3f d8be 6ac8 653e
00000020: 6212 9c3d 0b05 61be b9a3 7dbe 65ec c9be
00000030: d4c8 babe 5f46 e1be 27d4 233c ac99 ccbe
00000040: 67a2 96be 315c acbe 56e1 aabe fe94 923e
00000050: 1784 f83d 092c 223e 8318 033e 5b70 933d
00000060: 9199 adbe e120 8d3e fe3e 73be 7f83 2cbe
00000070: 2c9c f53e af8f 9ebe 42ad 28be 6dc3 b63e
00000080: 17a4 f8be 2474 68be 39c7 c3bd 6bed 3dbd
00000090: 053c 48be e0a9 853d 653c 933e 78b1 3dbe
000000a0: 7fed 64be 9ff4 f13e 9e79 903e 978f a5be
000000b0: 5489 94be e3fe 69be 8f89 de3e c0cd 0e3e
000000c0: c974 01bb f1bc cdbe ad34 a23e 8ae5 e1be
000000d0: c317 4d3e af0c ccbc fa55 b03e 3038 a0be
000000e0: 91ab 2a3e 2465 f63d 2c98 39be d3f9 a3be
000000f0: 826f 943e 3374 80be e430 94bc ca2d f8bd
00000100: 2358 74bb 7514 373e 0985 a73e fa33 1bbe
00000110: 2021 8e3e 8d27 46be 8adb 7c3e b1c3 2ebb
00000120: be5e 69bd a9c2 ddbe aa96 6a3d 7208 193e
00000130: c853 c5be 1c22 6cbe bd7c a23e fda2 083e
00000140: dc69 883e 9700 8a3e 31ba 64be 3fd2 47be
00000150: f037 1b3e cb37 58be fff6 f13e 1945 c43c
00000160: 894c dcbe 2d3c 803e 53cc d1bd 9d7c 9cbe
00000170: 3f40 d43e 0976 a3be a244 bc3e bf51 24be
00000180: e6f5 35be f0a5 e6be d3b4 a2be b54c d9be
00000190: a0a2 b3be 9cc5 f33e 88d5 e13e 2caa b93a
000001a0: c81a a93e d042 c5bd 6011 bb3d 6f1b 13be
000001b0: d225 18be ce18 843e 3a4e 10be 0e76 f53e
000001c0: beff cf3e ea98 0f3e f242 843d 4ac7 ce3e
000001d0: 33da d93d 92f2 843d 99ff 1e3e 53b1 9c3e
-0.46744403 -0.27498263 -0.06508727 0.13514034 -0.012938074 0.3126252 -0.42235985 0.22439733
0.07620694 -0.2197458 -0.24769486 -0.39438167 -0.36481345 -0.43999 0.0099993115 -0.39960992
-0.29420778 -0.33664086 -0.33375043 0.28629297 0.12134569 0.1583711 0.12802319 0.071991645
-0.33906224 0.27564147 -0.23754498 -0.16847037 0.47970712 -0.30968997 -0.16472343 0.35695973
-0.4856269 -0.22700554 -0.09559483 -0.046368998 -0.19554146 0.06526542 0.28757015 -0.1852473
-0.22356223 0.47256944 0.28217787 -0.32336113 -0.29011023 -0.22851138 0.43464324 0.13945675
-0.0019753447 -0.40183213 0.31680813 -0.44120437 0.20028596 -0.024908392 0.34440595 -0.31292868
0.1666701 0.1203101 -0.18124455 -0.32026538 0.28991324 -0.25088653 -0.01808972 -0.121181086
-0.003728398 0.17878897 0.32718685 -0.15156546 0.27759647 -0.19351025 0.24693123 -0.0026666934
-0.05697512 -0.43312576 0.05727259 0.14944628 -0.38540483 -0.23059887 0.31735793 0.13343425
0.26643264 0.26953575 -0.22336651 -0.19513796 0.15158057 -0.21115033 0.47258756 0.02395873
-0.43027142 0.2504591 -0.1024405 -0.30563822 0.41455266 -0.3192599 0.36771113 -0.16046809
-0.17769584 -0.45048475 -0.31778583 -0.42441335 -0.3508501 0.476117 0.44108224 0.0014165095
0.33028245 -0.09631884 0.091341734 -0.14365934 -0.14858177 0.25800174 -0.14092341 0.4794163
0.40624803 0.14023176 0.06458081 0.4038642 0.10637321 0.06491579 0.1552719 0.30604038

weight_hh_l0 f4 [12, 4]
00000000: b7d4 55be 22b6 6f3e cb0d 5d3d c47e ddbe
00000010: bdd5 043e 5f6e e1be bbeb 2ebd 728c 103d
00000020: ecb2 e23d d428 b9bd 06e3 49be 5305 a03d
00000030: f2b7 643e 86e1 d3be 5458 953d c445 223e
00000040: 5b9d 00bf deb3 02be 43ad 61be 7691 233c
00000050: deec 68be 963b f63e cde7 4fbb 2abd 773e
00000060: 1f5c d23d 9d2c 4abe d91b 093e 62a0 cf3e
00000070: 0d5b 7c3e 2ece d2be 621b 8ebe 7e5e d73e
00000080: c320 5fbe 38b1 b43e 15f2 493d 96c2 2fbe
00000090: 3a38 a73d 5a09 dabd 995b 9e3e 3f2b b43e
000000a0: 9f55 553d e5ef 9a3e 7fa2 f2be 41f0 183b
000000b0: e61e fe3a e22d 0e3d 8f93 333e 76cd f2be
-0.20881926 0.23409322 0.053968232 -0.43260777 0.1297216 -0.4402952 -0.04270528 0.03529019
0.11069283 -0.090409905 -0.19715509 0.078135155 0.22335795 -0.41382998 0.07292238 0.15846926
-0.50240105 -0.12763926 -0.2203875 0.009983411 -0.22746608 0.48092335 -0.0031723857 0.24193254
0.10271477 -0.19743581 0.1338953 0.4055205 0.24644108 -0.41172928 -0.27755266 0.4206428
-0.21789841 0.35291457 0.049303133 -0.17164072 0.08165021 -0.10646315 0.30929258 0.35189244
0.052083608 0.3026115 -0.473896 0.0023336562 0.001938787 0.034711726 0.17536758 -0.4742238

bias_ih_l0 f4 [12]
00000000: d3e7 d5be a4a2 c03e c92b a7bd ad39 5e3e
00000010: 99bb e43e 15d4 4b3e 1cab 863e 06b3 7d3d
00000020: d089 bdbe 4d33 ac3e b7ef e73d 39af 943e
-0.4177843 0.37624085 -0.08162648 0.21701689 0.44674376 0.19905122 0.2630242 0.06193831
-0.37019205 0.3363289 0.11325019 0.29039934

bias_hh_l0 f4 [12]
00000000: 32f0 02be 14bb e3bd 2a4e 24be 2faa 7b3d
00000010: 6812 4d3e edc8 54bd 96dd 903e 0007 d8bd
00000020: ad83 813d c274 df3e 8d24 84bb f511 b4bd
-0.1278694 -0.11119667 -0.16045442 0.061441597 0.20026553 -0.05194943 0.28294057 -0.1054821
0.06323943 0.43643767 -0.0040326775 -0.087924875

weight_ih_l0 f4 [12, 14]
00000000: c373 e63d 5d5f 9b3e 5ceb 8f3e b88e b73e
00000010: ca4f 91bd c376 83be 2496 ecbe 62fa 773e
00000020: 71f3 96be ae7a eabd 0fb5 f0be 0f14 933e
00000030: 66d6 913e 096b dabe 452c a1be d9dd be3b
00000040: 2fe1 273e e935 04be 41c6 82be 2bca fdbb
00000050: acfc 9c3e 763f e43d a2ec bd3e 5c42 e23e
00000060: 2a2a 263e 34ec 23be 5140 f8be d93f 203d
00000070: 6d15 bdbd 02f2 bf3e e660 303e 1345 b7be
00000080: ef18 983c 7b7c a13b 7f91 a2be db1c fabc
00000090: 71e6 fbbe 0677 44be f0e2 66bd 6aac d7be
000000a0: 0901 613e a9ce 19be 0e22 23be bb1f f7be
000000b0: d7e0 f93e 5651 71be f2bc f6be bfb0 6abe
000000c0: 5213 853e d7c4 d1bd d7bf ebbe f656 363d
000000d0: 94eb cdbe e681 d13e b3ec 66be 5235 e23e
000000e0: 6eba 173e 7843 9abe bbcf 9cbe 88d6 d8bb
000000f0: 8cf7 dc3e 5706 b33d 8d75 a4be b5a0 8c3e
00000100: 9ad4 e93e 8479 7d3e 48ed c9be 361b 433e
00000110: eac4 51be f55e 5bbc a749 55be ab94 8cbe
00000120: 8e50 70be ff31 003f 64b6 713e df55 7eba
00000130: d04f 7abe 77fb 6abe 3341 cabe c8d0 86be
00000140: f170 343e 7287 4bbe 510f 313e 57a2 de3d
00000150: 0987 e73d 3cce e6bd 8432 13be 1cfc 87be
00000160: 7422 14be fb70 963e 58c8 89be fcbf 003f
00000170: 1e9e 843d 741b 833e 320c 78be ef66 bfbd
00000180: 70b6 a8be 49fb c63d 06f4 f83e 3aa9 373d
00000190: 7809 ebbe 6e3e e13e dc3f a2bd a804 fdbe
000001a0: e6d5 e5be 01b8 873e 6218 cd3e 6dda 8dbd
000001b0: 1f91 1fbe ed28 87be c2d7 1ebe a190 113e
000001c0: e271 4fbe d324 39be 3656 92be 1998 01be
000001d0: 5548 a33e c4bb dabe cfcb 75be c186 72be
000001e0: 17b8 67bd 69b0 e03e f4ce 31be 5447 ac3e
000001f0: 0ff2 02be 0ab6 66be d7d7 51be 9b5f a43e
00000200: 7d63 da3e 7ec7 e23e a2fb ee3e a815 f4be
00000210: 7491 a6be cb65 9fbe 7604 8cbd fa01 043e
00000220: 81fb 1dbe df57 3e3e c33a dcbe 7f21 ec3e
00000230: 6cd4 aa3e ffde ecbd 89cc 403e 9f2c 363e
00000240: edee ce3d bf50 bf3e 36eb 503d 9145 c8bd
00000250: 4ed2 d13e aa84 9f3e df03 843c 23af 8f3e
00000260: 3c61 82be e147 4f3e 26f2 babc d639 d7bc
00000270: 1006 723d 1f30 6fbe d7f0 a5be 3bda 90be
00000280: 60bb 4abe ee92 96be 9833 81be 0a9d dbbe
00000290: fea1 81be 9cd3 a73e aaa9 1abe 93fb ffbd
0.112525485 0.30346194 0.28109252 0.35851073 -0.07095297 -0.25676546 -0.46208298 0.24216607
-0.29482606 -0.114491805 -0.47013137 0.2872624 0.28483886 -0.42659786 -0.31479087 0.005824786
0.16394494 -0.1291119 -0.2554188 -0.0077450476 0.30661523 0.11144917 0.370946 0.44191253
0.16227022 -0.16008073 -0.4848657 0.03912339 -0.09232602 0.37489325 0.17224464 -0.35794887
0.018566577 0.0049281693 -0.3175163 -0.030531337 -0.4919925 -0.19186029 -0.05636877 -0.4212373
0.21973051 -0.15020241 -0.1593096 -0.48266396 0.48804352 -0.23566183 -0.4819103 -0.22918986
0.25991303 -0.10242622 -0.460448 0.044516526 -0.40218794 0.40919417 -0.22551231 0.44181305
0.14817211 -0.301296 -0.30627236 -0.006617371 0.43157613 0.087414436 -0.32120934 0.2746636
0.45670015 0.24753386 -0.39438844 0.19053349 -0.20485273 -0.013389339 -0.20828877 -0.27457175
-0.23468229 0.5007629 0.23604733 -0.0009702127 -0.24444509 -0.22947489 -0.39502868 -0.26331162
0.17621209 -0.19875887 0.17290999 0.108708076 0.11305053 -0.11269805 -0.14374739 -0.26559532
-0.14466268 0.29383072 -0.26910663 0.50292945 0.06475471 0.25606883 -0.24223402 -0.09345805
-0.3295169 0.097158976 0.48623675 0.04483912 -0.45905662 0.43992943 -0.079223365 -0.49417615
-0.44889754 0.2650757 0.40057665 -0.06926427 -0.15582703 -0.2639841 -0.15511993 0.14215328
-0.20258287 -0.18080454 -0.285814 -0.12655677 0.31891122 -0.4272138 -0.24003528 -0.23684217
-0.056572046 0.4388459 -0.17364103 0.3364817 -0.1278765 -0.2253038 -0.20492493 0.3210419
0.4265403 0.44292825 0.46676356 -0.47672772 -0.32532847 -0.3113235 -0.06836788 0.12891379
-0.15427972 0.18588208 -0.43013582 0.46119305 0.3336519 -0.11565971 0.18828024 0.17790459
0.10104165 0.37366292 0.051005565 -0.09778894 0.40980762 0.31155902 0.016115127 0.28063306
-0.2546481 0.20242263 -0.022820543 -0.026272696 0.059087813 -0.233582 -0.3241031 -0.28291497
-0.1979804 -0.29408973 -0.25234675 -0.4289325 -0.25318903 0.32778633 -0.15103784 -0.12499156

weight_hh_l0 f4 [12, 4]
00000000: 1652 cebe dc1f 33be 0390 93be b3bd a0bc
00000010: 7035 e13b a418 d63d de86 1c3d 8c93 f3be
00000020: 665f c8be 876e 81be c3dc e63d 9192 b2be
00000030: 8c44 7fbe 1205 ae3e c451 1abd ea67 a7be
00000040: 88d5 56be be33 86be 499e d2bc 20de ed3e
00000050: 09da f2be 5d18 25be 4c9f 44be 1116 4dbc
00000060: 30b7 a2bd 0322 f53e fb33 97be 280d 0d3e
00000070: 80a8 043e 6194 ab3e 50f5 aebd 8eb4 453d
00000080: 0e3d c8bd 3f68 323e ac75 19be aec4 6b3e
00000090: bfba a53e 6ebb 78be 40f7 62be 5a6a 003e
000000a0: 5617 40be b030 88be 501b 023d fe5f eabd
000000b0: 1ff1 f5be 230c bf3e f6ad 08bc a5ee 4dbe
-0.40297002 -0.17492622 -0.2882081 -0.019621706 0.0068728253 0.104539186 0.038214557 -0.47573507
-0.39135283 -0.25279638 0.11272576 -0.34877446 -0.24928492 0.33988243 -0.037675634 -0.32696468
-0.20979893 -0.2621135 -0.025710242 0.4645853 -0.47431973 -0.16122575 -0.19201392 -0.012517468
-0.079450965 0.4787751 -0.29531845 0.1377455 0.12954903 0.33511642 -0.085428834 0.048267893
-0.0977727 0.17422579 -0.14986295 0.23024246 0.32369038 -0.24290249 -0.22164631 0.1254057
-0.18758902 -0.26599646 0.03176433 -0.1144409 -0.48035523 0.37313947 -0.008342257 -0.20110567

bias_ih_l0 f4 [12]
00000000: 0d4e cfbc eeb1 bd3e e0e5 84be dec0 d6be
00000010: 8c01 81be cdb2 a4be 450d 443d 0398 973e
00000020: 3cde fbbe 23da 033b 3024 823e 382f af3e
-0.025305772 0.37049812 -0.2595663 -0.4194402 -0.25196493 -0.32167664 0.047864217 0.29608163
-0.4919299 0.0020119033 0.25418234 0.34215713

bias_hh_l0 f4 [12]
00000000: 4d8c 063e 5834 d83e d0b2 bebe aee3 dbbd
00000010: 90c2 ffbe 8d4e f73e 7b67 ee3e 7d05 aabd
00000020: 5f9e 14be d62f ca3e c52c ca3e ae59 bfbe
0.13139458 0.42227435 -0.37245798 -0.10736786 -0.49953127 0.48302117 0.46563324 -0.08301828
-0.14513539 0.3948962 0.3948728 -0.37373108

weight_ih_l0 f4 [12, 24]
00000000: a203 f03e 2c38 f2be f002 ddbe 2cd8 473e
00000010: a109 c73e d674 ec3d 8d0c 84be df35 67be
00000020: fc22 c1be d892 6cbe 41db d1be ccf0 e93e
00000030: 41e9 4c3e ca19 873e f0f3 c7be 0538 9ebe
00000040: 5b06 7ebe e584 63bd 2640 3b3e c980 9bbb
00000050: ad97 d3be bc3f bbbd 65f2 cabe f0b2 73be
00000060: 3c11 66be 0098 81be e881 fbbe 3f63 8b3e
00000070: 4583 82bd 0ef3 a5be a37f b53d c301 70be
00000080: 6c59 69be 5fa3 a4be a11c b33e 9981 f03e
00000090: 9d97 3abd ccc0 80bd 8926 913d 0c05 223e
000000a0: e73a 82bd f566 323b 4e5b ef3e 41ed b0be
000000b0: dbc7 ff3e adc1 a5be 9061 34be dd66 423e
000000c0: 4ac3 833e a634 d53e f6e8 f33e 1670 90be
000000d0: f2c4 0cbe bfa6 a93d 6036 97be 828a 4fbd
000000e0: aebf 22be e255 babe fc27 923e c99d 5e3d
000000f0: 2d83 f6be e2b8 93be 212b 583e 3e76 f139
00000100: 6874 ec3d f1bf d7be 068a 953e ecd6 99be
00000110: f504 c0bd 7a53 debc f2a7 873a 1982 ccbe
00000120: 5249 39be c239 c53e df3e debe faac aa3e
00000130: 2965 193e f114 8abe 3b97 933e 3019 98be
00000140: e0fa b4be 052a da3e af7d c43e f489 443e
00000150: 81da 823b a140 f0be e2ae 9ebe a592 513e
00000160: f3f9 b83d afea fc3e 4bf3 ef3e 81de e3be
00000170: 1d1a 253e 350f 033e e5c5 8b3e 018d dabe
00000180: cc4e 7fbe 094f cb3e 98fb 97be d6a5 db3e
00000190: 55f8 cd3e e2ce 3d3e 678b d6be 9245 1bbe
000001a0: 051a f23e a083 a3be 9501 e13e cd70 323e
000001b0: 65c7 e5bb 538e 603e 2af0 b7be 3ae1 c5be
000001c0: e2fb d13e 0837 6b3e f755 ac3e 22bf f5bc
000001d0: 7a9a e63e fd64 c3be 9313 be3e 3acd b3bd
000001e0: cacc 8b3c 5f60 d63e 4b99 cf3c 3277 f3bd
000001f0: b17a 9d3e 9458 afbe 9e16 c93e c823 aebe
00000200: a711 0dbd 710d 5b3e 27f0 853e 92ef 4a3e
00000210: 4520 9cbd 497a e9be 93cc bfbe 6799 da3e
00000220: 6b00 c23e 0c32 98be b1a8 5dbe e886 20be
00000230: 5069 683d 612c e33e f287 64be 03f5 e83e
00000240: 6f84 9dbe a59a dfbd 3df8 23be eeba 14be
00000250: 0a37 e0bd e692 743e ff1e ddbe 4ed0 87be
00000260: 2882 34be 27f7 093e 5f32 983d cc27 243d
00000270: cfd6 b43e 954d 233e 9995 a3be b5fc ed3d
00000280: 502b 77be 892b aabe eb67 f03e f432 b4bd
00000290: 92c8 dc3e 85c0 fcbe 5b1f 823e de62 d13e
000002a0: ceee 79be 4d7c 363e 7030 e0bd bbfc 0fb9
000002b0: c012 943e 8f67 aebd 8eb0 cc3e 73e0 6e3c
000002c0: 5166 84bc 1657 c6be 116b a83e 04d1 783d
000002d0: 7401 04be 55a7 66be acaa ecbe 1c59 2b3e
000002e0: 59bd 32be d940 403c 8810 66be 2473 1c3d
000002f0: bbc0 38be bba9 bc3d fe71 043e d728 88bd
00000300: 54dc ddbd 46cf 673d aecd cbbc 9ed6 ea3e
00000310: fa0b 05be 84fa 56be 0dba b63e 3c01 bb3e
00000320: 52cc 663e ee8b a6be 6b6b f13e 9aaf a6be
00000330: a7b5 47be 58f1 343c 4470 dabe aca2 833d
00000340: 16db 953d 85e6 dfbe eb5d b1be 2ec8 68bd
00000350: 8778 e33e b55e f13e 9bd2 05be 57fe bc3e
00000360: 91e6 a53e e6c0 b6bd 63ca e23e cdd0 79be
00000370: 5696 c63e 8941 8ebe c51c b2bd d3ce 003f
00000380: 6623 783e ee64 80be f536 4cbe 65dd d03d
00000390: e8c3 ccbb 91aa c33e 432a 033e 6c53 0e3d
000003a0: 84a2 3cbd 44c3 c83e 4c11 a7bc 26f7 ab3e
000003b0: 1726 27be 75e9 cc3e 1bdb ad3e af93 d33c
000003c0: 9fbc a13e bfb9 15be 04c2 273e 1622 a4bd
000003d0: a994 21be e3cb f33e fd6f 9bbe 5e74 99be
000003e0: 9f98 f0be 339e c4be fd90 13be 46a4 b2be
000003f0: 4010 a23e 9d54 c03e 75de 13be 16f5 f2be
0.46877772 -0.4730848 -0.43166304 0.19516057 0.38874534 0.11545722 -0.25790825 -0.22579144
-0.37722003 -0.23102891 -0.4098759 0.45691526 0.20010854 0.26386863 -0.39053297 -0.30902115
-0.24807112 -0.05554666 0.1828619 -0.004745577 -0.41326657 -0.09143016 -0.39638057 -0.23798728
-0.22467512 -0.2531128 -0.49122548 0.27224156 -0.06372694 -0.32412 0.088622354 -0.23438172
-0.22788018 -0.32155892 0.3498278 0.46973875 -0.045554746 -0.06286773 0.07087428 0.15822238
-0.06358891 0.0027222012 0.46749347 -0.3455601 0.49957165 -0.32374325 -0.17615342 0.18984552
0.2573493 0.4164173 0.47638673 -0.28210515 -0.13747004 0.082837574 -0.29533672 -0.0506692
-0.15893432 -0.36393648 0.2854613 0.054349694 -0.48146954 -0.28851992 0.21110202 0.000460552
0.1154564 -0.42138627 0.29206866 -0.30046785 -0.093759455 -0.027139414 0.0010349734 -0.39943007
-0.18094376 0.38520628 -0.43407342 0.33335096 0.14979996 -0.26969102 0.28826317 -0.29706717
-0.35347652 0.42610183 0.3837714 0.1919325 0.003993333 -0.46924308 -0.309928 0.20466097
0.09032049 0.493978 0.46865305 -0.44505695 0.16123243 0.1279877 0.2729942 -0.42685702
-0.24932402 0.39708737 -0.29684138 0.4289996 0.40228525 0.18535951 -0.4190323 -0.15163258
0.47285476 -0.3193636 0.4394652 0.17425843 -0.007012295 0.21929292 -0.35925418 -0.38648397
0.41012484 0.22970212 0.33659336 -0.029998366 0.4503973 -0.38162985 0.3712431 -0.08779378
0.017065424 0.418704 0.02534165 -0.11887969 0.3075767 -0.34247267 0.39275068 -0.34011674
-0.034440663 0.21391846 0.26159784 0.19817951 -0.076233424 -0.4560111 -0.37460765 0.42695162
0.37890944 -0.29725683 -0.21646382 -0.15676463 0.05674106 0.44369796 -0.22317484 0.4549943
-0.307651 -0.10918168 -0.16012664 -0.14524433 -0.10947998 0.23884162 -0.4318771 -0.2652611
-0.17627776 0.13473187 0.074314825 0.040077016 0.35320136 0.15947564 -0.3195007 0.11620466
-0.24137616 -0.3323634 0.46954283 -0.08798781 0.43121773 -0.4936563 0.25414547 0.40895742
-0.24407503 0.17820854 -0.10946739 -0.00013731692 0.28920555 -0.08515846 0.3997845 0.01457988
-0.01616207 -0.38738316 0.32894185 0.060746208 -0.1289118 -0.2252477 -0.46223962 0.16733211
-0.17455043 0.011734211 -0.22467244 0.038195744 -0.18042271 0.09212061 0.1293411 -0.066484146
-0.1083304 0.056594156 -0.02487835 0.45866865 -0.1299285 -0.20994002 0.3568882 0.3652438
0.2253888 -0.32528633 0.47152266 -0.32555848 -0.19502889 0.011043869 -0.42663777 0.064275116
0.07317178 -0.4373056 -0.34641966 -0.05683153 0.44427893 0.47142568 -0.13068621 0.36912796
0.3240247 -0.08923511 0.44295034 -0.24396057 0.38786572 -0.27784374 -0.086968936 0.5031559
0.24232253 -0.25077003 -0.1994284 0.10198478 -0.00624894 0.3821607 0.1280909 0.034747526
-0.046053424 0.39211476 -0.02039399 0.33586997 -0.16323124 0.40021864 0.33956227 0.025827257
0.3158922 -0.14621638 0.16382605 -0.08014314 -0.15779366 0.4761649 -0.30358878 -0.29971594
-0.4699144 -0.38401946 -0.14410777 -0.34890956 0.31653023 0.37564555 -0.1444033 -0.4745261

weight_hh_l0 f4 [12, 4]
00000000: 9320 e5bd 8302 563e ca96 14be f8fc 86be
00000010: da1f ba3d 72e9 edbe 0c98 103d 12da 86be
00000020: 9f82 f93d e83b 653e b0f5 ed3e 5180 01bd
00000030: 1a7a b03e 95d7 d0be 1fd8 a23b 391e 91be
00000040: 1275 ab3d 060c 86be 05d6 8fbe 6dbc 953e
00000050: 039a f13e eae9 923e 2da5 b4be c180 f93e
00000060: c145 ea3e 52e0 d6be 22ab 643e 4ae1 0ebe
00000070: 3a8a 2a3e d3e7 9a3e 0136 d93d 669e 7e3e
00000080: b09f 7fbe 72a1 28be 57d6 633e 3cbe 64be
00000090: dff6 f43e 456d 7b3e a626 31be c99b d8be
000000a0: 99b1 40bd 2b1d 5d3e d4f2 ecbe e857 f23e
000000b0: 21d1 44bd 89f0 e63e 80cc 303e 77f1 a13e
-0.11187854 0.20899396 -0.14510646 -0.26364875 0.090881065 -0.46467167 0.035301253 -0.2633825
0.12183117 0.22386134 0.46476507 -0.031616513 0.34468156 -0.40789476 0.0049696113 -0.2834337
0.08371939 -0.26181048 -0.2809297 0.2924532 0.47187814 0.28694087 -0.3528227 0.48731044
0.45756343 -0.41968018 0.22330907 -0.13953128 0.16654292 0.30254993 0.106060036 0.24865112
-0.2496326 -0.16467836 0.22249733 -0.22338194 0.47844598 0.24553402 -0.172999 -0.42306355
-0.04704437 0.21593158 -0.46279013 0.47332692 -0.048051003 0.4510539 0.1726551 0.31629536

bias_ih_l0 f4 [12]
00000000: 1401 e9be b236 ff3e 4212 a5be db88 dbbe
00000010: ce9d 203e 114e 44bd 802d edbe bf06 033e
00000020: 0206 bd3e 0644 0b3e 4ed6 73be 57fa 09be
-0.45508635 0.49846417 -0.32240492 -0.4287785 0.15685198 -0.047926012 -0.46323776 0.12795542
0.36918646 0.13600168 -0.2381222 -0.13474403

bias_hh_l0 f4 [12]
00000000: 7cd6 853e 67a0 57be 28de fc3e e82c 843e
00000010: 653f f93e 8c15 d63c 89dc 1d3e ed3b e8be
00000020: 7b74 b03e fe59 25be 77ef b9be ffe3 fcbe
0.261402 -0.21057282 0.49388242 0.2581551 0.4868118 0.026133321 0.15416159 -0.4535822
0.34463868 -0.1614761 -0.3631551 -0.49392697

weight f4 [4, 4]
00000000: 3d71 9b3d 9c1d 9f3e e7b8 383e 81ea 11be
00000010: 0897 ab3c ccaa a8bd c703 cb3e 7c29 bf3d
00000020: e124 19be 5169 de3e 461f afbe b81a 8e3e
00000030: 6a20 9dbb 6293 b3be e3c5 60bd 5931 cbbc
0.07589958 0.31077278 0.18039285 -0.14249612 0.02094604 -0.08235702 0.3965132 0.093340844
-0.14955474 0.43439725 -0.34203547 0.2775476 -0.004795124 -0.35073382 -0.05487622 -0.024803804

bias f4 [4]
00000000: fd70 74be 4381 b9be c36a 863e d6b8 debe
-0.23871227 -0.3623143 0.26253328 -0.43500394

weight f4 [320, 8]
00000000: 80ec 093d 50aa b4bc ce83 19be efe9 45be
00000010: 5d98 4f3e a355 8b3e ebfd d2bd 63e1 1b3e
00000020: 017b 633d 4482 30be 6d5b a93e 24a1 76be
00000030: 6724 82be 108b acbc 71d8 a0be 466e 973d
00000040: d67f 82be 17ae 09be e3e8 043a 749d 003e
00000050: e283 89be 67f1 e93d 028b 703d f0dd ccbc
00000060: 8bf1 55bd 94db ab3d fd0b a2be b215 4fbe
00000070: e9a8 443e 6f26 7abe 2540 14be b58f b0bd
00000080: d1be 5a3e db3c 9d3e b15a 8b3d a31b 9c3e
00000090: 2800 663e e915 683e f81c 99be 2b81 cdbd
000000a0: 9cb9 593e 305d 873e fb6b 9cbe abe9 1fbe
000000b0: d7ca 65be 29b3 1bbd 6f5d e63d 1faa e7bd
000000c0: eccb 2a3b 129e 28be ed3a 9abe 575a 8bbc
000000d0: 5f3a 4b3e 8c41 d63d d4ed 9dbe dc78 b6bd
000000e0: f10e 423e eb8f 81bb 2fad 88bd b5e4 51be
000000f0: 3304 753e d2b7 9dbe be51 853e 4633 cf3d
00000100: dffa 4cbe fbd3 a2bd fa80 413c 3013 41be
00000110: c211 7dbe ac5a 2d3e 80be 233e 8798 753e
00000120: 860d 27bd 0520 d13d 09f7 013e 0ea9 9cbd
00000130: d91c a0bd 4c6c b33e 7e02 0f3e 54e2 29be
00000140: 0221 66be 300f 95bd 0be3 923e f492 53be
00000150: 7626 753d 64c3 c13c 6a42 4f3e 4c54 25bd
00000160: 454d 9a3e 6702 863e e636 873e 19b4 a33e
00000170: d98e 9b3e 99d5 dbbd bf3e 643e 0988 a23d
00000180: 69cb 19be f26e 973e 8fad ac3e 5de5 7fbd
00000190: 1e14 6fbe 42cd 753e 3fa0 8abe 8d30 94be
000001a0: 362d 313e 5b6a a93e c5ba 43be 698c 4abe
000001b0: 68b9 933e ab2c 5d3e 1b77 ff3d b797 113d
000001c0: b968 e03d ace2 d23c 9498 afbe 7be5 0cbe
000001d0: 0849 06bd 3c88 57be 630b 11be f640 3fbe
000001e0: 8424 47be a29e 92be c047 d73d 061e 953e
000001f0: fb1a cfbd 7f40 963d 7a68 36be f4b2 283d
00000200: 5be8 863e c17b 88be 5f3d 10be d99f 993e
00000210: 19a3 473d 5b15 6cbe 1518 923d 5810 8cbe
00000220: 81b6 06be 37dc 1dbe ea5f 7bbe 49c2 60be
00000230: e277 b13e f14e 4c3e b6a1 ad3d ec50 143e
00000240: 2def 753e c704 743e 2d70 873e 4ee2 1e3e
00000250: 6072 4ebc 8364 96be f0b4 a0bd 1d69 abbe
00000260: 300c e8bd 7b5b e5bd 08cd 163e 1c7c 543e
00000270: a496 e93d 37dd 6ebe e5dc 933e a5d4 aabe
00000280: a9b2 b53d ed7a e53d d541 5d3e 9bf9 f53d
00000290: 5f92 af3e ae93 e6bd 876b 4dbc 1e83 3cbe
000002a0: 9d07 463e de88 ff3d 8dbd 7abe d1e2 cabd
000002b0: 1c91 47be 78ad 52be 0ee7 8c3e 86c5 d73a
000002c0: cc4e 863d f525 6dbe 6eaa 4d3e 6820 683d
000002d0: 378e b7bd a0cc 813e 29c8 e9bd 5825 8bbe
000002e0: d6c5 8d3e 6e7b 153e b4ce 8cbe b6f5 fbbd
000002f0: 4d68 5c3e e40d c3bc 15aa c2bd aeb5 8ebe
00000300: bee8 813d 3993 7cbd 296e 56be 25e7 283e
00000310: 2c43 adbe b4f2 b5bd 4b33 97be d9a1 8e3d
00000320: f06a ac3c 7249 403e 068a b43e 9877 fc3d
00000330: 4ae0 273e dd77 b3bd 411b fb3d d767 0b3e
00000340: cae7 9dbe 994c 053e 4796 c3bd ed91 513e
00000350: 8d6a 38be ca57 d6bd 6fe7 9abe b1b7 1b3e
00000360: 824b 28be ac91 a6be 0473 31be 8350 b33e
00000370: ce53 853e c83d 593e 2466 b2be 67d8 75bd
00000380: fa5c 383e f9e7 a33e 57ee b1bd 435a 8fbe
00000390: a341 8ebe 5ca5 c63a 77bd 55be 5725 833e
000003a0: 9db5 e5bd 1743 6d3e 45a6 233e ff99 a13e
000003b0: ce52 863c aabd 9abe c0b2 be3d 996e 93be
000003c0: 63db 12be 8710 0a3e 8446 223e d24f 9f3c
000003d0: 9d77 82bd 2202 63be c18c e5bd 325d 583e
000003e0: e0d1 59bd 9adc 8c3e da60 583e 6758 943e
000003f0: 3b92 35be 57d3 8f3e e5db 853e 2759 7ebe
0.03367281 -0.022053868 -0.14991686 -0.1932752 0.20272966 0.27213773 -0.10302337 0.15222697
0.055537228 -0.17237192 0.33077565 -0.24084908 -0.25418398 -0.021062404 -0.31415132 0.0739408
-0.25488156 -0.13445316 0.0005070103 0.12560064 -0.2685843 0.11422997 0.05872632 -0.025008172
-0.052232306 0.083914906 -0.3164977 -0.2022312 0.19205059 -0.24428724 -0.14477594 -0.0862116
0.21361853 0.30710492 0.068044074 0.30489835 0.22460997 0.22664608 -0.29904914 -0.100344025
0.2126221 0.26438284 -0.30551133 -0.15616481 -0.22440659 -0.038012657 0.1124829 -0.11311745
0.0026061488 -0.16466549 -0.30123082 -0.01701085 0.19846486 0.10461721 -0.3084551 -0.08909771
0.18951012 -0.003953924 -0.06673657 -0.20497401 0.23927383 -0.30804306 0.26038927 0.101172015
-0.20017575 -0.07950588 0.011810536 -0.18854976 -0.24713805 0.1692912 0.15990639 0.23983966
-0.04078438 0.10211185 0.12691893 -0.07649432 -0.07818002 0.3504356 0.13965794 -0.16590244
-0.22473529 -0.072782874 0.28688845 -0.20661527 0.059851132 0.02365274 0.20240179 -0.040363595
0.30137077 0.26173708 0.26409072 0.3197334 0.30382422 -0.107341 0.2228956 0.07936103
-0.15019001 0.29576832 0.33726165 -0.062474597 -0.23347518 0.24004081 -0.27075383 -0.2894329
0.17302403 0.33088955 -0.19114216 -0.19780125 0.2885239 0.2159907 0.124738894 0.035545077
0.10957474 0.025742851 -0.34296095 -0.13759415 -0.03278449 -0.21048063 -0.141645 -0.18677124
-0.19447523 -0.28636652 0.10511732 0.2912447 -0.10112568 0.073365204 -0.17813292 0.041186288
0.26349148 -0.26656917 -0.14085911 0.30004767 0.048739526 -0.23055021 0.071334995 -0.2735622
-0.13155557 -0.15416037 -0.24548307 -0.21949114 0.34661776 0.19951989 0.084781095 0.14483994
0.2401702 0.23829947 0.2645277 0.15516016 -0.012600511 -0.2937356 -0.07847011 -0.33478633
-0.113304496 -0.11199089 0.1472665 0.20750469 0.114056855 -0.23326574 0.28879467 -0.3336536
0.08871967 0.11205087 0.21607144 0.12010499 0.3429136 -0.112586364 -0.012537844 -0.18409392
0.19338842 0.12477277 -0.2448637 -0.09906543 -0.19488949 -0.20573986 0.2752003 0.0016462065
0.06557998 -0.2315901 0.20084545 0.05667153 -0.08962672 0.2535143 -0.11415131 -0.2717693
0.2769 0.14597866 -0.27501452 -0.12302725 0.21524163 -0.023810335 -0.09505097 -0.27872986
0.0634322 -0.06166384 -0.2094046 0.16494425 -0.3384031 -0.088841826 -0.2953132 0.06964464
0.021047086 0.18778017 0.35261554 0.12327498 0.16394153 -0.087630965 0.12261058 0.1361383
-0.30840904 0.13017501 -0.095501475 0.20465823 -0.18009396 -0.10465963 -0.30254695 0.15206791
-0.16435054 -0.32533014 -0.17329031 0.35022363 0.260405 0.21214974 -0.34843552 -0.06002083
0.18004218 0.3201292 -0.08688038 -0.27998552 -0.27784452 0.0015155482 -0.20873056 0.25614426
-0.112162806 0.23170124 0.15981396 0.31562802 0.016396906 -0.30222827 0.093114376 -0.28795317
-0.14341502 0.13482867 0.15847212 0.019447241 -0.06370471 -0.22168782 -0.11208487 0.21129301
-0.053178668 0.27512056 0.21130696 0.28973696 -0.17731564 0.28090927 0.2614433 -0.24838696

bias f4 [320]
00000000: 6601 3a3e ddc1 b03e 0046 aabe 85a4 a03e
00000010: 04f6 3abe c1b6 a63c db66 0abe ca92 043e
00000020: d137 213e 3cb0 1cbe c375 21be fb82 1cbe
00000030: ffaa 87be 2424 a1be 20b1 d33b a7f6 00be
00000040: 448c 2fbe 2413 a3be 4878 ad3e bf77 c23c
00000050: 367a c3bd 2247 b53c e502 7abe debb d63c
00000060: d31f a7be 1f9a 37be 0f22 73be f7c6 40be
00000070: c5c1 763e 5bc7 e43d 3b7f 70be 8419 253e
00000080: 0bd0 fa3d a2d0 c43d eb3f a7be debf 10be
00000090: 1739 4b3e 5e8d f9bc 6e48 8dbe ec53 003d
000000a0: d0ab 76be e1c4 103e afde 483e c273 96be
000000b0: 5486 5cbd 221e 57bd 4f1f 593e d228 203d
000000c0: cd4d 1abd 07c8 213c 830e 9e3e 5f90 a4be
000000d0: 10ef 6b3e ee9f 87be 19fb 2e3e 7e03 a7be
000000e0: f38e 4eba cc9e 7c3e 903f 66be f408 d93d
000000f0: 3c31 3ebe 676b 96be 12f7 94be c842 13be
00000100: 160d 9fbe f620 2dbc abdb 0fbe 545c ae3e
00000110: d4c3 f83b 7aa9 07be 471b 4abe f96d 433e
00000120: 676d 19be 042e 9dbe 0ed1 3e3e 330a ac3d
00000130: d796 a13e 2589 503d 0ede 83be 59af 8b3e
00000140: 0364 09be 347b 9abd c148 f53c 981c 08be
00000150: e29e 193e f316 5abe d26d 27be c089 e03d
00000160: ac5b 6c3e d0c1 1c3c dda3 a4bd b262 733e
00000170: a8d3 b23d 02c7 203e efdf 94be 4022 983b
00000180: ec1f 9c3e 1f21 15bd c00d 13be 9fc2 2a3e
00000190: b8fc f6bd 5958 683e 7a87 1fbe a670 a3be
000001a0: 7b55 3cbd 9afa ba3d 08f0 a83d a59a ffbb
000001b0: e776 e83d a105 973e b723 68be 094f 3a3e
000001c0: 5988 85be d756 2fbe 44f9 723e 6d26 613c
000001d0: a8b1 ecbd c9e5 acbe c833 1c3e ec1f 9abe
000001e0: 2fdb b03e 7225 f53c 11d7 4f3d 9dff 21be
000001f0: 89fc 0f3e b717 ac3e 331a ccbd ee39 6a3e
00000200: a2e0 843d 4251 4abd 114e 983e 839a 9cbd
00000210: 67be 6dbd f35c 6a3d e86a 3f3e 5ec0 8e3d
00000220: 2bb4 c63c cd62 e03d bea7 aa3e da33 62be
00000230: cb5e 733e d6bd 01be 126b 57bc 03be 57be
00000240: 4f9b 52bd 41ac 9a3c 0c35 913e d09c 19be
00000250: 80af 5b3e a57b f3bc e921 9cbd fa77 7f3d
00000260: 0c67 33be fee7 963e 2a23 223a c9ac 993d
00000270: 72d6 89bd fb15 8c3e 4bcc 8bbe 1981 d8bd
00000280: 3e75 b13e f53a abbb daf9 6abd 7bbc a53e
00000290: 0dc6 5dbe 3e1c 85bd e98d 89be 4e69 82be
000002a0: fc61 cbbd 8eb9 4d3e 594a a5be 6455 c9bd
000002b0: 5519 c2bd 4a04 b3be 4c55 273e 1484 9abe
000002c0: 86dc f5bd a29e 133e aa8b 9cbe 1cb5 a9be
000002d0: 570b 46bd 6ad5 983e f353 13be ec71 8b3e
000002e0: 4773 97bd 792c d43d 0770 593d 7a83 93be
000002f0: 24de 0ebe f590 943e 48b3 aa3e a134 523e
00000300: d170 8a3d 1d08 6bbe 13e7 433d a9e4 6bbe
00000310: 4a34 b4be a6ca 8c3e 0b6a a8be 2b37 b43e
00000320: f743 393e 4a1c df3c 0e0f 06be cd6e debd
00000330: 89a4 64be f094 9bbe e1a9 f13d 045e 4f3e
00000340: 628c 863e 0bfc 56be 2dd9 873e 245c c3bd
00000350: ad58 97be b208 05be 69ba 5cbe 63d3 29be
00000360: 241b 4b3e 1c49 493e 7763 253e dfcb ea3d
00000370: 277a 66be eba3 393e bf60 39be 5d6c 653e
00000380: 4f1e 8b3e 722f e9bd deb5 993e 07d1 6e3e
00000390: 1b0c b33d 0070 d73d 6ceb 453e 2e7b 62be
000003a0: 5164 373e d5f2 6c3d 2e7e 023e 7ada a93e
000003b0: dc76 1c3e d318 63be dacc 963e ac0c 583e
000003c0: 9050 f6bc bb74 4c3e e48f 123e 4712 013e
000003d0: 50bd ae3e bd55 653e 5d32 7c3e be9d 843e
000003e0: 0184 9fbd 9995 c9bd 1967 963e de13 843e
000003f0: f148 9c3e 824c 4b3e 7c67 5d3b 41d9 9ebe
0.18164596 0.34522906 -0.3325653 0.31375518 -0.1825791 0.020350816 -0.13515799 0.1294662
0.15743949 -0.15301603 -0.15767579 -0.1528434 -0.26497647 -0.31472886 0.006460324 -0.1259409
-0.17143351 -0.3185054 0.3388083 0.02373874 -0.09544794 0.022128645 -0.24415167 0.026212629
-0.32641467 -0.17929886 -0.23743461 -0.18825899 0.24097355 0.111708365 -0.23486035 0.16123015
0.12246712 0.09610106 -0.32665953 -0.14135692 0.19845997 -0.030462917 -0.27594322 0.031330034
-0.24088979 0.14137603 0.19616197 -0.2938519 -0.053839043 -0.05251897 0.2120335 0.03910143
-0.037671853 0.00987435 0.30870447 -0.32141396 0.23040414 -0.26489204 0.17087974 -0.32619852
-0.00078795775 0.24669951 -0.22485185 0.10597411 -0.18573469 -0.29378816 -0.2909475 -0.14380944
-0.3106467 -0.0105669405 -0.1404864 0.34054816 0.007591704 -0.13248244 -0.19736968 0.1908492
-0.1498314 -0.3069917 0.18634436 0.08400383 0.31560394 0.05091204 -0.25755352 0.27282217
-0.13417058 -0.075430304 0.029941918 -0.13292158 0.15002015 -0.21297817 -0.16350487 0.10963774
0.23081845 0.009567693 -0.08039067 0.23768118 0.087317765 0.15700915 -0.29077098 0.004642755
0.30493104 -0.03640854 -0.14360714 0.16675805 -0.12059921 0.22689952 -0.15579024 -0.3192188
-0.045979958 0.0912983 0.08248907 -0.0078004175 0.11350804 0.29496482 -0.22669874 0.18194212
-0.26080588 -0.1712297 0.237279 0.013742072 -0.11557323 -0.33769062 0.15254128 -0.3010248
0.34542224 0.029925082 0.050742213 -0.15820165 0.14061178 0.33611843 -0.099659346 0.22873661
0.06488158 -0.0493939 0.2974706 -0.07646658 -0.05804291 0.05721755 0.18693125 0.06970285
0.024255833 0.10956345 0.33331102 -0.22090092 0.2376663 -0.12670073 -0.013148086 -0.21068577
-0.051417645 0.018880965 0.28360784 -0.15001225 0.21453667 -0.029722044 -0.07623655 0.062370278
-0.17519778 0.2947387 0.00061850494 0.07503659 -0.06730355 0.2736052 -0.273043 -0.105714984
0.3465976 -0.005225534 -0.057367183 0.32370362 -0.21657582 -0.064995274 -0.2686608 -0.25470966
-0.099307984 0.20090315 -0.32283285 -0.0983074 -0.09477488 -0.3496421 0.16341132 -0.30178893
-0.12004952 0.14415982 -0.30575305 -0.33145988 -0.04835066 0.29850322 -0.14387493 0.27235353
-0.07395034 0.10360045 0.053085353 -0.28811246 -0.13951927 0.29016843 0.33339906 0.20527889
0.06759799 -0.22952314 0.04782779 -0.23036446 -0.35196143 0.27498358 -0.32893404 0.3519834
0.18092333 0.027235169 -0.1309168 -0.10860977 -0.2232839 -0.30387068 0.1179998 0.20250708
0.2627898 -0.20994584 0.2653288 -0.09539059 -0.29559842 -0.12991598 -0.21555485 -0.16584544
0.19834572 0.19656795 0.16151224 0.114646666 -0.22507535 0.18128936 -0.18103312 0.22404619
0.2717156 -0.113860026 0.30021566 0.23321925 0.08742543 0.10519409 0.19328088 -0.22117302
0.17909361 0.05784877 0.12743446 0.33174497 0.15279716 -0.22177438 0.29453164 0.21098584
-0.030067712 0.19966404 0.14312702 0.12604629 0.3412881 0.22395988 0.24628587 0.25901598
-0.077888496 -0.098429866 0.29375532 0.25796407 0.305244 0.19853404 0.0033783605 -0.31025127

weight f4 [4, 320]
00000000: 4719 5c3d 65c8 40bd 0e10 ccba 290a 463d
00000010: 2fb7 62bc 6e71 3bbd 242f 31bd ee58 27bd
00000020: 6b52 903c 790a febc 4ef1 3ebd da21 e33c
00000030: 02f3 263d d10e 25bd e55d e7b9 d9cc 9d3c
00000040: 5324 93bc 1fb3 34bc 7900 17bd f469 e9bc
00000050: 72c7 b53c a865 433c 8ccf 423d e60a 5cbc
00000060: 9617 d9bc 330a 36bd 3269 0b3c 46e0 9a3c
00000070: e2b9 01bd ce67 17bd 456f 22bd d6f9 41bc
00000080: 0ed4 dc3c 5498 17bd c9a5 8ebc 56b1 03bd
00000090: fea0 16bd 315f 6fbb f0d2 cc3b 4641 193d
000000a0: 1eda 33bd 5fc5 9e3c fedc 62bc 4420 b23c
000000b0: 5db4 093d 58e1 993c afae 603d d28b 17bd
000000c0: 7fe8 e43c a8d0 80bc 66ca 463d aaf9 4c3c
000000d0: ba2d e2bc 0ada e9bc 2bdd f83c 4ee6 bc3b
000000e0: 750b 48bd 454d 553d 6296 53bc e92c b2bb
000000f0: 62d3 313b 4526 833b 85fb 453b 107a 08bd
00000100: e589 b33b 64e8 9dbc 4780 8b3c 0ac8 c7bc
00000110: 968d df3b 9d32 0bbd bf55 98bb dd0b 163d
00000120: 96cb 1abd bf49 2fbd 6ae3 5abd 5649 ac3c
00000130: d86a e23c 44f0 fe3c 6dca 37bb 3aa6 48bd
00000140: 1321 2cbd 2fd2 6d3c fde5 16bc 1dbb de3a
00000150: b775 bfbc 5af7 40bd 954a 683b 9f6e d63c
00000160: 1b6f 48bd d903 573c 6049 c2bb 48c2 2dbd
00000170: 245e 4d3d a2c5 1b3d 959d 57bd c58a 30bd
00000180: b305 5d3c 4935 44bd d125 23bd df3e 6e3c
00000190: 0002 2ebd 024b 0abd ea6b 35bd eb34 03bd
000001a0: cbcd b2bc 3e33 213c 8c09 873c eb9c 2abd
000001b0: 534b 41bd 3d32 3bbd 39ae 0c3d a5de 553d
000001c0: 89d4 6b3c 87cd 09bd 8e4c 01bd 2738 87bc
000001d0: 7941 dfbb e4bb 1bbc 8926 4bbc 166a 99bc
000001e0: 894b 23bd e6eb 8fbb 0bbf dcbc 1937 d13c
000001f0: cc7e 593d 5e80 27bd 8d88 07bd 6065 253d
00000200: 7457 0d3d 41d7 2b3d 27d0 4ebb 9325 803c
00000210: fe81 233d 9e76 2c3c f51c fd3a 9b92 d93b
00000220: e53a 54bd 9e06 31bc 7d08 47bd 5c46 e6bc
00000230: 8cb1 ba3a 2b41 42bd 0e1c efbb 3029 9b3c
00000240: 2110 e23c 4965 cbbc 2bf1 d0bc 8b99 dabc
00000250: 71f0 373d a4e5 3c3d 00c3 ea3b 8f1f 533c
00000260: c17c 2cbd d168 d63b 5c18 45bd 1f1f 9b3b
00000270: d956 18bc 7293 233d 81d9 fc3c d019 05bd
00000280: de49 103d 5ba2 1e3d c805 5f3d 28d4 ad3c
00000290: 4dcf 39bd 9b29 4ebd 8fc1 c2ba e3ea 96bb
000002a0: da4c 003d ae16 373c 8143 5d3c f2e1 203d
000002b0: f14b fbbb b793 973c cdbf d4bc eebc c03c
000002c0: da48 1c3c b1a3 22bb 8c6a 8a3b 1992 3c3c
000002d0: 7555 7fbc 802b 1b3d 6897 a1bc 0dd5 2dbd
000002e0: 66c4 2b3d 5dcf 773c 1e9d 9dbc e4de d6bc
000002f0: 5c31 5bbb e39d 5dba 284c 1d3c 8ea6 39ba
00000300: a3f7 563d 67e9 5f3c 60a1 fcbc f8ff 21bd
00000310: 45b4 73bc 43ae 52bd 415d 153d b8d4 91bc
00000320: c559 2e3d feb6 473d 885d df3c 8c98 0a3d
00000330: 5424 a63b 3b97 32bd b346 723c 7655 893c
00000340: 45fb 2f3d 56d3 ed3c aa8a fd3b 661c c03c
00000350: 19aa 053d ce37 1dbd 8cf8 c43c 81e6 1cbd
00000360: c8bc 5f3d 84ae 273a 0022 f73c f2f8 273d
00000370: 032e 003d 72b3 07bd 9cfa 223b af5b 4cbd
00000380: ed53 143d 6fc3 3ebc 1be3 f9bc aead d83c
00000390: 143d a53c 8460 cb3c aafd 453c 70dd 41bd
000003a0: d9a7 86bc 6d05 3cbb cc6d 5c3d 7b61 09bb
000003b0: b088 1ebd b274 f93c 2163 593d 55d3 203d
000003c0: 67dd fabc 64af 74bc 1497 2c3d 3466 0f3d
000003d0: a0e9 4bb9 b9a5 b3bc c879 35bc 396a b93c
000003e0: 87a7 453c 3384 4c3d dfdf 0b3d d0cf 933c
000003f0: fb73 54bd a7fa ce3c c564 d53c 77b9 343d
0.053735044 -0.04706611 -0.001556875 0.048349533 -0.01383762 -0.04576247 -0.043257847 -0.040856294
0.017617425 -0.031010853 -0.046616845 0.027726103 0.040759094 -0.040297333 -0.0004412971 0.019262718
-0.017961657 -0.011029034 -0.036865685 -0.028492905 0.02218983 0.011926092 0.047561213 -0.013430333
-0.026500504 -0.04444332 0.008508967 0.01890577 -0.031671412 -0.03696423 -0.039656896 -0.011839351
0.026956584 -0.037010506 -0.017413037 -0.032151543 -0.036774628 -0.0036525244 0.0062507316 0.037415765
-0.043909185 0.019381223 -0.013846634 0.021743901 0.033619273 0.01878421 0.05485409 -0.036998577
0.027942894 -0.015724495 0.048532866 0.012510696 -0.027609695 -0.028546352 0.030378899 0.005764759
-0.04883905 0.052075643 -0.012914272 -0.0054374826 0.002713405 0.004002365 0.0030209732 -0.033319533
0.005479085 -0.019275852 0.01702894 -0.024387378 0.0068222983 -0.033983815 -0.0046488936 0.036632407
-0.03779181 -0.04279494 -0.053439535 0.021031063 0.027638838 0.031120427 -0.002804424 -0.04898665
-0.04202373 0.014515444 -0.009210107 0.001699302 -0.02337156 -0.047110893 0.0035444845 0.026175795
-0.048934083 0.013123476 -0.005929157 -0.04242161 0.050138608 0.038030274 -0.052640516 -0.04310109
0.013490128 -0.04790238 -0.039830986 0.014541357 -0.042482376 -0.03376294 -0.044292368 -0.03203289
-0.021826645 0.009838877 0.016484044 -0.041653555 -0.047190975 -0.045702208 0.03434584 0.052214283
0.014393934 -0.03364327 -0.03156715 -0.016506268 -0.006813225 -0.009505246 -0.012399324 -0.018727344
-0.039866958 -0.004392135 -0.026946565 0.025538968 0.05309944 -0.040893905 -0.03308921 0.04037988
0.03450723 0.04195333 -0.0031557174 0.015642917 0.039918892 0.010526327 0.0019310998 0.006639791
-0.05181398 -0.0108048 -0.04859208 -0.028109722 0.0014243587 -0.04742543 -0.0072970456 0.018940538
0.027595581 -0.02482857 -0.025505623 -0.026684543 0.044907037 0.04611744 0.007164359 0.012885942
-0.042111162 0.006543257 -0.048118934 0.0047339345 -0.00929805 0.039935537 0.030865433 -0.03249532
0.035226695 0.038729053 0.054448873 0.021219328 -0.045363713 -0.050332647 -0.001485871 -0.0046056374
0.03132329 0.011174841 0.013504864 0.03927798 -0.007668965 0.018503053 -0.025970364 0.023527589
0.009538854 -0.0024816806 0.004224127 0.011509442 -0.015584339 0.03788328 -0.019725516 -0.04243951
0.041935347 0.015125123 -0.019239958 -0.02622933 -0.0033446169 -0.0008454008 0.009600677 -0.00070820085
0.05248226 0.013666487 -0.030838668 -0.03955075 -0.014874523 -0.05143572 0.036465887 -0.017801628
0.04256608 0.0487585 0.027266279 0.033836886 0.0050702486 -0.043601256 0.014787364 0.016764384
0.04296424 0.029031437 0.0077374773 0.023451041 0.03263292 -0.038383298 0.024044298 -0.038305763
0.054623395 0.0006396549 0.03016758 0.041008897 0.03129388 -0.033130117 0.0024868613 -0.049892124
0.03621285 -0.011643275 -0.0305038 0.026450004 0.020170726 0.024826296 0.012084404 -0.04733032
-0.016437458 -0.0028689757 0.053815648 -0.0020962644 -0.038704574 0.030451152 0.053073052 0.039264042
-0.030623151 -0.0149343945 0.042136267 0.035009578 -0.0001944662 -0.021929609 -0.011076398 0.022633659
0.012063867 0.049930762 0.034149047 0.018043429 -0.05186842 0.025266005 0.026049027 0.044122186

bias f4 [4]
00000000: 8a28 2cbc 0e9c 54bd 65db 413d c107 633c
-0.010507712 -0.051906638 0.04732837 0.013856829

weight f4 [4, 8]
00000000: 9e22 66be 5d00 523e 275f 7c3e 4b97 5b3e
00000010: de8b 973e 3690 2bbc eec9 b13e 78a7 2abe
00000020: f57c e5bd 7fbf 18be 93e9 9ebe 7438 733e
00000030: 0bd8 88bd c633 9d3e 2744 883e b283 ecbc
00000040: ab75 71bd 9700 4c3e 881b 233d 1c52 f2bd
00000050: 119a d53d fc68 ab3e 7942 03be 2300 573d
00000060: a4f2 893d c102 2a3e 7711 953c 0e28 b1bd
00000070: 5646 83bd 03be 81be ef6e 4a3c d0cd 143e
-0.22474143 0.20507951 0.24645673 0.21444432 0.29598898 -0.010471394 0.34724373 -0.16665447
-0.11205474 -0.149168 -0.31037578 0.23752004 -0.06681832 0.30703562 0.26614496 -0.028871391
-0.058950108 0.199221 0.039821178 -0.11832067 0.104297765 0.33478534 -0.12818326 0.052490365
0.06735733 0.16602613 0.018196804 -0.08650218 -0.064099 -0.2534028 0.01235555 0.14531636

bias f4 [4]
00000000: 1f7a 25bb 2d6f 87be 2e40 4b39 d5c1 03be
-0.0025249792 -0.26452008 0.00019383497 -0.1286691

weight f4 [4, 8]
00000000: e1b2 b1bd cc57 a23e 25d9 18be ae22 66bd
00000010: 8d2f cabd 934d 893e 6b67 883d 65e7 8d3e
00000020: 222e 5a3e 0d2c 833d 4dbd 483e a00e ab3e
00000030: ddd7 5fbe a485 113e d8ef a8be 837b fdbd
00000040: 3f12 9bbe bd82 453e 2df4 1cbe 4c65 f8bd
00000050: 5b8b a2be 02b2 2ebd cd45 2e3e b37d 5fbe
00000060: 8ff9 3c3e 9320 89be fb8a 45be b378 053d
00000070: f0c5 2d3e b613 f03d b1ee 6abe 62e7 3bbe
-0.086766966 0.3170761 -0.14926584 -0.056185417 -0.09872351 0.26816997 0.066603504 0.27715603
0.21306661 0.064048864 0.19603463 0.33409595 -0.21859689 0.14211136 -0.32995486 -0.123770736
-0.30287358 0.19288154 -0.1532752 -0.12128696 -0.31746945 -0.04265023 0.17018814 -0.21825294
0.18454574 -0.26782665 -0.19291298 0.03258581 0.16970038 0.117225096 -0.22942616 -0.18349984

bias f4 [4]
00000000: 089b ccbc f9c9 1dbd 8189 563e b4d3 d8bd
-0.024976268 -0.038522694 0.20950891 -0.10587254

weight f4 [10, 2]
00000000: 149a 1b3f 0caf 193f 0876 8f3e 82ee 1bbf
00000010: de0e 05bf 8079 d13e 24bd 673d f50a 083f
00000020: 049e dbbd 36be 2d3e 2d2b 353f 7a58 1a3f
00000030: b36f d3be 1def 173f 0b86 03be 99e5 debc
00000040: f16e ccbe a92b 153f 5ee5 233f 4081 b6be
0.6078198 0.60032725 0.28019738 -0.6091081 -0.5197581 0.4091301 0.056576863 0.5314172
-0.107234985 0.16967091 0.70769006 0.60291255 -0.41296157 0.5934923 -0.12844102 -0.02720909
-0.39928392 0.58269745 0.6402186 -0.35645485

bias f4 [10]
00000000: 2ead 14bf bc68 e6be 30fb ed3c 1c29 b83e
00000010: a82c 04bf 5f80 fe3d 13e9 30bf c310 013f
00000020: 1e73 98be b80a a53e
-0.5807675 -0.4500178 0.02905044 0.35968864 -0.5163064 0.124268286 -0.69105643 0.504162
-0.29775327 0.3223474

weight f4 [10, 2]
00000000: bf76 753c d80c fb3e 959a 993e c583 ddbe
00000010: 2dfe c33c b047 f2be 881d fb3d e36f 333f
00000020: 3acd 263f 02cf c7be 04d5 9b3e d01c eebe
00000030: e69b 053e bb24 193e a211 8f3e 2e53 e13e
00000040: 4958 2f3f d91c f63e d590 1bbf d0d2 07bf
0.014981925 0.49033237 0.3000075 -0.43264595 0.023924911 -0.47320318 0.12261492 0.700926
0.651569 -0.39025122 0.30435956 -0.46506357 0.13047752 0.14955418 0.2794314 0.44008774
0.6849409 0.48068884 -0.6076787 -0.5305605

bias f4 [10]
00000000: 2085 1bbf 80b2 abbe 7709 c1be 00b3 173f
00000010: bb0f 043e 2cc8 fdbe 2969 023f 010a ac3d
00000020: b1c3 c2bd 45d1 713e
-0.6075001 -0.33534622 -0.37702534 0.5925751 0.12896626 -0.49566782 0.5094171 0.084003456
-0.095099814 0.23614986

weight f4 [20, 4]
00000000: 4d52 ddbe 49eb 87be bbdc 503e a713 eebe
00000010: 0f36 df3e 1f00 363e 6146 45be 17ea 9c3e
00000020: cf96 e1bd bce7 52bd 5651 393e e3fa be3e
00000030: b3e2 c83e c83e 5f3e b5dd b53e d71a bdbd
00000040: fea0 b8be 3348 f93e 7bad 75be 7ea2 32be
00000050: faca 08be 8dbe 473e a3db eb3e da96 efbe
00000060: 94ee 903d b673 d23e 79ce ef3e 5977 17bd
00000070: 2f60 efbe 7875 08be 1ef9 a63d 20c2 d83e
00000080: c8c4 37be 1c06 60be b98a e83d b59f 673e
00000090: d65f 983e 7739 85be 1ee3 8b3e f398 d93e
000000a0: 0843 dbbd 6184 893e 94a7 71be 9a54 c43e
000000b0: 0e51 e9be 6336 12be 9b9e d13e 9e42 433e
000000c0: 941a 663e a796 56be 8c20 46be 6a0a babd
000000d0: ef45 9a3e fdc4 f63e 8bdc d23e f9bf ef3e
000000e0: 9915 813e a247 e93e 535e 9bbd 778a dabd
000000f0: ce82 94bc 8f70 c03e 68f8 383c 3bab c6be
00000100: f054 9a3e 3894 80be dc00 e6be ec31 453e
00000110: 994b 8ebd 286c 083e a9c0 efbe 592f 7fbd
00000120: ec73 f53e 6843 bf3e 570a ffbe cce6 cb3d
00000130: 5722 54be e2c4 d0be bdbf 21be eaf2 74bb
-0.43226853 -0.26546696 0.20396702 -0.4649937 0.4359593 0.17773484 -0.19265129 0.30647346
-0.110150926 -0.05149053 0.18097433 0.37300786 0.39235458 0.21801293 0.35520712 -0.09233635
-0.36060327 0.48687896 -0.23991959 -0.17444798 -0.1335868 0.19506283 0.46066007 -0.46794778
0.07076755 0.41103905 0.46837214 -0.036979053 -0.4675307 -0.13326061 0.08152984 0.42335606
-0.1794616 -0.2187733 0.11354584 0.22619517 0.29760617 -0.26020405 0.27321714 0.42499503
-0.107061446 0.2685881 -0.23599082 0.38345796 -0.45569652 -0.1427856 0.4094132 0.19068381
0.22471076 -0.20955907 -0.19348353 -0.090840176 0.3013148 0.48197165 0.41183886 0.4682615
0.2521179 0.45562464 -0.0758635 -0.10670941 -0.018128779 0.37585875 0.011289693 -0.38802513
0.30142927 -0.25113082 -0.4492253 0.19257325 -0.06948013 0.13322508 -0.46826676 -0.062301014
0.47940004 0.37356114 -0.49812576 0.099561304 -0.20716225 -0.4077521 -0.15795799 -0.0037376233

bias f4 [20]
00000000: 1a99 f63e 2040 f6be f17d 85be e172 aebe
00000010: 09cc ad3d ad7b dfbe a237 e73e c520 1f3e
00000020: 27ad fe3e 54a8 c3be 7e3a 853e a8e5 793b
00000030: db62 9f3e 4104 a63e 6255 883e 6126 6c3e
00000040: b51a a63e 8250 e23e 1ce6 f33d eb3e 59be
0.48163682 -0.48095798 -0.26072648 -0.3407202 0.08486182 -0.43649045 0.45159632 0.15539844
0.4974148 -0.38214362 0.26021188 0.003813127 0.31130108 0.3242512 0.26627642 0.23061515
0.3244225 0.44202048 0.11909124 -0.21215408

x_out f4 [2]
00000000: 7351 f73f f187 0040
1.9321731 2.0082972

m1x_posterior f4 [2, 1]
00000000: 7351 f73f f187 0040
1.9321731 2.0082972

m1x_posterior_previous f4 [2, 1]
00000000: 64d7 d03f 5c8e ed3f
1.6315732 1.855907

m1x_prior_previous f4 [2, 1]
00000000: b8eb e23f a280 d13f
1.7728186 1.6367381

KGain_array f4 [100, 2, 2]
00000000: 6bd0 f53c 80de 8c3b f011 8ebb 8166 263d
00000010: 62c4 0c3d b033 c73b 002b 3639 c721 0a3d
00000020: ea5c 053d a0de ca3a a0b2 b1bb 4043 f93c
00000030: 2bf6 fa3c 00a1 a23b f0de eebb b4dc ff3c
00000040: ab85 bc3c a8e6 093c 060c 85bc 6c89 013d
00000050: 78b3 193d c0d1 eb3a 00a0 8737 cf2e 2d3d
00000060: 98f9 1c3d 307d 0abc d066 cc3b 4024 813d
00000070: a03c 1a3d 0080 ef39 54d5 543c de4b 0e3d
00000080: 9e39 383d 40f9 ce3b 5080 2bbb eb14 2b3d
00000090: 184f 1f3d d043 153b f41e 403c e2d2 ca3c
000000a0: 5a35 273d 2076 8b3b 70c4 ecbb 248a df3c
000000b0: aeca 233d 20ab 5fbb c082 5e3a 32c9 fa3c
000000c0: 2666 483d 400e 203b 6024 eaba d19b 493d
000000d0: 3bbe f83c 8081 ec3a 06dc 9e3c 70e2 493d
000000e0: dabc 263d 8063 4ebb 0ce8 8b3c c4ce 1f3d
000000f0: a3b0 df3c d0c5 ad3b c0db c83a 86ac 103d
00000100: 14ae 1c3d 7049 c4bb 8048 b839 7e3e 5c3d
00000110: 1833 523d 4031 0cba 580b f73b f4c9 c93c
00000120: ae53 0f3d 90b1 65bb c0d6 173b b603 d13c
00000130: 9fc5 ec3c 808d 3fba 201d 0bbc d408 b43c
00000140: eceb 183d d03d eebb d001 5fbb 0c5c fb3c
00000150: 98f1 253d 80ac 403a 1085 59bb d4a0 b63c
00000160: b2d7 3b3d 903f f3bb e0f3 9b3b 9a2e e63c
00000170: cca8 253d 0035 82b9 80f5 9939 5cae b13c
00000180: 92c1 393d 80cc 433a f812 a23b eba8 553d
00000190: 12a0 273d b0b9 c63b 9e5f 8c3c cb07 033d
000001a0: 6e2b 413d f0d5 b43b 6085 0f3c 282d 1c3d
000001b0: 8896 563d c0f2 483b c879 e33b 38cb aa3c
000001c0: b8c0 093d c015 d33a 1882 a5bb 9174 293d
000001d0: 2adb 463d c0d0 493a fc5e 253c 9e39 793d
000001e0: d837 403d 0015 2d3a 40cb 88bb 3d4f 183d
000001f0: 3e04 363d 80c6 49bb 78ff e93b 08fb 0e3d
00000200: 7b94 fd3c 5085 8a3b dc91 773c e9be 3f3d
00000210: 62fd 0f3d 8059 af3a 749b 2c3c d13b 2b3d
00000220: 0cd4 173d 804b 523b 28a2 0fbc 7952 1d3d
00000230: 66af 313d a0cd bb3a c0a4 d33b 20e2 233d
00000240: a825 1f3d a00a 2f3b 0cd9 1b3c ea21 003d
00000250: b427 113d 1806 df3b 9864 d13b e1e2 213d
00000260: 8196 ec3c 20f8 343b 4052 acba 962c 023d
00000270: f63d 0d3d 38f5 cb3b a022 9fba b674 d23c
00000280: 1829 283d 2054 5c3c 18a9 a83b 91e3 0a3d
00000290: 6a55 163d 8057 d23a f885 c5bb f001 023d
000002a0: 5af7 1f3d 407b 86bb 0091 653b 98cc dc3c
000002b0: 3816 0a3d c008 8cba 602d b33b 6075 aa3c
000002c0: 34d8 2f3d b0f6 e33b b0cf 60bb 2abc 293d
000002d0: 48f1 273d e009 30bb 307f 033b 3292 d73c
000002e0: 4abf 323d f0eb 80bb d81e be3b 8620 2a3d
000002f0: 5a08 253d 0071 71ba 524e d33c 3295 413d
00000300: 5081 323d 8056 d03a 20eb 93ba 0bf2 083d
00000310: 50c7 033d 4095 483a c092 acbb 68d2 953c
00000320: 9214 1a3d 00a8 3c3b 8060 c7ba 674a 2f3d
00000330: 2aa5 1c3d 007c 963a f8f6 9bbb 48e7 cc3c
00000340: 60b5 103d 5076 10bc 488f 993b 8d86 533d
00000350: 5e64 283d 40e9 543a 1c84 2d3c e2e7 153d
00000360: c674 3b3d c05e 4e3b f01c 38bb 327b 403d
00000370: 9eda 103d 006c 2d3b d48a 083c 5cff 993c
00000380: f814 133d d068 3abb 80dc 4e3b 1fbd 823d
00000390: 601a 1c3d 40a8 b9ba 5a1e 843c 78ad 283d
000003a0: ec58 1e3d e078 31bb 8000 ac39 c8a4 5a3d
000003b0: 022c 133d e0bc 2ebb 241d 4b3c 4752 0c3d
000003c0: 87db d73c d04f b63b a066 d2bb e4e7 e73c
000003d0: 7ad6 093d 084b bcbb d041 03bc 3916 133d
000003e0: 5c7a 373d 8064 44ba e042 88bb 8663 453d
000003f0: 6484 373d e0d3 cfba c0e1 6a3c d6fe 263d
0.030006608 0.004298985 -0.0043356344 0.0406251 0.034366973 0.0060791597 0.00017372891 0.03372362
0.032559313 0.0015477724 -0.005422905 0.030427575 0.03063496 0.0049630404 -0.00728976 0.03123317
0.023012957 0.008416809 -0.016241085 0.031625196 0.03752467 0.0017991588 1.616776e-05 0.04228097
0.03832397 -0.008452699 0.006237842 0.06305742 0.037655473 0.00045681 0.0129903145 0.03474032
0.044976823 0.006316334 -0.002616901 0.041767996 0.03889379 0.0022776015 0.01172613 0.02475876
0.040822364 0.004256025 -0.0072255656 0.02728755 0.039988212 -0.0034129098 0.0008488111 0.030613516
0.04892554 0.0024422556 -0.0017863624 0.049220864 0.030364146 0.0018043965 0.019392025 0.049288213
0.040707447 -0.0031492412 0.017078422 0.039015546 0.027305907 0.005303122 0.001532428 0.03532078
0.03825195 -0.0059901997 0.00035149232 0.053770535 0.051318258 -0.0005347915 0.007539194 0.024632432
0.034991913 -0.0035048462 0.0023168772 0.025514465 0.028902827 -0.0007307157 -0.008490831 0.021976866
0.037334368 -0.007270552 -0.003402818 0.03068354 0.040513605 0.0007349923 -0.0033190884 0.022293486
0.04586 -0.0074233487 0.004759297 0.028098393 0.04044418 -0.0002483502 0.00029365346 0.021689586
0.04535062 0.00074691325 0.004946109 0.052163046 0.04092414 0.006064616 0.017135438 0.031989854
0.04716056 0.0055186674 0.008759826 0.038129 0.05238965 0.0030662268 0.0069420077 0.020848855
0.033631057 0.0016104504 -0.005050909 0.041370932 0.048548855 0.00076986477 0.010093447 0.060845964
0.046928257 0.00066025555 -0.00417462 0.037184943 0.04443764 -0.0030788481 0.00714105 0.03490737
0.03095459 0.004227318 0.015110459 0.046812925 0.035153754 0.0013378114 0.01053511 0.041805092
0.037067458 0.0032088459 -0.008766688 0.03840873 0.043380164 0.0014328249 0.0064588487 0.04001057
0.03885427 0.0026709214 0.009512197 0.031282343 0.035438254 0.0068061464 0.0063901655 0.03952301
0.02888036 0.0027613714 -0.0013147071 0.0317808 0.03448292 0.0062243007 -0.0012141056 0.025690418
0.041054815 0.013447791 0.0051471107 0.03390843 0.03670255 0.0016047806 -0.006027933 0.03174013
0.039054252 -0.004104048 0.0035029054 0.026953027 0.033712596 -0.001068376 0.0054680556 0.020807922
0.042930797 0.0069568977 -0.003430348 0.041439213 0.041001588 -0.0026861355 0.0020064823 0.026314829
0.04363946 -0.003934376 0.0058020167 0.041534923 0.040291168 -0.0009210259 0.025794182 0.047261424
0.043580353 0.001589492 -0.0011285283 0.033433955 0.0321725 0.00076516345 -0.0052665174 0.018288806
0.037617274 0.002878666 -0.0015211254 0.042795565 0.03824345 0.0011481047 -0.0047596656 0.025012627
0.035329223 -0.00881727 0.00468627 0.05164199 0.041111343 0.0008121915 0.010590579 0.036598094
0.04576566 0.003148958 -0.002809342 0.04699249 0.03536474 0.0026462078 0.00833388 0.018798523
0.03590867 -0.002844382 0.0031564534 0.06383728 0.03811109 -0.0014164522 0.016127754 0.041181058
0.03865902 -0.0027080104 0.0003280677 0.053379804 0.03593064 -0.0026662871 0.012397084 0.034258153
0.026349796 0.0055637136 -0.0064209253 0.028308816 0.033651806 -0.005746249 -0.008011296 0.035909865
0.044794425 -0.00074917823 -0.0041583627 0.048190616 0.044803992 -0.001585599 0.01433605 0.040770374

prior_Q f4 [2, 2]
00000000: 0000 803f 0000 0000 0000 0000 0000 803f
1.0 0.0 0.0 1.0

prior_Sigma f4 [2, 2]
00000000: 0000 803f 0000 0000 0000 0000 0000 803f
1.0 0.0 0.0 1.0

prior_S f4 [2, 2]
00000000: 0000 803f 0000 0000 0000 0000 0000 803f
1.0 0.0 0.0 1.0

h_Q f4 [1, 1, 4]
00000000: a15f ddbe 22c6 a83d 0fb2 5f3e fd7a 113f
-0.43237022 0.08240916 0.21845268 0.5682829

h_Sigma f4 [1, 1, 4]
00000000: 0000 0000 0000 0000 e461 ab3e 0000 0000
0.0 0.0 0.33473122 0.0

h_S f4 [1, 1, 4]
00000000: c7c5 473e b651 5e3f d4cc 40be d446 84be
0.1950904 0.8684343 -0.18828136 -0.25835288
