KNet/KNet_TSP/KNet/model/Toy/model_KNet_point4_full.pt (torch, 79402 bytes, 41 tensors)

weight_ih_l0 f4 [12, 10]
-0.093836434 -0.16348751 -0.21759893 0.1166144 2.1675742e-05 0.33600143 -0.067479365 -0.13240314
-0.020646429 0.35115105 0.17419343 -0.3326981 0.23554938 -0.007397309 0.32771835 -0.08222968
0.045293 0.2721854 0.15615746 0.0001457873 0.014839188 0.26543123 -0.2610449 0.018832373
-0.24032487 0.050098687 0.031542294 0.009845536 -0.24123693 -0.26788512 0.04463717 -0.0913825
0.083110094 0.19527541 -0.0039275996 0.3212129 0.00680062 0.031866126 -0.1999321 -0.031156128
0.23597413 0.081986964 -0.20736839 0.31720886 -0.0104769105 -0.037407022 0.36420026 -0.042365853
7.352566e-08 0.030027047 -0.08075972 0.14184214 -0.21565834 -0.08042455 0.079374455 -0.122124426
-0.1954826 0.1418286 0.15042444 0.17271985 0.009548924 -0.22421405 0.06417864 -0.06737423
0.15733695 0.013214491 -0.043593798 0.1674715 0.0901387 0.0026962447 -0.27503842 0.31813544
0.0019635954 -0.0019856205 -0.0047607534 -0.070914134 -0.34625825 -0.00023503625 -0.046330437 -0.1604634
0.07825348 0.18517382 -0.25756803 0.3930782 0.26988667 0.01349268 0.029936254 -0.09121615
0.0024170165 -0.3379423 0.16317457 -0.33114505 0.08501924 0.24218233 0.20247753 0.09789463
-0.1764278 -0.10747124 -0.00016121627 -0.004473372 -0.2304694 -0.4488518 0.34850928 0.29961425
-0.32832325 0.0046326034 0.03204923 0.22935423 -0.08237925 -0.16550778 -0.038383905 -0.1703324
0.10615001 0.09431777 -0.044574756 0.0038789492 -0.36214042 -0.24519911 -0.15448612 -0.17896251
00000000: 512d c0bd 4569 27be 41d2 5ebe 88d3 ee3d
00000010: 4dd4 b537 6108 ac3e 9f32 8abd b094 07be
00000020: b322 a9bc 12ca b33e c35f 323e 6857 aabe
00000030: db33 713e 2065 f2bb b3ca a73e 0968 a8bd
00000040: 2785 393d e25b 8b3e bee7 1f3e 7bde 1839
00000050: 1120 733c 9ae6 873e ada7 85be 5946 9a3c
00000060: b917 76be 4834 4d3d 7e32 013d 2c4f 213c
00000070: d006 77be 3d28 89be 77d5 363d c026 bbbd
00000080: a035 aa3d 47f6 473e 18b3 80bb 0476 a43e
00000090: bcd7 de3b 0e86 023d 00bb 4cbe 233b ffbc
000000a0: 34a3 713e c8e8 a73d 6158 54be 3369 a23e
000000b0: 59a7 2bbc 1b38 19bd 7578 ba3e d187 2dbd
000000c0: 29e5 9d33 48fb f53c 5a65 a5bd 113f 113e
000000d0: 8ad5 5cbe a0b5 a4bd 138f a23d 5f1c fabd
000000e0: 972c 48be 843b 113e dd08 1a3e 79dd 303e
000000f0: 1773 1c3c 5e98 65be 1770 833d 80fb 89bd
00000100: f01c 213e 9881 583c 698f 32bd a67d 2b3e
00000110: a49a b83d 7bb3 303b d6d1 8cbe a6e2 a23e
00000120: aaaf 003b 2f21 02bb 1800 9cbb 6e3b 91bd
00000130: c348 b1be 1074 76b9 fcc4 3dbd 8450 24be
00000140: 5c43 a03d 359e 3d3e f5df 83be 8c41 c93e
00000150: 962e 8a3e 6710 5d3c e03c f53c 88cf babd
00000160: cf66 1e3b c606 adbe 3c17 273e d88b a9be
00000170: 911e ae3d a5fe 773e 4556 4f3e fb7c c83d
00000180: 7da9 34be e219 dcbd 2a0c 29b9 5d95 92bb
00000190: 2c00 6cbe e7cf e5be cf6f b23e 0a67 993e
000001a0: fc19 a8be 18cd 973b 0e46 033d d6db 6a3e
000001b0: 74b6 a8bd df7a 29be 7138 1dbd 9e6b 2ebe
000001c0: 2d65 d93d ad29 c13d 0594 36bd f835 7e3b
000001d0: 786a b9be 7a15 7bbe 9c31 1ebe f341 37be

weight_hh_l0 f4 [12, 4]
-0.18687573 0.018891444 0.00029393425 -0.0024429874 0.031890437 0.30472118 0.32779384 -0.16499715
0.05896085 0.00035746806 0.33741888 0.054483406 0.24367703 0.17454901 -0.23725119 -0.09672222
0.32594788 0.1648028 -0.011247707 0.27450725 -0.05698739 -0.232937 -0.1949183 0.35302162
0.105487175 -0.15489027 -0.084002 -0.19678442 -0.12879853 -0.14295469 0.11929449 -0.014660927
0.118210435 -0.09939751 -0.052955166 0.16288927 -0.1014996 0.0032196688 -0.37029293 0.16675939
-0.09599543 -0.1272664 -0.01858028 -0.21012747 -0.092179105 0.12570828 0.1986364 0.40912443
00000000: 5a5c 3fbe 3bc2 9a3c 301b 9a39 871a 20bb
00000010: 8c9f 023d 6a04 9c3e 98d4 a73e 03f5 28be
00000020: ef80 713d 8d6a bb39 2bc2 ac3e fe29 5f3d
00000030: 7986 793e fabc 323e faf1 72be 4d16 c6bd
00000040: a4e2 a63e 11c2 283e 4d48 38bc 378c 8c3e
00000050: 9c6b 69bd 0987 6ebe aa98 47be 40bf b43e
00000060: a909 d83d 8e9b 1ebe 3e09 acbd db81 49be
00000070: c3e3 03be b762 12be ab50 f43d 6234 70bc
00000080: 5018 f23d ec90 cbbd 84e7 58bd 72cc 263e
00000090: 06df cfbd 1401 533b 0997 bdbe f9c2 2a3e
000000a0: 4199 c4bd 2052 02be ac35 98bc a82b 57be
000000b0: 66c8 bcbd acb9 003e 5767 4b3e c278 d13e

bias_ih_l0 f4 [12]
-0.1604709 0.22885682 0.40310466 0.08779383 -0.14919515 -0.12711431 0.079410486 -0.13381906
0.24437152 0.23118377 -0.1469674 -0.07692375
00000000: 7c52 24be 7159 6a3e bc63 ce3e 40cd b33d
00000010: 9dc6 18be 412a 02be f7a1 a23d dd07 09be
00000020: 873c 7a3e 70bb 6c3e 9f7e 16be 338a 9dbd

bias_hh_l0 f4 [12]
0.11863568 -0.017834608 -0.37941748 -0.020346263 -0.0074812956 0.10627319 -0.26440465 -0.35126373
0.08202492 -0.16365667 0.29828796 0.031247506
00000000: 43f7 f23d e219 92bc 0243 c2be 35ad a6bc
00000010: a825 f5bb c2a5 d93d 0c60 87be d7d8 b3be
00000020: aefc a73d 9d95 27be 33b9 983e c5fa ff3c

weight_ih_l0 f4 [12, 14]
-0.39903927 0.1913853 -0.0051786345 -0.16188623 0.35968164 -0.30481842 0.022276761 -0.16540228
-0.047712732 0.14826861 0.29233631 0.13591282 -0.3505762 0.2466664 0.2334595 0.020676471
0.12718555 0.183735 -0.25425825 0.050752312 -0.048842054 -0.17374057 0.014087105 0.07836844
0.14198005 0.08348158 0.020050133 0.17828438 0.36620918 -0.36224473 -0.3646426 -0.2528931
-0.15778698 -0.026745528 0.20198095 -0.11112434 0.32327053 0.04257675 -0.03258175 0.12177249
0.1215669 -0.2645163 0.19022484 0.12128276 -0.28347668 0.040692214 -0.085658915 0.16222017
0.03410977 0.030395199 -0.3824505 -0.20945409 0.20725878 0.20969634 0.03352211 -0.038875967
-0.32552657 0.2218762 0.00076322013 0.23093961 0.39721695 -6.854318e-05 0.08638266 0.34482762
-0.22919244 0.25778937 0.37256363 -0.11674182 0.41434085 -0.15171535 0.04712561 0.34166345
0.014006085 0.28770027 -0.109240085 0.07827482 0.3212705 0.3053218 -0.086286336 -0.08289014
0.027144229 -0.26234853 0.2337129 0.28204513 -0.223441 0.13206336 0.31662 -0.35681885
-0.45829058 -0.00066521077 -0.014951607 0.3569296 0.31380206 -0.348508 0.035326026 0.062959954
0.11005111 0.17011185 -0.0696416 -0.1947544 0.15579627 -0.007191537 0.25348887 0.20299387
0.024988111 0.4518718 0.12884563 0.11715317 -0.046673946 0.4250083 0.20803112 -0.20277329
-0.46534562 -0.3420081 -0.11212165 -0.28916034 -0.32478052 0.050776348 -0.12818627 -0.17818484
-0.06895287 -0.008566818 -0.23504587 0.4025976 0.12139587 -0.05707658 0.03949215 -0.21375972
-0.21265322 0.22873475 -0.024496993 3.322238e-05 -0.4603317 0.39372894 -0.2714626 0.24930845
0.1004883 0.01655739 -0.30282205 -0.17280915 -0.14439057 -0.12062513 -0.11883576 -0.2891635
0.10150095 -0.2960593 -0.01305827 -0.44101796 -0.20953627 0.13006715 -0.3840354 0.2904827
0.12948617 0.039202046 0.48078743 -0.40394682 0.4174695 -0.475651 -0.25692332 0.2732917
0.023581114 -0.3031373 0.24857514 0.04358072 0.16316986 -0.034627475 0.45666245 0.14275245
00000000: e04e ccbe 82fa 433e 89b1 a9bb 81c5 25be
00000010: 3128 b83e 2911 9cbe c17d b63c 375f 29be
00000020: 6d6e 43bd bad3 173e 1bad 953e bb2c 0b3e
00000030: b97e b3be 1e96 7c3e 0210 6f3e b461 a93c
00000040: ee3c 023e 0725 3c3e 232e 82be a8e1 4f3d
00000050: 9b0e 48bd 0ce9 31be 9acd 663c a27f a03d
00000060: 3863 113e 64f8 aa3d 2d40 a43c 2e90 363e
00000070: c57f bb3e 2478 b9be 6fb2 babe 347b 81be
00000080: e992 21be 7019 dbbc 18d4 4e3e 2895 e3bd
00000090: b783 a53e f564 2e3d 7174 05bd db63 f93d
000000a0: 11f8 f83d ae6e 87be 4dca 423e 1863 f83d
000000b0: db23 91be e1ac 263d f16d afbd 0b1d 263e
000000c0: b0b6 0b3d 5aff f83c 8dd0 c3be 227b 56be
000000d0: a53b 543e a3ba 563e 7b4e 093d 683c 1fbd
000000e0: 6bab a6be 8433 633e d612 483a 6f7b 6c3e
000000f0: 0560 cb3e d7be 8fb8 64e9 b03d 3f8d b03e
00000100: 6cb1 6abe f8fc 833e a9c0 be3e 5616 efbd
00000110: 7c24 d43e 455b 1bbe c906 413d 83ee ae3e
00000120: c779 653c 734d 933e 44b9 dfbd 8d4e a03d
00000130: 917d a43e 2453 9c3e e4b6 b0bd 4ec2 a9bd
00000140: 935d de3c 8c52 86be 6f52 6f3e 3868 903e
00000150: b8cd 64be 9e3b 073e 041c a23e f6b0 b6be
00000160: 10a5 eabe 8a61 2eba 96f7 74bc 7abf b63e
00000170: aaaa a03e a46f b2be 06b2 103d 26f1 803d
00000180: 7a62 e13d cd31 2e3e 41a0 8ebd b36d 47be
00000190: 0f89 1f3e fca6 ebbb 4bc9 813e a0dd 4f3e
000001a0: deb3 cc3c be5b e73e 1cf0 033e 00ee ef3d
000001b0: 2e2d 3fbd b09a d93e 1c06 553e cda3 4fbe
000001c0: c841 eebe b01b afbe 09a0 e5bd d30c 94be
000001d0: a249 a6be dcfa 4f3d 4343 03be 1676 36be
000001e0: 2a37 8dbd d75b 0cbc ddaf 70be 4621 ce3e
000001f0: 669e f83d 22c9 69bd 85c2 213d d4e3 5abe
00000200: c4c1 59be 7139 6a3e ebad c8bc 4258 0b38
00000210: 99b0 ebbe d796 c93e 25fd 8abe b74a 7f3e
00000220: cfcc cd3d 5da3 873c 7e0b 9bbe e2f4 30be
00000230: 1fdb 13be 4f0a f7bd 2a60 f3bd 3d0d 94be
00000240: bbdf cf3d 1695 97be 5bf2 55bc 1bcd e1be
00000250: ad90 56be 5330 053e 4aa0 c4be 26ba 943e
00000260: 0698 043e 5392 203d c529 f63e 1ed2 cebe
00000270: 90be d53e 8788 f3be 748b 83be e4ec 8b3e
00000280: 2e2d c13c d034 9bbe 7b8a 7e3e b281 323d
00000290: 0016 273e 8ad5 0dbd a9cf e93e b32d 123e

weight_hh_l0 f4 [12, 4]
-0.077798985 -0.08881247 -0.36199883 0.1142183 0.32434055 0.0012865817 -0.006473214 0.35152474
-0.09413174 -0.07577789 -0.049453717 -0.19076808 0.07771404 0.027610287 0.34350812 -0.100635745
0.36409765 0.011458337 -0.0117652565 0.045849998 -0.2988181 -0.15364338 -0.0484417 -0.22573952
0.3484384 0.03956572 0.30463448 0.23930255 0.2476121 0.03953403 -0.08384998 0.03686897
-0.0017239763 0.28031668 -0.31426454 0.2786293 0.2952034 0.22663867 0.2598077 -0.092150174
0.0015223172 -0.34486854 -0.05807116 -0.106638916 -0.018612614 -0.21169989 -0.01091133 -0.04680095
00000000: 1355 9fbd 50e3 b5bd e957 b9be 49eb e93d
00000010: f70f a63e 85a2 a83a 411d d4bb 0dfb b33e
00000020: 24c8 c0bd 7031 9bbd fb8f 4abd b558 43be
00000030: 8a28 9f3d f82e e23c 4ce0 af3e 1d1a cebd
00000040: 026b ba3e c0bb 3b3c 10c3 40bc 35cd 3b3d
00000050: b0fe 98be b154 1dbe ce6a 46bd 4328 67be
00000060: 8566 b23e aa0f 223d 0df9 9b3e ba0b 753e
00000070: 078e 7d3e 6fee 213d 8ab9 abbd eb03 173d
00000080: 0cf7 e1ba ab85 8f3e 48e7 a0be 80a8 8e3e
00000090: e624 973e f813 683e 8405 853e 3bb9 bcbd
000000a0: 7d88 c73a 9c92 b0be 06dc 6dbd 8165 dabd
000000b0: 7b79 98bc dbc7 58be 6fc5 32bc 5ab2 3fbd

bias_ih_l0 f4 [12]
-0.1519672 -0.21854424 0.15282947 -0.056398474 0.106709056 0.28919166 -0.39268416 -0.3776757
0.33390003 0.0641016 -0.26635087 0.45597157
00000000: 4a9d 1bbe 10ca 5fbe 547f 1c3e 1602 67bd
00000010: 478a da3d ee10 943e e60d c9be b65e c1be
00000020: f2f4 aa3e b347 833d 245f 88be 1b75 e93e

bias_hh_l0 f4 [12]
0.20244066 -0.08790047 -0.3932367 -0.04704707 0.14505148 0.09628169 0.047700036 -0.31117478
0.2115587 0.16561061 -0.20226374 0.46117195
00000000: 9b4c 4f3e 2905 b4bd 5256 c9be 6eb4 40bd
00000010: 6088 143e 562f c53d 1d61 433d 4d52 9fbe
00000020: d8a2 583e d495 293e 3a1e 4fbe bb1e ec3e

weight_ih_l0 f4 [12, 24]
0.10164517 0.0031225318 -0.05924464 -0.1599733 0.041485343 0.01298879 -0.11882324 0.4128628
-0.23854923 0.10671256 -0.13481584 -0.0357777 0.33188725 0.08702142 -0.054395687 -0.012901315
0.21242572 0.26991406 -0.34871024 -0.09718736 -0.2325919 -0.02053978 0.2578995 -0.23642987
0.14469153 -0.065077014 -0.25327906 0.044412266 0.215871 -0.26547298 0.3333049 0.09183506
0.034861572 0.19887148 -0.32764402 0.06662798 -0.04314628 0.1885211 0.18577507 0.17320983
-0.07340327 -0.325879 0.30726367 0.3297487 0.34474185 0.035799388 -0.25666106 0.25721025
0.36057362 -0.11491643 0.014210262 -0.13945638 -0.008980614 -0.11225122 -0.21358767 -0.15872398
0.44815975 -0.15305024 0.23073584 -0.25146008 -0.13189511 0.053041425 0.012710991 -0.32709032
-0.03625345 -0.23859465 0.18778376 -0.1894106 -0.3169485 0.089374624 0.38181034 0.43336427
-0.20492125 0.14132933 0.082813434 -0.030057166 0.08574238 0.2575941 -0.37168533 -0.10169315
-0.20459501 0.24194235 -0.093455546 -0.015978629 -0.2956758 -0.23179664 -0.1686519 0.2554605
0.085464515 0.29108742 0.0064183315 0.2701342 -0.27515495 0.35007825 0.2257867 -0.0070519913
0.095313706 -6.863816e-05 -0.3555633 -0.0609366 -0.38132176 -0.2167103 -0.13067092 -0.23986731
0.030655453 -0.2740436 -0.17305921 -0.14582527 -0.11694076 0.16680287 0.32893562 -0.20827703
0.35367024 0.45336437 0.021770103 -0.34156018 -0.13192554 -0.1848 0.0027405603 -0.3447121
0.058699485 -0.13344315 0.16648255 -0.25967655 -0.053243343 0.0582398 0.3398694 0.18507099
0.1641653 0.057500735 -0.033310086 0.03781495 0.13675468 -0.35307145 -0.07797172 -0.022449428
0.170154 0.23418528 -0.025241759 -0.232379 0.19471179 -0.1946062 0.12393549 0.3653641
0.37439853 0.36055052 -0.11368437 -0.2625651 0.14947677 -0.12535258 -0.090913914 0.04030122
0.35079646 0.08441791 0.14122412 0.21381515 -0.33178908 0.16736726 0.03954882 -0.39038664
-0.050568998 -0.07898222 -0.33618325 0.08208957 0.12066488 0.36767903 0.37341797 0.3030474
-0.34876668 0.29047433 0.015855307 -0.1322242 -0.23508261 -0.15362148 0.18091616 -0.39463234
0.045490813 -0.037328262 0.013366848 -0.25876847 0.05859645 0.31386223 0.31288746 0.15136869
-0.025575662 -0.21657622 0.21009798 0.005141688 0.1573932 0.07951159 -0.02514838 -0.43598148
-0.1935298 0.3040467 0.14428933 0.2248271 0.23939835 0.21289241 0.41545382 -0.23488931
-0.4140405 -0.016026735 -0.27106246 0.29442915 0.386412 0.09188787 -0.18275492 -0.12653813
-0.030520653 -0.28776848 -0.43211716 0.17543963 0.4711447 0.38728607 -0.3731715 0.13259472
-0.1578812 -0.022018583 -0.17478418 -0.19339797 0.12649976 0.39455235 0.32445246 -0.16255662
0.42587274 -0.22459869 -0.08332773 -0.14742969 0.034713414 0.42052686 -0.09356982 -0.2987914
-0.20670864 0.44659153 0.33217937 -0.21195269 -0.14554875 -0.24813966 -0.058759283 -0.038873
0.43190855 0.21335697 -0.11071447 -0.3346417 0.10728835 0.41504678 -0.09728202 0.058559198
-0.13062209 0.19410269 -0.39593205 0.04532642 -0.13234772 0.21549396 0.30474514 0.31218198
00000000: 582b d03d 64a3 4c3b 82aa 72bd 0ad0 23be
00000010: 89ec 293d efce 543c 9959 f3bd c162 d33e
00000020: 4046 74be 1d8c da3d 2a0d 0abe a38b 12bd
00000030: 20ed a93e 4938 b23d 03ce 5ebd 0a60 53bc
00000040: 2186 593e 2d32 8a3e 268a b2be 2b0a c7bd
00000050: 922c 6ebe 0a43 a8bc 670b 843e ac1a 72be
00000060: 042a 143e 1947 85bd cbad 81be a3e9 353d
00000070: 4a0d 5d3e 13ec 87be f1a6 aa3e 0514 bc3d
00000080: 02cb 0e3d f7a4 4b3e f5c0 a7be 4074 883d
00000090: 27ba 30bd ad0b 413e d23b 3e3e eb5d 313e
000000a0: 7454 96bd 9dd9 a6be aa51 9d3e d2d4 a83e
000000b0: 0182 b03e 61a2 123d 1469 83be 10b1 833e
000000c0: 1b9d b83e 4e59 ebbd 29d2 683c a7cd 0ebe
000000d0: 6d23 13bc f8e3 e5bd bab6 5abe 8a88 22be
000000e0: 3275 e53e 34b9 1cbe 0446 6c3e 60bf 80be
000000f0: 830f 07be f741 593d c341 503c 6278 a7be
00000100: 7f7e 14bd 2852 74be 634a 403e daf4 41be
00000110: 1347 a2be 0b0a b73d a57c c33e ece1 dd3e
00000120: e0d6 51be a3b8 103e 179a a93d 723a f6bc
00000130: b399 af3d 60e3 833e 8a4d bebe 8044 d0bd
00000140: 5b81 51be bcbf 773e 9f65 bfbd 9de5 82bc
00000150: d262 97be 195c 6dbe 15b3 2cbe b8cb 823e
00000160: 0508 af3d 6909 953e de50 d23b 084f 8a3e
00000170: 1ce1 8cbe 753d b33e a134 673e 6414 e7bb
00000180: d533 c33d d5f1 8fb8 650c b6be a898 79bd
00000190: 9b3c c3be 4ee9 5dbe 99ce 05be c79f 75be
000001a0: 2521 fb3c 714f 8cbe 6f36 31be 3853 15be
000001b0: a37e efbd 5fce 2a3e 406a a83e 9346 55be
000001c0: 4414 b53e 601f e83e 3757 b23c fae0 aebe
000001d0: 7d17 07be 363c 3dbe f99a 333b 1b7e b0be
000001e0: df6e 703d 52a5 08be 677a 2a3e 53f4 84be
000001f0: b115 5abd db8c 6e3d 5d03 ae3e 4083 3d3e
00000200: f31a 283e e485 6b3d 2870 08bd d9e3 1a3d
00000210: 6b09 0c3e c8c5 b4be a3af 9fbd dde7 b7bc
00000220: da3c 2e3e 44ce 6f3e cec7 cebc c3f4 6dbe
00000230: 8762 473e d946 47be e4d1 fd3d 0111 bb3e
00000240: 2ab1 bf3e 149a b83e 5ad3 e8bd ef6e 86be
00000250: 7010 193e 6d5c 00be 1331 babd e412 253d
00000260: 989b b33e 4ce3 ac3d 0e9d 103e 5cf2 5a3e
00000270: 42e0 a9be 5362 2b3e f2fd 213d c2e0 c7be
00000280: 7021 4fbd 6ec1 a1bd 3620 acbe 941e a83d
00000290: 261f f73d 6d40 bc3e a430 bf3e 0729 9b3e
000002a0: 8c91 b2be 0db9 943e fde2 813c c865 07be
000002b0: 7fb9 70be f34e 1dbe 1642 393e 400d cabe
000002c0: 9354 3a3d 85e5 18bd a000 5b3c 4d7d 84be
000002d0: d502 703d 8db2 a03e c932 a03e 6500 1b3e
000002e0: 0d84 d1bc 28c6 5dbe ed23 573e 9b7b a83b
000002f0: af2b 213e f9d6 a23d fa03 cebc f738 dfbe
00000300: ad2c 46be 02ac 9b3e 95c0 133e 1339 663e
00000310: d724 753e 7800 5a3e 5db6 d43e d386 70be
00000320: 1efd d3be 804a 83bc b3c8 8abe 6bbf 963e
00000330: cbd7 c53e b52f bc3d 1b24 3bbe 3693 01be
00000340: 7306 fabc 6456 93be 763e ddbe 72a6 333e
00000350: e139 f13e 5c4a c63e 5610 bfbe e9c6 073e
00000360: 9cab 21be 5160 b4bc a0fa 32be 1e0a 46be
00000370: 2789 013e c402 ca3e a21e a63e 3e75 26be
00000380: fe0b da3e 33fd 65be bba7 aabd cff7 16be
00000390: a72f 0e3d 4c4f d73e 89a1 bfbd 30fb 98be
000003a0: 6eab 53be a5a7 e43e 6a13 aa3e 200a 59be
000003b0: bb0a 15be 5318 7ebe 93ad 70bd 4b39 1fbd
000003c0: 1e23 dd3e 407a 5a3e 45be e2bd 2856 abbe
000003d0: ffb9 db3d 0381 d43e cc3b c7bd c5db 6f3d
000003e0: ccc1 05be dbc2 463e 9bb7 cabe 32a8 393d
000003f0: 2986 07be 73aa 5c3e 8e07 9c3e 51d6 9f3e

weight_hh_l0 f4 [12, 4]
0.004395223 -0.0050124307 0.13220276 0.20989428 -0.0504398 0.09694547 -0.10301913 0.0515368
-0.22998782 -0.3336238 0.22634096 0.37103984 -0.3945163 -0.002352167 0.006398807 0.30198565
-0.26970288 -0.10334494 -0.16980192 -0.40231353 -0.07321129 -0.08141391 -0.11467964 -0.2981961
-0.2784991 -0.087674856 -0.163999 0.32000253 0.013061421 -0.08835365 -0.19774574 -0.03262502
-0.2647231 0.1737342 -0.009781765 0.19454467 0.0795545 -0.26099136 -0.2869279 0.12243099
0.04131058 -0.2984428 0.19376965 -0.2544652 0.29525328 -0.029161962 -0.25087163 0.16050804
00000000: ce05 903b 513f a4bb 2960 073e 87ee 563e
00000010: f799 4ebd 598b c63d b2fb d2bd 4018 533d
00000020: ed81 6bbe bdd0 aabe edc5 673e eff8 bd3e
00000030: 0afe c9be d026 1abb 15ad d13b dd9d 9a3e
00000040: 7f16 8abe 83a6 d3bd 8ee0 2dbe 0afc cdbe
00000050: cdef 95bd 56bc a6bd 29dd eabd 29ad 98be
00000060: 6f97 8ebe e08e b3bd 5bef 27be 5fd7 a33e
00000070: 92ff 553c c2f2 b4bd dc7d 4abe d0a1 05bd
00000080: c989 87be 61e7 313e b243 20bc b836 473e
00000090: 78ed a23d a9a0 85be 37e8 92be 19bd fa3d
000000a0: 4835 293d 7fcd 98be 8d6b 463e 4349 82be
000000b0: 702b 973e 11e5 eebc 3f72 80be 385c 243e

bias_ih_l0 f4 [12]
-0.43727562 -0.3274577 -0.40854967 0.44806707 -0.19869038 0.26926592 -0.19087392 0.17522857
0.4576728 -0.071645625 0.40699735 0.01298776
00000000: 97e2 dfbe 89a8 a7be 6c2d d1be 0c69 e53e
00000010: 7e75 4bbe 39dd 893e 7474 43be 1e6f 333e
00000020: 1754 ea3e f1ba 92bd f561 d03e 9dca 543c

bias_hh_l0 f4 [12]
0.1880595 0.279222 -0.46908197 -0.11495888 0.30490315 0.0800649 0.43959272 0.35538563
0.4370726 0.027528908 0.15991013 0.3294753
00000000: ab92 403e 30f6 8e3e 832b f0be 906f ebbd
00000010: 441c 9c3e 11f9 a33d 4c12 e13e 1bf5 b53e
00000020: fbc7 df3e 4e84 e13c 7bbf 233e fdb0 a83e

weight f4 [4, 4]
0.38587284 -0.07499559 0.43421277 0.20269495 -0.14999445 0.15196483 0.14605923 0.045514148
0.09867048 -0.3370136 -0.2584223 -0.3346251 0.081281476 0.22800754 0.045528606 0.15394852
00000000: 2091 c53e 4a97 99bd 2351 de3e 448f 4f3e
00000010: 2598 19be ab9c 1b3e 8d90 153e 0b6d 3a3d
00000020: c013 ca3d 0c8d acbe ed4f 84be fb53 abbe
00000030: e776 a63d cf7a 693e 347c 3a3d aea4 1d3e

bias f4 [4]
0.051316097 -0.2331019 -0.013538944 -0.31812835
00000000: d430 523d 44b2 6ebe 72d2 5dbc b8e1 a2be

weight f4 [320, 8]
7.592907e-05 0.10101714 -0.009495265 -3.3934816e-07 -0.121445335 -6.70053e-07 0.0010783997 -0.05755469
-0.22794893 -0.08500151 -0.31366923 -0.3494455 -0.10040559 -0.115782924 0.3092152 0.17253028
0.10577582 0.14899884 0.28612804 0.00750415 0.06657432 -0.22302222 0.075507455 -0.15315828
-0.112365134 8.281787e-05 -0.09984743 -0.13236418 -0.06264581 -0.1725839 0.19653605 -0.1894609
0.20079243 -0.257203 -0.3125917 0.071722575 0.089220256 -0.12434076 -0.081252426 0.073597096
0.008273758 0.13892098 0.17705183 0.12888499 0.20090501 -0.22295389 -0.059723668 -0.2480566
-0.029806724 -0.17244235 -6.737506e-05 -0.087360375 -0.013819729 -0.1660777 0.098907314 0.09374353
-0.112396516 0.036788024 -0.11915218 0.28787273 0.27147615 0.011087967 -0.17944652 -0.12318213
-0.19532326 -0.04354682 0.2608027 0.1961219 -0.27524772 -0.04974007 0.20655033 -0.11879826
0.01386454 0.19105297 0.21168052 3.7889642e-06 0.010461396 0.19998436 0.008416116 0.13198116
-0.026053183 -0.13350822 -0.083952814 0.05049086 0.2277846 0.2012692 0.2879187 0.21898037
-0.045319878 -0.17404135 -0.24570428 0.17825857 -0.27614388 0.20655164 -0.3140199 0.16318516
-0.08676964 0.2776811 -0.2720177 -0.064993486 -0.13051017 0.05693833 0.10394237 -0.23701909
-0.17834775 -0.21815166 -0.0024404319 0.07062186 0.006057408 1.3344958e-05 -0.1806201 0.0005654606
-0.1585124 0.099419534 -0.0087304395 -0.037897073 -0.03137541 -0.052476577 0.06366935 0.04499609
0.054578148 -0.030893361 -0.24901566 0.10805484 0.25720492 -0.16716473 -0.025099434 0.2882451
-0.05389125 0.0009711984 0.060279623 -0.22106048 0.15484755 -3.8301732e-06 -0.059325263 0.11681285
0.2572739 0.171622 -0.085131176 0.017925542 0.12902044 -0.19258553 -0.22378528 0.07374293
-0.22823177 -0.055243768 -0.30775428 0.13747627 0.27436274 -0.14167298 -0.059212644 -0.041650943
-0.24906832 -0.084338345 0.05980031 0.20737115 -0.12513722 0.1462155 0.3448237 -0.2807014
-0.08051469 4.5917877e-06 0.046832554 -0.082361035 -0.011824124 -0.07416382 1.8802787e-07 0.014988564
-0.00063547946 0.08340604 0.21542422 0.15588635 -0.2106376 -0.21221896 -0.10564627 0.21673594
-2.0075506e-05 -0.1227515 0.18597431 -0.062963754 0.09668043 -0.20795399 -0.13464877 -0.009847471
-0.004683005 0.18260977 0.024871513 -0.037485007 0.20212758 3.945525e-05 0.028576331 0.19278741
0.2742608 -0.13910529 0.3165083 0.11776333 -0.34796682 -0.028117398 0.06520268 0.02067376
0.23209253 -0.11669862 -0.20999269 -0.16763416 -0.1656953 -0.15287885 0.1632021 -0.078885555
0.18137424 -0.04880155 0.18157603 0.13660395 0.028586883 -0.043503027 0.27525306 -0.3206373
0.038411677 -0.0029333849 -0.18256989 -0.248523 -0.05577546 -0.016069831 -0.31638563 -0.28195405
-0.012624832 -0.024647499 -0.20161779 -0.10881983 -0.006917178 0.14630638 0.1207774 0.027811278
-0.18613504 0.08353352 0.050473765 -0.17416394 0.17493293 -0.023890432 -0.060870644 -0.124444924
0.07675439 -0.13408214 0.22398593 -0.004002019 0.098228276 0.12226285 -0.22331057 -0.11743414
0.14820226 0.2313606 0.32845172 0.2256336 0.25358665 0.045958363 0.20479955 0.19582781
00000000: 1c3c 9f38 13e2 ce3d 0792 1bbc a82f b6b4
00000010: 55b8 f8bd b1dd 33b5 1759 8d3a 77be 6bbd
00000020: 726b 69be 4615 aebd 4199 a0be 85ea b2be
00000030: 72a1 cdbd 991f edbd 7451 9e3e c7ab 303e
00000040: fea0 d83d 2793 183e 607f 923e 5fe5 f53b
00000050: 1e58 883d f05f 64be a7a3 9a3d 86d5 1cbe
00000060: b11f e6bd 81ae ad38 cf7c ccbd 7a8a 07be
00000070: 724c 80bd d5b9 30be bf40 493e 0a02 42be
00000080: 889c 4d3e 1db0 83be 050c a0be 49e3 923d
00000090: 1cb9 b63d 5ea6 febd ac67 a6bd 13ba 963d
000000a0: a88e 073c 4d41 0e3e 134d 353e 6dfa 033e
000000b0: 0bba 4d3e 064e 64be cea0 74bd 8d02 7ebe
000000c0: 3b2d f4bc ba94 30be b64b 8db8 ffe9 b2bd
000000d0: 256c 62bc 4610 2abe eb8f ca3d 9cfc bf3d
000000e0: 2530 e6bd 0aaf 163d 0f06 f4bd 0e64 933e
000000f0: ecfe 8a3e 4eaa 353c d4c0 37be ea46 fcbd
00000100: d202 48be 265e 32bd ee87 853e 2ed4 483e
00000110: 45ed 8cbe 3ebc 4bbd ee81 533e 814c f3bd
00000120: 1828 633c 64a3 433e c7c2 583e e945 7e36
00000130: 4666 2b3c b3c8 4c3e c0e3 093c 1226 073e
00000140: 7c6d d5bc 61b6 08be 74ef abbd 81cf 4e3d
00000150: 5e40 693e 8319 4e3e 146a 933e 643c 603e
00000160: 56a1 39bd e537 32be e799 7bbe 6a89 363e
00000170: bb62 8dbe 4682 533e 37c7 a0be 031a 273e
00000180: 48b4 b1bd 382c 8e3e e745 8bbe 4e1b 85bd
00000190: 75a4 05be 2b38 693d bddf d43d 22b5 72be
000001a0: cba0 36be 2663 5fbe a7ef 1fbb 32a2 903d
000001b0: 397d c63b 28e4 5f37 7af4 38be 6b3b 143a
000001c0: 1351 22be 789c cb3d 1e0a 0fbc f639 1bbd
000001d0: 8083 00bd aef1 56bd 1465 823d d24d 383d
000001e0: 568d 5f3d 1314 fdbc f6fd 7ebe db4b dd3d
000001f0: 5db0 833e 3b2d 2bbe 549d cdbc dd94 933e
00000200: 12bd 5cbd 0598 7e3a c4e7 763d ae5d 62be
00000210: 5b90 1e3e f084 80b6 0cff 72bd 933b ef3d
00000220: 68b9 833e adbd 2f3e 4159 aebd 96d8 923c
00000230: ef1d 043e 2435 45be f827 65be 8906 973d
00000240: 97b5 69be 4a47 62bd f891 9dbe 94c6 0c3e
00000250: 4679 8c3e b912 11be f588 72bd 2e9a 2abd
00000260: c40b 7fbe 95b9 acbd 2bf1 743d 1a59 543e
00000270: f923 00be 84b9 153e bb8c b03e 18b8 8fbe
00000280: e3e4 a4bd 2813 9a36 7ed3 3f3d e7ac a8bd
00000290: f8b9 41bc 33e3 97bd b5e4 4934 9892 753c
000002a0: 4e96 26ba c9d0 aa3d 2b98 5c3e aca0 1f3e
000002b0: 62b1 57be ed4f 59be 125d d8bd 07f0 5d3e
000002c0: d267 a8b7 2365 fbbd 0d70 3e3e 24f3 80bd
000002d0: 6400 c63d e4f1 54be 5ee1 09be 4957 21bc
000002e0: e573 99bb 0efe 3a3e 58bf cb3c e189 19bd
000002f0: 88fa 4e3e c17c 2538 e918 ea3c 106a 453e
00000300: e96b 8c3e 9e71 0ebe 600d a23e e72d f13d
00000310: b528 b2be 7556 e6bc fc88 853d 045c a93c
00000320: aaa9 6d3e b0ff eebd 5308 57be 4aa8 2bbe
00000330: 07ac 29be 468c 1cbe 741e 273e c08e a1bd
00000340: 2bba 393e 22e4 47bd 11ef 393e e8e1 0b3e
00000350: 0a2f ea3c 3b30 32bd f8ed 8c3e 922a a4be
00000360: 9055 1d3d 083e 40bb 9af3 3abe d07c 7ebe
00000370: cf74 64bd e1a4 83bc 4cfd a1be 485c 90be
00000380: 62d8 4ebc 8de9 c9bc e574 4ebe eedc debd
00000390: 7fa9 e2bb 57d1 153e 245a f73d 7ad4 e33c
000003a0: 2f9a 3ebe 9f13 ab3d 94bd 4e3d 0858 32be
000003b0: 9e21 333e deb5 c3bc 7f53 79bd fbdc febd
000003c0: 6831 9d3d d44c 09be 915c 653e 5e23 83bb
000003d0: e82b c93d f264 fa3d 87ab 64be 4f81 f0bd
000003e0: 55c2 173e cbe9 6c3e d32a a83e 7f0c 673e
000003f0: 1cd6 813e d63e 3c3d f9b6 513e 1687 483e

bias f4 [320]
-0.036764745 0.3028872 0.030274583 -0.20557694 0.25009403 0.09770536 -0.04886771 -0.22300597
0.33749816 -0.14738274 -0.14986295 0.31938523 0.12066521 -0.22168715 -0.17965992 0.24811503
-0.017301718 0.28893137 -0.33514833 -0.2568076 -0.21500257 -0.038883116 0.0010288391 -0.20744134
0.25695708 -0.0015812473 0.003935156 0.3315468 -0.09817398 -0.01299416 0.22428918 0.04178694
0.1915387 -0.0122868 0.29517785 -0.02251123 0.16394232 0.080390885 -0.0888007 0.35171127
0.10382737 -0.02976804 -0.01845162 -0.11663145 -0.020498171 0.0008260593 0.2732885 -0.24727775
0.32083595 -0.06469904 -0.08314184 0.23585254 0.26047516 0.266646 -0.045942876 0.07257606
-0.08857988 -0.07255721 -0.09912941 0.25297683 0.041806508 0.006088479 -0.2161475 -0.20703992
0.29521084 0.17865033 0.29259542 0.20640706 0.0011833617 -0.055282556 0.09188085 0.25474665
0.12446892 0.2671315 -0.052289676 -0.17682868 -0.17663178 0.04978134 -0.20226952 -0.14250436
0.1545551 0.289632 -0.3192704 -0.005174294 0.05768999 0.005330814 0.12466433 0.055271037
0.007797726 0.1837405 -0.16667402 -0.103737384 0.23127127 -0.02595909 -0.066522166 0.21546459
-0.11937088 0.0067098807 -0.1427277 -0.07319591 0.06708079 0.04135681 -0.12514476 -0.034388322
-0.14383711 0.2490988 -0.16445316 0.060968522 -0.090695456 -0.16428843 -0.015173484 -0.005938796
-0.092244245 -0.31625855 -0.054664683 0.0055915834 0.31372818 -0.17844625 -0.08494165 -0.062245946
0.20625156 0.049289793 -0.07074535 0.013113197 -0.025628392 -0.03234776 -0.16422881 -0.18806371
0.2868489 -0.14794475 0.032112446 -0.028439578 0.123840466 -0.033713304 0.14528164 -0.1702863
-0.11560472 -0.27930352 0.24181639 0.077773705 0.327768 0.14712052 0.24054769 -0.17406437
0.037255548 0.095098786 -0.119579725 -0.22807917 -0.19336551 0.32493195 -0.092973 0.13519377
0.09370504 -0.18882227 -0.18977727 0.052388344 -0.038310904 -0.19465114 -0.027300652 0.3362177
0.28758836 -0.28726307 -0.15702637 -0.18167588 -0.08628438 0.24687108 0.21606563 -0.17224382
0.32155547 -0.18414986 -0.19770873 -0.059294187 0.25331533 0.20116311 -0.08875903 0.18157588
-0.16401523 0.26315773 -0.0476918 0.27895576 0.076302856 -0.010909423 0.030248286 0.058322564
-0.14181846 -0.074577875 -0.03670946 -0.0036454864 -0.14204809 0.09527641 -0.24178666 0.16075963
-0.08641286 0.02428221 0.005285521 -0.085050546 0.01905636 0.27503082 -0.05418944 -0.1973029
0.035395466 -0.08377154 -0.03187616 -0.0011409599 -0.18081069 0.07472658 0.28072995 0.28817588
0.29330635 -0.29323795 -0.1646526 -0.17953305 -0.17262381 0.29800802 0.058564194 0.04831726
-0.17772107 0.21400821 0.041490052 -0.21569459 -0.015843343 0.068913 0.33294097 0.30793238
-0.015023426 0.024095379 0.32370916 -0.08404347 0.03705822 -0.18194847 0.28452346 -0.17659062
-0.046286933 0.21024631 0.2577123 -0.16261572 0.015596966 0.33266792 -0.048623845 0.110837154
0.265808 0.24716873 -2.5207617e-06 0.33776054 0.00027316555 -0.078179814 0.3389404 -0.16533685
0.13933289 -0.1807641 -0.2509272 -0.12923174 0.06909732 0.3253316 -0.09839286 0.2472315
00000000: a196 16bd 0814 9b3e 6702 f83c c382 52be
00000010: 530c 803e bf19 c83d 8229 48bd ad5b 64be
00000020: 8fcc ac3e 80eb 16be ac75 19be 7686 a33e
00000030: 521f f73d f501 63be c5f8 37be de11 7e3e
00000040: 55bc 8dbc d0ee 933e 9098 abbe 497c 83be
00000050: a229 5cbe e743 1fbd 1dda 863a 816b 54be
00000060: e18f 833e db41 cfba 7bf2 803b 81c0 a93e
00000070: 710f c9bd 75e5 54bc 10ac 653e c828 2b3d
00000080: b922 443e 934e 49bc 8d21 973e 7969 b8bc
00000090: 7fe0 273e faa3 a43d 24dd b5bd 8013 b43e
000000a0: 72a3 d43d 1bdc f3bc da27 97bc 78dc eebd
000000b0: c8eb a7bc e78b 583a 78ec 8b3e 6136 7dbe
000000c0: 9c44 a43e ee80 84bd 4546 aabd 5483 713e
000000d0: 005d 853e d385 883e 992e 3cbd c2a2 943d
000000e0: 5e69 b5bd e098 94bd 5c04 cbbd 2e86 813e
000000f0: 4d3d 2b3d dd81 c73b c555 5dbe 4602 54be
00000100: e025 973e 1df0 363e 11cf 953e 5f5c 533e
00000110: 081b 9b3a f66f 62bd 072c bc3d 276e 823e
00000120: 90e9 fe3d 76c5 883e b32d 56bd 9412 35be
00000130: f6de 34be 85e7 4b3d be1f 4fbe aaec 11be
00000140: b143 1e3e a54a 943e 6977 a3be 208d a9bb
00000150: 574c 6c3d 1cae ae3b 0350 ff3d e263 623d
00000160: 1184 ff3b 7826 3c3e 98ac 2abe 4474 d4bd
00000170: 60d2 6c3e 28a8 d4bc c63c 88bd c0a2 5c3e
00000180: b878 f4bd 8fde db3b 3627 12be bde7 95bd
00000190: a761 893d c265 293d f325 00be c5da 0cbd
000001a0: 094a 13be c113 7f3e 6966 28be 21ba 793d
000001b0: 8abe b9bd 3a3b 28be 349a 78bc 3b9a c2bb
000001c0: 8dea bcbd a4ec a1be 13e8 5fbd 9a39 b73b
000001d0: fba0 a03e 9dba 36be e3f5 adbd 9bf5 7ebd
000001e0: 9c33 533e 18e4 493d f0e2 90bd bcd8 563c
000001f0: a2f2 d1bc 167f 04bd 992b 28be c693 40be
00000200: dcdd 923e d47e 17be 5788 033d 1efa e8bc
00000210: 12a0 fd3d f616 0abd b6c4 143e 885f 2ebe
00000220: 2bc2 ecbd df00 8fbe b79e 773e d247 9f3d
00000230: 35d1 a73e c3a6 163e 2252 763e ee3d 32be
00000240: 4699 183d 27c3 c23d 37e6 f4bd 968d 69be
00000250: 9c01 46be 7b5d a63e a168 bebd 3c70 0a3e
00000260: 6ee8 bf3d a05a 41be f954 42be 2995 563d
00000270: e5eb 1cbd a152 47be 9ea5 dfbc ba24 ac3e
00000280: c83e 933e 2514 93be 85cb 20be 3e09 3abe
00000290: ddb5 b0bd c6cb 7c3e 4f40 5d3e af60 30be
000002a0: eba2 a43e c891 3cbe 2874 4abe 76de 72bd
000002b0: 8cb2 813e b4fd 4d3e 4bc7 b5bd 07ef 393e
000002c0: 9cf3 27be 9cbc 863e 7a58 43bd 4ad3 8e3e
000002d0: ac44 9c3d 70bd 32bc 41cb f73c a4e3 6e3d
000002e0: dc38 11be 49bc 98bd a95c 16bd 1de9 6ebb
000002f0: 0e75 11be 4720 c33d ec96 77be 2c9e 243e
00000300: 3af9 b0bd 7ceb c63c 2a32 ad3b fb2e aebd
00000310: 151c 9c3c d7d0 8c3e bff5 5dbd c509 4abe
00000320: d6fa 103d 6a90 abbd 9490 02bd 438c 95ba
00000330: 7026 39be 400a 993d d6bb 8f3e ca8b 933e
00000340: 402c 963e 4923 96be b19a 28be 83d7 37be
00000350: 4cc4 30be 8294 983e 02e1 6f3d 52e8 453d
00000360: 83fc 35be f824 5b3e 79f1 293d 0bdf 5cbe
00000370: e6c9 81bc 4222 8d3d 3d77 aa3e 50a9 9d3e
00000380: d124 76bc ac63 c53c 35bd a53e fc1e acbd
00000390: 5cca 173d b350 3abe 0fad 913e 2cd4 34be
000003a0: 5e97 3dbd cf4a 573e def2 833e bc84 26be
000003b0: 6b8a 7f3c 7353 aa3e cc29 47bd 97fe e23d
000003c0: fc17 883e cd19 7d3e 5b2a 29b6 f3ee ac3e
000003d0: a937 8f39 bd1c a0bd 9989 ad3e 104e 29be
000003e0: 48ad 0e3e 391a 39be 8879 80be 5355 04be
000003f0: e582 8d3d dd91 a63e 3282 c9bd 412a 7d3e

weight f4 [4, 320]
0.00042204798 -0.049225546 -0.009928828 -0.000318255 -0.031791355 -0.024613721 0.0022555112 -0.020704435
0.039723847 -4.736785e-05 0.016600214 -0.031916544 0.027863493 0.0009926748 6.254963e-08 0.037679266
-8.797881e-05 -0.010936708 -0.029291602 -0.032391533 7.173564e-06 0.00018401022 -6.136911e-08 0.0064066993
-0.048652615 -0.009631406 -0.015419693 -0.026218317 0.010143191 0.0069941445 -0.012975899 -0.0047370987
-0.01205411 0.018947076 -0.0044618426 0.001956183 0.009457493 0.032733317 -0.0005032091 0.049595032
-0.040229604 6.0143975e-08 0.017624334 -1.6140926e-06 0.0011971773 0.040066462 0.026049627 -0.0108142635
-0.042652138 3.399135e-06 -0.0023919763 0.022631653 0.042223126 -0.03694547 0.026110945 -0.047562834
-0.012706081 -5.659215e-05 -2.984839e-06 0.019093793 -0.039542083 -2.8662964e-05 -0.038199097 0.00035758666
-0.02068817 -0.00029843143 0.02333361 0.04144201 -1.13072645e-07 0.016934354 0.043094132 0.0058506913
-0.014077986 0.021956079 -0.018644124 0.038519703 0.009692069 -0.0068216715 -0.0009804331 -3.6418307e-08
0.03415894 -0.02247451 0.041607957 3.1468326e-07 -0.020581983 0.039032444 -0.025594462 0.026466098
-0.003331071 -0.036186058 -0.0006276918 -0.015629046 -0.011724444 -0.008379974 -0.03861756 -0.010667938
-0.00016458525 -0.017406225 -3.91376e-09 0.0006075132 -0.014358483 -0.014092174 3.1768277e-09 -0.043219056
0.019479012 0.006016938 0.00012219884 0.013458731 -0.00090772583 -0.0049630343 0.03833788 -0.00018933004
-8.806586e-05 -0.0023072804 0.0006680819 -0.046267666 0.04231277 0.039072327 0.00045803064 0.022968108
0.0004631561 -0.02641923 -1.4964897e-12 0.03564189 0.0011968248 -0.038401935 -0.020504108 0.0007555351
0.0031088511 2.5062423e-06 -0.048874687 0.0084777 0.023864469 -0.0006741603 -0.052223492 0.020426277
-0.039559733 -0.0069772834 0.041276384 0.051011518 -0.019382276 0.04114932 0.041394632 -0.00018374567
-0.009961542 0.0041744485 0.0019959079 -0.012707111 0.010609539 -0.04899637 0.028083198 -0.009494948
0.036074907 -0.002395398 -0.021704512 0.003440209 0.028581748 -0.002917832 0.013192398 0.027824556
-0.01916681 0.057902157 -1.9170068e-07 0.0004777598 0.005573901 0.053266708 0.048289735 0.002163325
0.031032348 6.2205956e-08 -0.00035278779 0.00829976 -0.04005344 -0.00018711631 -0.03750937 -0.04397898
0.007749967 0.0021549107 -0.010626723 -0.021010362 -0.04884339 -0.0006936103 0.012100278 -0.029160958
-0.00042312403 -0.0010619932 0.053859197 0.048839487 7.185231e-06 -0.033816632 -0.015955588 -0.01783467
0.023494596 -0.0038729496 -0.009091632 0.0012156691 0.0041388124 0.032563142 -0.0035603961 -0.02388658
-0.0163675 -1.9732325e-07 -0.0021970696 0.0010485838 0.0002814652 -0.05160634 -0.025037894 0.035188086
0.045424405 0.05659967 1.5337039e-09 0.0007382308 -0.04911095 0.0016427888 0.0481876 -0.0070066983
-3.768181e-10 0.015225958 0.0081325425 -8.9913584e-07 0.0004890593 0.012629993 0.05546379 -0.024124268
0.011575284 0.051966853 -0.008010028 -0.011182469 -0.000121439305 1.1644546e-06 -0.01929471 0.0006796133
-0.038102485 -0.049199507 -0.007056563 0.0009641889 -0.03079769 -0.024682224 0.0006160525 -0.025592279
-0.023971502 -0.015982827 -4.4498493e-12 0.042191796 0.00068419566 0.0065574674 -0.046109967 0.044357203
-0.022320723 -0.016697481 0.016162522 0.00011217775 0.037350763 -0.043890353 -0.00031626996 0.04296871
00000000: 5246 dd39 baa0 49bd 86ac 22bc 77db a6b9
00000010: a737 02bd b7a2 c9bc 33d1 133b 599c a9bc
00000020: 79b5 223d d7ac 46b8 2cfd 873c ecba 02bd
00000030: fb41 e43c a41c 823a 0653 8633 9355 1a3d
00000040: 4481 b8b8 e12f 33bc f1f4 efbc fcac 04bd
00000050: 72b4 f036 def2 4039 06ca 83b3 4aef d13b
00000060: f747 47bd 0bcd 1dbc e1a2 7cbc ccc7 d6bc
00000070: a02f 263c 232f e53b dd98 54bc aa39 9bbb
00000080: 9a7e 45bc e636 9b3c a634 92bb 4e33 003b
00000090: 9af3 1a3c 5f13 063d cbe9 03ba 2924 4b3d
000000a0: ccc7 24bd 8028 8133 e860 903c cda3 d8b5
000000b0: 9bea 9c3a bb1c 243d 0766 d53c 4f2e 31bc
000000c0: 02b4 2ebd b21c 6436 b4c2 1cbb 0466 b93c
000000d0: 28f2 2c3d 2254 17bd 9fe6 d53c 3fd1 42bd
000000e0: 2b2d 50bc 5c5d 6db8 254f 48b6 966a 9c3c
000000f0: e1f6 21bd 3f71 f0b7 a876 1cbd 787a bb39
00000100: 3d7a a9bc ca76 9cb9 2026 bf3c 19bf 293d
00000110: 58d2 f2b3 eab9 8a3c 7983 303d 28b7 bf3b
00000120: 5aa7 66bc 3cdd b33c 90bb 98bc d6c6 1d3d
00000130: 7ccb 1e3c 5488 dfbb e081 80ba 5a6a 1cb3
00000140: 3fea 0b3d 771c b8bc 1b6d 2a3d bdf1 a834
00000150: 8c9b a8bc 7ce0 1f3d 7aab d1bc 6ecf d83c
00000160: 194e 5abb d537 14bd af8b 24ba 7c08 80bc
00000170: e217 40bc 294c 09bc 722d 1ebd 93c8 2ebc
00000180: 8494 2cb9 8097 8ebc cc79 86b1 8541 1f3a
00000190: d83f 6bbc dde2 66bc 584f 5a31 7706 31bd
000001a0: 7392 9f3c bc29 c53b 8022 0039 0282 5c3c
000001b0: 73f4 6dba f3a0 a2bb 2e08 1d3d e586 46b9
000001c0: 00b0 b8b8 be35 17bb 3822 2f3a 2a83 3dbd
000001d0: 2850 2d3d 4e0a 203d d523 f039 9d27 bc3c
000001e0: c2d3 f239 246d d8bc b99c d2ab 3bfd 113d
000001f0: c7de 9c3a 594b 1dbd 3bf8 a7bc 1a0f 463a
00000200: debd 4b3b ea30 2836 d330 48bd 0de6 0a3c
00000210: 6b7f c33c 22ba 30ba 4de8 55bd 0255 a73c
00000220: 6309 22bd b2a1 e4bb 6d11 293d 74f1 503d
00000230: 94c7 9ebc 308c 283d 6b8d 293d daab 40b9
00000240: bc35 23bc d0c9 883b c7cd 023b 7d31 50bc
00000250: a2d3 2d3c 6bb0 48bd bc0e e63c b390 1bbc
00000260: 48c3 133d 1cfc 1cbb a9cd b1bc 2175 613b
00000270: 4524 ea3c 1939 3fbb ed24 583c 53f0 e33c
00000280: b703 9dbc d02a 6d3d 48d6 4db4 d67b fa39
00000290: 45a5 b63b 312e 5a3d 75cb 453d 92c6 0d3b
000002a0: 8d37 fe3c 1696 8533 60f6 b8b9 b7fb 073c
000002b0: 130f 24bd a734 44b9 6da3 19bd 4e23 34bd
000002c0: 6ff3 fd3b 6739 0d3b b51b 2ebc ec1d acbc
000002d0: 0210 48bd 66d3 35ba 3f40 463c f6e2 eebc
000002e0: bfd6 ddb9 9432 8bba 769b 5c3d ea0b 483d
000002f0: aa18 f136 4f83 0abd 4bb5 82bc 041a 92bc
00000300: bd77 c03c 50d1 7dbb 12f5 14bc 1657 9f3a
00000310: e09e 873b ee60 053d 8955 69bb caad c3bc
00000320: 2315 86bc cddf 53b4 b6fc 0fbb a270 893a
00000330: 9f91 9339 2b61 53bd 451c cdbc 6221 103d
00000340: f10e 3a3d 0ed5 673d 69ca d230 d585 413a
00000350: 9028 49bd d852 d73a 5c60 453d 7298 e5bb
00000360: 6f28 cfaf 4c76 793c 5b3e 053c 255c 71b5
00000370: 3734 003a 08ee 4e3c 002e 633d 42a0 c5bc
00000380: 43a6 3d3c 32db 543d 7e3c 03bc ad36 37bc
00000390: 3bad feb8 5b4a 9c35 f10f 9ebc 1428 323a
000003a0: 5a11 1cbd 6c85 49bd be3a e7bb 9fc1 7c3a
000003b0: 704b fcbc 6032 cabc 957e 213a e6a6 d1bc
000003c0: e25f c4bc 6bee 82bc ae90 9cac 4ed1 2c3d
000003d0: 985b 333a 06e0 d63b cedd 3cbd e6af 353d
000003e0: f3d9 b6bc 28c9 88bc 4467 843c f940 eb38
000003f0: 1dfd 183d 5fc6 33bd 09d1 a5b9 f5ff 2f3d

bias f4 [4]
-0.0063667623 -0.011755727 -0.046749864 0.016022084
00000000: 46a0 d0bb 189b 40bc c97c 3fbd bf40 833c

weight f4 [4, 8]
-0.18865658 0.139773 -0.14352918 0.18610106 -0.16336314 0.013125586 -0.014049287 -0.077079415
-0.026862582 -0.00022013004 -0.1686261 0.12477336 0.113467105 0.0040248707 0.067199275 0.18068138
0.19599636 0.016134432 0.07871367 0.048229713 -0.24187401 -0.15891989 -0.05595313 0.22566538
-0.09552781 -0.0017950425 0.15785731 -0.17761196 0.02682827 -0.03701876 0.14233078 0.23965847
00000000: 312f 41be a720 0f3e 50f9 12be 4791 3e3e
00000010: ab48 27be b30c 573c fb2e 66bc d0db 9dbd
00000020: eb0e dcbc b5d2 66b9 52ac 2cbe 2d89 ff3d
00000030: 7161 e83d 10e3 833b c69f 893d 8a04 393e
00000040: 45b3 483e 5b2c 843c a234 a13d 858c 453d
00000050: d2ad 77be e5bb 22be 1c2f 65bd d314 673e
00000060: 16a4 c3bd a247 ebba 59a5 213e e9df 35be
00000070: f6c6 db3c fca0 17bd 29bf 113e 0869 753e

bias f4 [4]
-0.1455113 -0.004585222 0.13311365 0.32398754
00000000: ea00 15be a13f 96bb f24e 083e b2e1 a53e

weight f4 [4, 8]
0.21439785 -0.12297808 -0.038629822 -0.11373153 0.17111214 -0.13037276 -0.09073426 0.088771984
-0.21080746 0.10516609 -0.16885681 0.1319715 -0.19422813 -4.7142592e-05 0.14025763 0.15295519
-0.12809166 0.08379411 -0.06443499 -0.3025359 0.001412444 0.15850374 0.32490298 0.13720454
0.10370524 -0.0008604047 0.026811335 -0.016637914 -0.0511193 -0.15543598 -0.02575063 -0.058264162
00000000: 1c8b 5b3e eedb fbbd 4e3a 1ebd 14ec e8bd
00000010: 0538 2f3e 7080 05be e2d2 b9bd 16ce b53d
00000020: e9dd 57be 5261 d73d cde8 2cbe 8923 073e
00000030: bde3 46be f9ba 45b8 b29f 0f3e 49a0 1c3e
00000040: 762a 03be 3f9c ab3d 7ef6 83bd fce5 9abe
00000050: c221 b93a ce4e 223e af59 a63e 597f 0c3e
00000060: 6a63 d43d c88c 61ba 72a3 db3c 3c4c 88bc
00000070: 7962 51bd 9c2a 1fbe fcf2 d2bc 67a6 6ebd

bias f4 [4]
-0.010593124 -0.19980988 -0.12672202 0.0014149847
00000000: c88e 2dbc f69a 4cbe 6bc3 01be 0277 b93a

weight f4 [10, 2]
-0.025619062 -0.54630893 -0.5342381 0.5477292 -0.24802056 0.1921296 0.5795593 0.16969869
0.18740836 -0.34233224 -0.023826677 -0.2720197 0.39303985 -0.03536036 0.24210107 -2.8075073e-10
-0.12805249 0.20001772 0.11260134 -0.012712754
00000000: 11df d1bc e7da 0bbf d4c3 08bf fb37 0c3f
00000010: 1af9 7dbe 9fbd 443e 005e 143f 7ec5 2d3e
00000020: fae7 3f3e 2c46 afbe 2a30 c3bc 2b46 8bbe
00000030: 853c c93e 06d6 10bd 58e9 773e 2758 9aaf
00000040: 3120 03be 72d1 4c3e 889b e63d 2849 50bc

bias f4 [10]
-0.18495119 0.52288 0.51150656 0.14063671 -0.30326736 -0.20181152 0.1278711 -0.5110858
-0.45076466 -0.055130936
00000000: d863 3dbe 77db 053f 18f2 023f 1203 103e
00000010: dc45 9bbe aea7 4ebe a4f0 023e 85d6 02bf
00000020: a0ca e6be fad0 61bd

weight f4 [10, 2]
-0.2665274 0.3094298 0.20851575 -0.0060782013 -0.18694258 0.42845765 -0.011313984 0.07859797
0.18184139 0.17504425 0.08471552 -0.3418854 -0.10938825 -0.44594702 -0.21243228 -0.58159107
-0.29234576 -0.42264843 0.27059692 0.09360528
00000000: 4876 88be 956d 9e3e 2785 553e a62b c7bb
00000010: e06d 3fbe cd5e db3e 4a5e 39bc f9f7 a03d
00000020: a134 3a3e cd3e 333e 557f ad3d 9a0b afbe
00000030: f206 e0bd 2b53 e4be d987 59be 27e3 14bf
00000040: 58ae 95be 6065 d8be ae8b 8a3e 20b4 bf3d

bias f4 [10]
0.47122064 -0.5199484 0.44576782 0.4881776 0.5320341 -0.16874975 0.23405786 0.17109774
0.028914195 -0.26700768
00000000: d543 f13e 571b 05bf ae3b e43e 6af2 f93e
00000010: 6333 083f bccc 2cbe ddac 6f3e 3f34 2f3e
00000020: 76dd ec3c 3bb5 88be

weight f4 [20, 4]
-0.186954 0.2085411 -0.21689327 0.37143692 -0.18891677 -0.21625234 0.18603414 -0.38195527
-0.07808646 0.2222244 0.010592897 -0.27565256 0.11553681 -0.028143866 0.32895502 0.19155571
-0.22965926 0.36147305 0.2986532 0.18424004 -0.2780038 0.24484576 0.29870424 -0.38738433
0.47498196 0.07525074 0.14144383 -0.29698086 0.38811353 -0.36542976 -0.16755803 0.05027734
0.35464862 -0.022164611 0.11800605 -0.14204323 0.016494237 -0.17310089 -0.054477416 -0.1607512
-0.050349437 0.46913296 -0.121372364 -0.08159868 -0.17329389 -0.4754163 0.09237735 0.07996515
0.043744504 0.0726506 0.2964783 -0.32607344 0.41893965 0.048485506 0.3576345 0.09922775
-0.35895646 0.27479684 -0.14549157 0.12929642 -0.092807285 -0.20233567 -0.23022543 -0.18624067
0.11518883 0.29593542 -0.086921304 0.40912178 0.083072625 -0.19690375 -0.38663685 -0.13446712
-0.18208514 -0.3656594 -0.12866284 -0.3990321 -0.07740237 -0.37558484 -0.25335374 -0.39686263
00000000: df70 3fbe cc8b 553e 4519 5ebe fb2c be3e
00000010: 6673 41be 4171 5dbe bc7f 3e3e a48f c3be
00000020: cbeb 9fbd cb8e 633e d58d 2d3c 5522 8dbe
00000030: 909e ec3d f78d e6bc cb6c a83e 2e27 443e
00000040: cc2b 6bbe ff12 b93e 12e9 983e 6ca9 3c3e
00000050: 8456 8ebe d9b8 7a3e c3ef 983e 3d57 c6be
00000060: d630 f33e 0f1d 9a3d a7d6 103e e00d 98be
00000070: d1b6 c63e 9c19 bbbe 5594 2bbe 9def 4d3d
00000080: 8194 b53e 8f92 b5bc 28ad f13d c873 11be
00000090: ec1e 873c 5c41 31be b623 5fbd f69b 24be
000000a0: 363b 4ebd 3232 f03e 1392 f8bd 351d a7bd
000000b0: f473 31be c469 f3be 5630 bd3d c5c4 a33d
000000c0: 702d 333d d6c9 943d 01cc 973e 19f3 a6be
000000d0: 427f d63e bd98 463d df1b b73e eb37 cb3d
000000e0: 24c9 b7be 2cb2 8c3e befb 14be 4866 043e
000000f0: bf11 bebd 1531 4fbe 37c0 6bbe e0b5 3ebe
00000100: 1fe8 eb3d d984 973e cc03 b2bd 6978 d13e
00000110: fb21 aa3d 23a1 49be 44f5 c5be c0b1 09be
00000120: 8774 3abe b537 bbbe 31c0 03be ef4d ccbe
00000130: 2285 9ebd a84c c0be 95b7 81be 9431 cbbe

bias f4 [20]
-0.39067844 -0.35072485 0.26511887 0.4492353 0.12536234 -0.18834588 -0.17474563 -0.36897278
-0.34854898 0.41499832 -0.11379683 -0.19645636 0.2135072 0.23389731 -0.4182958 0.48578003
-0.07998015 -0.36644244 -0.14792974 0.32681134
00000000: 0107 c8be 3592 b3be a9bd 873e 2b02 e63e
00000010: fc5e 003e bedd 40be 85f0 32be 00ea bcbe
00000020: 0375 b2be a97a d43e 500e e9bd db2b 49be
00000030: a2a1 5a3e c782 6f3e de2a d6be 29b8 f83e
00000040: a2cc a3bd 589e bbbe e57a 17be d153 a73e

x_out f4 [2]
1.7310948 1.7166028
00000000: 8494 dd3f a4b9 db3f

m1x_posterior f4 [2, 1]
1.7310948 1.7166028
00000000: 8494 dd3f a4b9 db3f

m1x_posterior_previous f4 [2, 1]
1.7249241 1.7279054
00000000: 50ca dc3f 012c dd3f

m1x_prior_previous f4 [2, 1]
1.7214669 1.7196987
00000000: 0759 dc3f 161f dc3f

KGain_array f4 [100, 2, 2]
0.041691534 0.0029422045 0.0033058636 0.040998958 0.04848067 -0.00032092258 0.003067609 0.041544206
0.045991816 -0.005834436 -0.0034514926 0.04299009 0.045238692 0.0049908683 6.76848e-05 0.04348646
0.045320213 -0.004419321 -0.00091021135 0.04290752 0.043248553 0.0019667596 0.0009998865 0.040135138
0.048379034 -0.0083013885 -0.005534712 0.042636998 0.045382414 -0.001096677 -0.0030440576 0.040799983
0.042934816 -0.0012896247 0.0009448491 0.041255802 0.038471345 0.002893187 0.00059852377 0.042417817
0.03979637 -0.0016152337 0.0022691078 0.041712478 0.043653492 0.0006013997 -0.0006287731 0.040624253
0.036817823 0.003649775 0.00079852715 0.043009683 0.040029485 -0.00226642 0.0014159866 0.040395178
0.03902966 -0.0036443584 -0.0005448647 0.037651166 0.043705273 0.0029434972 -0.00013743713 0.03875775
0.043065954 4.229322e-05 0.001555834 0.04130511 0.043892693 -0.0021868013 0.001109656 0.042875573
0.047591027 -0.0045626014 0.0016025864 0.04105349 0.041352306 0.003833823 -0.0001979731 0.040555917
0.04342484 0.00048951805 0.0015400015 0.041583687 0.041751847 -0.0036912505 0.0013777502 0.04271035
0.043583225 0.0020368807 0.0014649443 0.039575577 0.04000529 -6.550737e-05 0.0049606524 0.042670786
0.042510387 -0.002992183 -0.00039791688 0.039201804 0.041220468 0.0030197762 0.00016795471 0.03832507
0.042398516 0.0014281124 0.0020110495 0.041050874 0.041379336 -0.0046437606 0.0008105822 0.042698413
0.044947315 0.0008718893 0.00084849074 0.038552493 0.042345997 0.00094907545 0.001249019 0.041228235
0.04412485 -0.0030982103 -0.0006736107 0.039885625 0.04254934 0.00015887804 -0.00095096603 0.041183114
0.04062332 -9.211153e-05 0.0027250685 0.040836945 0.041301858 -0.0012261868 0.0020608716 0.041283228
0.04080453 -0.0002606474 0.001832787 0.04141021 0.04600602 -1.251325e-05 -3.870949e-05 0.038119607
0.04332402 0.0010803193 0.0022532009 0.039826453 0.045054782 -0.00019511208 5.479902e-06 0.041222677
0.0393044 -0.0013881251 0.00089995936 0.03888395 0.0427769 -0.0040737465 -0.0010401346 0.04050264
0.04062966 -0.0019519944 -0.0005402677 0.040790487 0.0447541 -0.0015920289 0.000827726 0.039280877
0.042556237 0.008628175 0.005424641 0.038296886 0.04320481 0.0057404153 0.0010671802 0.03924121
0.042170357 0.0041406862 0.0033872612 0.04155314 0.043188807 -7.518008e-05 0.0026550032 0.040137835
0.041516706 0.00018314645 -0.00051559135 0.042056754 0.043756604 -0.000116277486 -0.00025505945 0.039109886
0.037921917 0.00029332936 0.0032101572 0.039144926 0.044538654 -0.007941909 0.0024308115 0.04035707
0.045289505 0.0031075198 0.0012336783 0.04196112 0.041079123 0.003902018 0.002146732 0.04335904
0.0445437 0.0028242283 -0.0005762093 0.03915389 0.0430674 -0.0011657402 0.00054745004 0.04211598
0.042007044 -0.0016413927 0.000717964 0.04236763 0.04000109 0.0014485195 0.0024099313 0.040366627
0.041469723 -0.004026955 0.0025608502 0.04066792 0.042298023 -0.001374457 0.0018161945 0.040949278
0.042048328 -0.0053661186 -0.0023543946 0.040731356 0.050122328 -0.004203446 -0.00073240325 0.03811223
0.043348357 0.001556417 0.003169287 0.039467722 0.04781414 -0.0045164526 -0.002841901 0.04264702
0.03907531 0.00061593205 -0.0006466694 0.044086754 0.04284377 -0.006925268 0.00036500022 0.04329957
00000000: bec4 2a3d 00d2 403b 30a7 583b 86ee 273d
00000010: ab93 463d 8041 a8b9 f009 493b 422a 2a3d
00000020: ea61 3c3d cc2e bfbb 7032 62bb 6016 303d
00000030: 354c 393d 708a a33b 00f2 8d38 dc1e 323d
00000040: b0a1 393d f4cf 90bb 409b 6eba ccbf 2f3d
00000050: 6525 313d c0e4 003b a00e 833a be64 243d
00000060: 1829 463d 8c02 08bc 885c b5bb 22a4 2e3d
00000070: e9e2 393d 60be 8fba d07e 47bb e21d 273d
00000080: 6bdc 2f3d a008 a9ba c0af 773a d8fb 283d
00000090: 2194 1d3d a09b 3d3b 40e6 1c3a 4ebe 2d3d
000000a0: 8501 233d 40b6 d3ba 50b5 143b b4da 2a3d
000000b0: 01ce 323d 40a7 1d3a 40d4 24ba 9e65 263d
000000c0: 49ce 163d 1031 6f3b 4054 513a ec2a 303d
000000d0: f5f5 233d 3888 14bb a098 b93a 6a75 253d
000000e0: 91dd 1f3d 30d6 6ebb 40d5 0eba 1c38 1a3d
000000f0: 4d04 333d b0e7 403b 001d 10b9 72c0 1e3d
00000100: ed65 303d 0064 3138 20ed cb3a 8c2f 293d
00000110: d3c8 333d 7050 0fbb e071 913a 4c9e 2f3d
00000120: cfee 423d e081 95bb e00d d23a b427 283d
00000130: 0961 293d e040 7b3b 0097 4fb9 f61d 263d
00000140: 3fde 313d 0053 003a e0d9 c93a a853 2a3d
00000150: fc03 2b3d e8e8 71bb a095 b43a 0cf1 2e3d
00000160: 5384 323d 307d 053b 6003 c03a 001a 223d
00000170: 96dc 233d 0061 89b8 f88c a23b 90c7 2e3d
00000180: 5f1f 2e3d 8018 44bb 809f d0b9 1292 203d
00000190: cbd6 283d 70e7 453b 001d 3039 c0fa 1c3d
000001a0: 11aa 2d3d 802f bb3a d0cb 033b f624 283d
000001b0: 617d 293d b02a 98bb 407d 543a 88e4 2e3d
000001c0: ad1a 383d 808f 643a 406d 5e3a 38e9 1d3d
000001d0: ff72 2d3d 60cb 783a 20b6 a33a f0de 283d
000001e0: 42bc 343d 580b 4bbb 4095 30ba 1c5f 233d
000001f0: 3748 2e3d 8098 2639 404a 79ba a0af 283d
00000200: a364 263d 002c c1b8 1097 323b a444 273d
00000210: 232c 293d 00b8 a0ba b00f 073b 9a18 293d
00000220: a722 273d 80a7 88b9 203a f03a c19d 293d
00000230: cf70 3c3d 00f0 51b7 005c 22b8 4e23 1c3d
00000240: 8774 313d 8099 8d3a 70aa 133b 1021 233d
00000250: 5d8b 383d 0097 4cb9 00e0 b736 1cd9 283d
00000260: a7fd 203d c0f1 b5ba 40eb 6b3a c744 1f3d
00000270: d536 2f3d 107d 85bb 2055 88ba 19e6 253d
00000280: 496b 263d 10da ffba c0a0 0dba ed13 273d
00000290: 1350 373d a0ab d0ba c0fb 583a fce4 203d
000002a0: 734f 2e3d 305d 0d3c 30c1 b13b 32dd 1c3d
000002b0: 87f7 303d 181a bc3b a0e0 8b3a 64bb 203d
000002c0: d3ba 2c3d 98ae 873b d0fc 5d3b a033 2a3d
000002d0: bfe6 303d 00aa 9db8 90ff 2d3b 9267 243d
000002e0: 6c0d 2a3d 000b 4039 c028 07ba b443 2c3d
000002f0: 203a 333d 00da f3b8 80b9 85b9 b031 203d
00000300: 0354 1b3d 00ca 9939 8061 523b 6e56 203d
00000310: 2a6e 363d c81e 02bc 404e 1f3b 744d 253d
00000320: 7d81 393d 88a7 4b3b 60b3 a13a 6cdf 2b3d
00000330: 9542 283d 00b9 7f3b 30b0 0c3b 4099 313d
00000340: 7473 363d b016 393b c00c 17ba d45f 203d
00000350: 7167 303d c0cb 98ba c082 0f3a ce81 2c3d
00000360: 940f 2c3d 0024 d7ba c035 3c3a ae89 2d3d
00000370: 2fd8 233d 40dc bd3a f0ef 1d3b 7a57 253d
00000380: 28dc 293d 8cf4 83bb f0d3 273b 6893 263d
00000390: b140 2d3d 2027 b4ba 600d ee3a 6eba 273d
000003a0: de3a 2c3d 44d6 afbb 304c 1abb ecd5 263d
000003b0: 124d 4d3d 10bd 89bb c0fe 3fba 921b 1c3d
000003c0: 0c8e 313d b000 cc3a d0b3 4f3b e8a8 213d
000003d0: c2d8 433d c0fe 93bb 303f 3abb a4ae 2e3d
000003e0: 6f0d 203d 8076 213a 4085 29ba 5094 343d
000003f0: f37c 2f3d 5ced e2bb 805d bf39 e45a 313d
