KNet/KNet_TSP/KNet/model/Toy/model_KNet_point5_full.pt (torch, 47402 bytes, 41 tensors)

weight_ih_l0 f4 [12, 10]
00000000: 6829 0a3e 11dc cdbe e1ed 363e 35fa bfbe
00000010: 699f 683e 13aa a3be 363b 07bd d52e 6dbe
00000020: 4ad0 ba3e ead2 0e3e 21f5 dabd bc4d 85be
00000030: e7f3 aabe 9df2 843e bef1 9d3d f0ef 483e
00000040: efe6 77be bf49 fbbc d032 f237 69d5 61be
00000050: 21c2 97be 7c0c 3f3e f025 2e3e 0cfa e43d
00000060: 1f54 ab3c d092 c23e d68e 1f3c a258 48be
00000070: 5238 183d 6cdd 95be 36a2 973e a4b4 8c3e
00000080: d477 35bd 332c 5dbe 031a 873d 9e33 c33e
00000090: b553 c1bd 257b 643d 50d4 01b9 a519 c2bd
000000a0: 2152 883d 9670 43be 1d9a 27be e6d4 d6be
000000b0: 98c5 84be 23bb 323e 65d5 1abe fa38 d9be
000000c0: 9170 323e f243 123d ea1f ddbe 171c df3d
000000d0: 8ee5 c4be af94 653e 9eba f1bc 400c 1f3d
000000e0: c04f 44be d045 ff3d 2c57 5a3d 36d7 e5be
000000f0: 6359 19be 1393 613d e188 e63e 4f26 e53e
00000100: de72 a9bd 7adb 21bd 5bee f73d 3691 d43e
00000110: 913b ae3e f43d bf3e 64f7 803e 873d 79bd
00000120: 704a f2b8 dc7e 14bd 0d6c 9a3c e6a8 acbe
00000130: 93d0 91be 8666 04bd 2185 a13e 633e 89ba
00000140: 8d5e efbd e4b0 b3be e404 ecbd db8e af3e
00000150: aa57 8c3d 7bd3 bcbe c2b0 05be 31da c43e
00000160: 7a7d 30be 8c5e a0bd 4c62 053e ef36 c8be
00000170: 8a5f 86be 3f6e cd3c fa99 cf3e e991 ba3e
00000180: 7433 9b3e 1a24 773e be9c d7be 4f77 903d
00000190: 935f 9d3d 1d25 a43e ab5b b2be e71b 593d
000001a0: 1447 18be c033 2e3e 1d65 7a3e b835 2e3e
000001b0: 70a2 b0bc 7440 ffbd a700 b3bd 75c0 c43e
000001c0: ab39 91bd 2bab 4cbd 1d1e 7b3e c400 8f3e
000001d0: 031f 90be e55b 913e f6ee 80be d3ab cb3e
0.13492358 -0.4020696 0.17864181 -0.3749558 0.2271706 -0.31965694 -0.033015452 -0.23162396
0.36487037 0.13947645 -0.10691286 -0.2603587 -0.33389208 0.2596635 0.07712124 0.19622779
-0.24209188 -0.030674813 2.887231e-05 -0.22054066 -0.29640296 0.18657106 0.1700666 0.11180505
0.020914136 0.38002634 0.009738645 -0.1956506 0.037163086 -0.29270494 0.29615945 0.27481568
-0.04430373 -0.21598892 0.06596758 0.38125318 -0.09439794 0.055781502 -0.00012381491 -0.094775476
0.0665629 -0.19085917 -0.16367383 -0.41959304 -0.25932002 0.174542 -0.15120466 -0.42426282
0.17425753 0.03570933 -0.4318841 0.108940296 -0.38456386 0.2242 -0.029507931 0.038830042
-0.19171047 0.124644876 0.05330579 -0.44890755 -0.14975505 0.0550719 0.45026305 0.4475579
-0.08273862 -0.03951595 0.121060096 0.41517037 0.3402982 0.37351954 0.25188744 -0.060849693
-0.00011553324 -0.036253795 0.01885035 -0.3372261 -0.28479442 -0.032324336 0.31546882 -0.0010470863
-0.11687956 -0.35095894 -0.1152437 0.34288678 0.06852658 -0.36880097 -0.13055709 0.38447717
-0.17235366 -0.078305334 0.13025779 -0.3910441 -0.26244766 0.025076983 0.40547162 0.36439446
0.30312693 0.24134865 -0.42111772 0.07054006 0.07684245 0.32059565 -0.34835562 0.053005125
-0.14870864 0.17011929 0.24452634 0.1701268 -0.021561831 -0.12463465 -0.08740359 0.38428083
-0.070910774 -0.049967926 0.24523206 0.27930272 -0.2814866 0.28390422 -0.25182313 0.3977953

weight_hh_l0 f4 [12, 4]
00000000: 2e08 eabb 28c8 8a3d d504 f93d 9113 bc3d
00000010: 62ce 89be 9647 dbbe 8b14 a5be 1597 0ebe
00000020: 49b2 823e ee72 e4be 4014 8a3e 7b3a 963d
00000030: 10fb f0bd 56d3 a9bd 9186 bdbc b7f7 22be
00000040: fb85 303e 0c26 a43e 3ef6 dd3e 59aa d4be
00000050: 263d c23d a168 01be ef7a e63e e29d 33bc
00000060: feab c13a 3f0b 66be fda8 783b 7701 0c3e
00000070: 1f6f 223e ef97 333e 2adc 0c3d eef1 71be
00000080: 9156 8b3e 2782 9e3e 601c bdbe fbf7 df3e
00000090: 9687 25be 5203 86bc 29fc 953e 9001 d8be
000000a0: 78a5 0a3e bfe7 95be f245 d3be 50df 63bd
000000b0: 0894 cdbe 1cac 88be a7b6 b4bb 6ef9 ddbe
-0.0071420884 0.06776458 0.12159125 0.091834195 -0.2691527 -0.42828053 -0.32242236 -0.1392482
0.25526646 -0.44618934 0.26968575 0.07335373 -0.11766636 -0.08292262 -0.023135455 -0.15914808
0.1723861 0.32060277 0.4335193 -0.41536215 0.094843194 -0.12637569 0.45015666 -0.010962935
0.0014775989 -0.22465228 0.0037942522 0.13672434 0.15862702 0.17538427 0.034389652 -0.23627445
0.27214482 0.30958673 -0.3693571 0.43743882 -0.16165003 -0.016359005 0.29293945 -0.42188692
0.13539684 -0.2927837 -0.41264302 -0.05563289 -0.40152 -0.2669381 -0.005514938 -0.43354362

bias_ih_l0 f4 [12]
00000000: 4274 01be f903 e63e 71ca dc3e ecf1 bfbe
00000010: 78b5 8f3e 8069 cc3e 7108 873e ba86 403e
00000020: 09e2 433e c889 b33e b944 c23e 2c89 c3be
-0.12642005 0.44924906 0.431232 -0.3748926 0.28068137 0.3992424 0.26373628 0.18801394
0.19129194 0.35066056 0.37943056 -0.3819059

bias_hh_l0 f4 [12]
00000000: ceb1 833e 9ccb b83e 2ace a03e 608e c73e
00000010: 52e8 fabc bdb4 ac3e 2b30 853d b983 3a3e
00000020: 8872 88be e623 ab3e 706f b2be da94 86be
0.25721592 0.36092842 0.3140729 0.3897581 -0.030628357 0.33731642 0.06503328 0.1821431
-0.2664988 0.33425826 -0.34850645 -0.2628544

weight_ih_l0 f4 [12, 14]
00000000: 21e8 3fbe 2d65 a13e 6635 83be c846 4cbe
00000010: 5883 48be 384a d03e 93e6 aebe 6e5c 74bd
00000020: e83f 90be 760f c1bd 736a 923d c7a0 e4be
00000030: 976b 76bb 65c6 bc3e 0308 e63e f194 da3e
00000040: 44ed 9ebd 792f e63d 290a cd3c d774 9cbe
00000050: 2162 c2be 00de 92be 04ea b03d 394f 6f3d
00000060: a367 4dbe cbda 6d3e 6523 143d 6da9 aa3e
00000070: 1552 41be beaa d53d 97fd 42be 6b8b f53c
00000080: 9c32 86be 834d 3bbe 4d27 a93e 0ef8 fbbd
00000090: 5419 323e 6d57 a33e 800c 6b3e 6988 d43e
000000a0: db61 053e 3cc6 c63d a1fb dbbd 730f 9f3e
000000b0: 1a9b 9a3e bd11 a53e e1aa 0d3e fc3b 72bd
000000c0: 1d9d d1be a214 033e 2c8d e8bd b488 2abe
000000d0: 6fc8 babe d700 81bd 05d2 903d d9a2 7c3e
000000e0: 4a9f d0be b5a7 b1be 9e2b dcbc 1201 e73e
000000f0: d574 433e c5dc ac3d de8c ce3e 3ee7 093d
00000100: 2d1c 11be 2bf0 483c 00f9 d93e 4388 cb3c
00000110: 702c 5bbb d64d 2abd 2820 9bbd dee8 9abe
00000120: eb5c be3e 2bcf 84be 8545 053e 0b7f 0b3e
00000130: ea64 a9bc 7e28 f2bd 0bde b0be ab4c d13e
00000140: 7969 a33e b874 ef3c 034e b9be a853 8c3e
00000150: 60dd e23e 84d6 97be dc69 5d3e fab5 873e
00000160: 3351 5f3e 393c f53e 93e3 91be 8b25 563e
00000170: d34f 403e a7d2 533e 7d30 8b3e 5f11 c9bd
00000180: 8ae8 e33e 5820 9f3e b1fb e43e 1651 0a3e
00000190: b44d 00be 3e31 26bd 5400 893e 2578 86be
000001a0: 7d74 c93e 5774 983d d1fd c6bc 1ae6 943e
000001b0: e4a9 b5be 1efa 9c3e bcf4 e1be 15b8 7abe
000001c0: 5dc6 c2be 8cd4 03be 695e ca3e e80e ca3e
000001d0: 0534 45be acf0 6cbd 1181 48bd fba1 9e3e
000001e0: b441 bf3e c480 353d ac39 803e e25e fa3e
000001f0: 2f09 99be 6665 503e 6256 b6be aede f53e
00000200: f984 783b 6d88 8dbe d930 bd3e ce6e e53d
00000210: 2527 9fbe 517b cc3e ba6e d83e a205 47bd
00000220: 4bc4 9dbe 5dc3 403d 0cfd 4339 f8ed c73b
00000230: 2efb 3b3d 1c87 ddbe 200d be3e f335 863e
00000240: ce83 393e d786 1c3e 2738 693e 3057 a93d
00000250: e646 7d3c 80f6 3c3e b095 c33d 197c 86be
00000260: 4383 ac3e 4e4a 993e e629 8c3e c556 8e3e
00000270: 9f82 8fbb 6a08 96bc 5f4c 8abe 86a0 933e
00000280: 1713 203e bf56 0a3e 7848 923e e711 d0be
00000290: 3a69 a23e 2277 ee3e 98e3 04bc c327 fbbd
-0.18740894 0.31522503 -0.25626677 -0.19948876 -0.19581354 0.40681624 -0.3416029 -0.05965846
-0.28173757 -0.09426777 0.0714921 -0.44653913 -0.003760075 0.36870113 0.44927987 0.42691758
-0.077600986 0.112395234 0.025029259 -0.30557892 -0.3796549 -0.28684998 0.08638385 0.058425162
-0.20059066 0.23227994 0.036166567 0.33332387 -0.18878968 0.10432957 -0.1904205 0.029973706
-0.26210487 -0.18291287 0.33037797 -0.12303172 0.17392474 0.31902638 0.22953987 0.41510323
0.1302561 0.09705779 -0.10741354 0.31066474 0.30196458 0.32240096 0.13834716 -0.059139237
-0.4094018 0.1280084 -0.113550514 -0.1665371 -0.36481044 -0.06298988 0.07071308 0.24671496
-0.40746528 -0.34698263 -0.026876267 0.45118004 0.19087537 0.08440546 0.40341848 0.033667795
-0.14170904 0.012264292 0.42572784 0.024845248 -0.0033443235 -0.041578136 -0.07574493 -0.3025579
0.37180266 -0.25939307 0.13014801 0.13622682 -0.020678002 -0.118241295 -0.34544405 0.40878806
0.31916407 0.02923046 -0.3619233 0.27407575 0.4430952 -0.2965585 0.21622413 0.26506025
0.21808319 0.4789751 -0.28493938 0.20912759 0.1878045 0.20685826 0.2718543 -0.098177664
0.4451335 0.31079364 0.44723275 0.13507494 -0.12529641 -0.040574305 0.26758063 -0.26263538
0.39346686 0.07444065 -0.024290951 0.29081804 -0.3548118 0.30659574 -0.4413203 -0.24484284
-0.38041964 -0.12874049 0.39525154 0.39464498 -0.19258125 -0.05784671 -0.048951212 0.30982956
0.37354815 0.044312254 0.25044 0.48900515 -0.2988982 0.2035118 -0.3561278 0.48021454
0.0037921055 -0.27643147 0.3695133 0.11202775 -0.31084552 0.39937833 0.42271978 -0.048589356
-0.30813822 0.047061313 0.00018690916 0.006101366 0.04589384 -0.43267143 0.3711939 0.26213035
0.18116686 0.15285812 0.22775327 0.08268583 0.015458798 0.18453407 0.09550035 -0.26266554
0.33693895 0.29939502 0.27375716 0.27800575 -0.004379585 -0.018314559 -0.27011392 0.28833407
0.15632282 0.13509654 0.28570914 -0.40638658 0.31720906 0.46575266 -0.008110903 -0.12263443

weight_hh_l0 f4 [12, 4]
00000000: 8ef7 dfbe 8acb 5d3d d506 e4bd 597d a43e
00000010: 6920 d03e 2f27 55be d27a acbe 8a60 b73e
00000020: c113 91be 9909 cf3e 385f d33e e7b3 28be
00000030: 7863 ebbe ec6b d4bd ddbb 91bd ab10 743e
00000040: cd4a b23e 5b82 84be e454 c2be 5913 903e
00000050: c383 55bd 7d76 83bc 895b 67bd 70bb 2a3b
00000060: f2da 91be 5041 833d b63b cabe d505 293e
00000070: 2794 7d3c 940e df3d 1e4f ddbe 4d23 bb3e
00000080: 48ea b2be 71f3 c3be 6721 c83e 5794 723e
00000090: 6f79 5cbe 6039 5b3e b949 8dbd ae0c b7be
000000a0: 2d0f 8cbe a295 87be f19c 253e bbd9 68be
000000b0: 4f27 073e 0630 873d 5d3f 5fbe 3f76 97bc
-0.43743557 0.054149188 -0.111341156 0.32126883 0.40649727 -0.20815729 -0.33687454 0.3581584
-0.28335384 0.4043701 0.41283584 -0.16474877 -0.45974326 -0.10372147 -0.0711591 0.23834483
0.34822693 -0.25880703 -0.3795539 0.2813976 -0.05212761 -0.01604771 -0.05648378 0.0026051663
-0.28487355 0.06408942 -0.3949868 0.16506131 0.015477217 0.108914524 -0.43224424 0.3655037
-0.34944367 -0.3827167 0.39087984 0.236894 -0.21530698 0.21408606 -0.06898827 -0.3575186
-0.27355328 -0.26481348 0.1617315 -0.22739308 0.13198589 0.066009566 -0.21801515 -0.018489001

bias_ih_l0 f4 [12]
00000000: 4ff4 e2bd d23d 093e c1e6 883e fbf3 443e
00000010: 15c7 aabe 9c05 a33e 0722 0f3e 76e6 bdbd
00000020: 7914 f9be b39e 3b3e b59f 7f3d a850 5f3e
-0.110817544 0.13402489 0.2673855 0.19233696 -0.33355013 0.31840217 0.13977824 -0.092724726
-0.48648432 0.18322258 0.062408168 0.21808112

bias_hh_l0 f4 [12]
00000000: 507b 87be 4d05 acbe 9d90 edbe 1fec 27be
00000010: cf5c 373e e1fb d7bd bcdf a63b cfdb 9c3e
00000020: 7282 29be 9d1b 613e a2f2 4ebc adc0 dcbe
-0.26461267 -0.33597794 -0.46399394 -0.16398667 0.17906497 -0.10546089 0.005092589 0.3063645
-0.16553667 0.2198319 -0.01263109 -0.4311575

weight_ih_l0 f4 [12, 24]
00000000: 666b af3e a444 8abe a9fe 01be 5083 ce3e
00000010: 69f8 a8be f20c acbc 8965 ccbe 92c6 ca3e
00000020: b83d f03d 43a6 74be 1ca5 4fbe 259c 0ebe
00000030: 2ab2 4ebe 561c afbe ad45 c7be f4ca 883e
00000040: 2f76 893e 5808 ba3e 1b8e 43bd 671c 3a3e
00000050: 659c 693e b0d4 88be 5e98 b0bd 9a8a 8dbe
00000060: ae39 e03e 71b7 2dbe 4ac5 3a3e 6ea1 b33e
00000070: da6a acbd 217b 833e 8dc8 ac3e ce33 053e
00000080: 263f 89be 9788 8f3c b424 abbe 0587 c3bd
00000090: b05a b43e 4035 90bd d156 c5be c396 3f3e
000000a0: 72ac fbbd 7b1b 8e3e 776d 503e 73c5 e03e
000000b0: 945f 18bd cbd1 c7be 2b58 1e3e d1c2 593e
000000c0: d43b d73d 8942 ad3e 3bac e5bb e26c 953e
000000d0: 55ce 843d de42 c3be a40c d8bd 0aa1 9bbd
000000e0: df0e 123e ee72 dc3d 0be8 dbbc fbe1 afbe
000000f0: 8f3d b1bd 3c7a e6be ef91 56be beb1 42be
00000100: 6ffe 5c3e 0b18 563e a67d 893e e853 d7be
00000110: 6ddd 05be c43a bdbd 2fe1 b5bd 7c60 e4be
00000120: 12dc 0bbd 536a b9bd 0ef9 d73e 5082 70bc
00000130: 80ca a63c 4299 ce3e e3c2 e6bd db6a cb3d
00000140: 8347 3d3e 1a84 d5be aa2f 1bbe 4cef 10bc
00000150: 61df 3bbe 31ec a33e b655 a2be 8fb4 513e
00000160: 4818 babe 3568 a93e 9828 6b39 3057 9b3e
00000170: 26a7 cf3d 05e9 71be d5ff 24be e0f9 6cbe
00000180: 6050 34be e94a d73e ee4e da3e ab77 c53e
00000190: 7273 c5be 325e 7ebe 8238 193b 8778 6a3e
000001a0: ff35 a23e f435 e4bd acc7 803e 14ad 98be
000001b0: bfe4 e0be cbcf 683e e5a5 1cbe ed6d 0a3e
000001c0: d559 1d3c 229c 30be 3ceb d9be c1ab c73e
000001d0: de94 8b3e 0588 363c 46cc 35bd 81f9 04bd
000001e0: 4464 d63e 687b a23e 7b22 e6be 3c7c a7bc
000001f0: 247d 823d 82f0 b33e b8b0 a43e 9a1a fdbb
00000200: 0451 633d 7ad6 d0bd cbcd 6bbd d8b6 dabd
00000210: 3fc3 983e 643f a93e fa43 a73e 8170 13be
00000220: 46dc a93e fde6 e83e 19c0 c73e 5cee b3be
00000230: 7816 9dbd 997d dc3e 0eb0 f1bd c8d5 a7be
00000240: 89e2 d3be 2e6f 2fbe 6ee6 363a 4960 893e
00000250: 1764 b3bd 2d90 b1be fa89 e03e 604e bc3e
00000260: 7151 7f3e 2186 95be 0061 dd3d 64f6 8dbe
00000270: 214f 47bd 46b1 cdbd 4e88 98b7 a37b d2be
00000280: 772c 203e 1827 de3e f7c8 36be ed15 803d
00000290: 9c7d d3be f341 843e 068b a9be 09dc bcbc
000002a0: 085a 0bbb b97c 2bbe 6580 9c3e b4c2 e3be
000002b0: 77fd 593e 6c4d cabe 72d6 d73e e657 d5be
000002c0: 16f9 d239 36db f73d 691e d53d 8802 dbbe
000002d0: da42 d73e b5d6 c1be 01d7 b53e a6a0 513e
000002e0: cd56 48be f321 42be 262d a2be fde9 58be
000002f0: c4bb e33e cde1 b03e 7852 173c 62fd 8a3e
00000300: 1ef9 f4bd eadc 97be fc05 e6bd 5342 2c3e
00000310: 7a6c 90be 33c4 4dbe f239 9cbe 09b9 b43d
00000320: 7218 af3e d79c bebe 8b79 3cbe 0f3c 853d
00000330: bc73 37be d5c0 443e 69e3 a73c 39ee 82be
00000340: d8e4 55be da8a 3dbd d2ba 383e f550 883d
00000350: 1cb0 bbbe 80a7 edbe ac59 863e 3b81 ae3e
00000360: 9531 40be f669 773e e2b6 9ebd 09a0 d83e
00000370: 60f4 683e bf8d 60be 6467 bbbd b21b efbd
00000380: 9d8b c7be 8f07 1b3e 8593 9a3e 076b 44be
00000390: 40c6 8cbd 6c5b bcbd 4475 34be 275b df3d
000003a0: 74e3 e73e 9361 b93e 0cb4 03be 40bf 4fbe
000003b0: 69d9 753e fadb 1dbe fa2e e2bd ac75 e93e
000003c0: e182 a13e b93c c0bd fecb 843b 8524 bb3a
000003d0: ba74 bdbe b731 dabe be66 abbe 220f c93e
000003e0: 9fcf cb3e f1c7 363e 6e72 69be ade1 b5be
000003f0: 91f0 813d 7952 c83e 2d59 b1be 8ad9 953d
0.34261626 -0.27005494 -0.12694801 0.40334558 -0.33002022 -0.021002267 -0.39921215 0.39604622
0.11730522 -0.23891549 -0.20277828 -0.13926752 -0.20185152 -0.34201306 -0.38920346 0.2671734
0.2684798 0.3633449 -0.047742944 0.18174897 0.22813566 -0.26724768 -0.08622812 -0.27644807
0.43794006 -0.16964509 0.18239322 0.350841 -0.08418818 0.25679877 0.33746758 0.13008043
-0.2680599 0.017521186 -0.3342644 -0.09547237 0.3522544 -0.07041407 -0.38542798 0.18709855
-0.12288751 0.2775534 0.20354258 0.43900642 -0.037200525 -0.39027247 0.15463321 0.21265723
0.10509458 0.33839825 -0.007009057 0.29184633 0.06484667 -0.38136953 -0.10549286 -0.07599075
0.14263485 0.107641086 -0.026844045 -0.34352097 -0.086543195 -0.45015132 -0.20954107 -0.19013116
0.21581434 0.20907609 0.26853675 -0.42056203 -0.13072748 -0.09239724 -0.08880841 -0.44604862
-0.034145422 -0.09053483 0.421822 -0.014679506 0.020360231 0.403513 -0.112676404 0.099324904
0.18484311 -0.41702348 -0.15154901 -0.008846115 -0.18346931 0.32016137 -0.31706017 0.20479034
-0.3634665 0.33087316 0.00022426469 0.30339956 0.10139303 -0.23624046 -0.16113217 -0.23142195
-0.17608786 0.4204934 0.42638344 0.38567862 -0.3856464 -0.2484062 0.0023379629 0.2289754
0.3168182 -0.11143103 0.25152338 -0.29819548 -0.4392452 0.22735517 -0.15297659 0.13518496
0.009603937 -0.1724706 -0.42562282 0.38998225 0.27262014 0.011140828 -0.044384263 -0.032464508
0.41873372 0.31734776 -0.44948182 -0.020444982 0.06371525 0.3514443 0.32166076 -0.0077241184
0.055497184 -0.10197158 -0.057569306 -0.10679406 0.2983646 0.33056176 0.3266905 -0.14398386
0.33175868 0.4548873 0.39013746 -0.3514279 -0.07670301 0.43064573 -0.11801158 -0.3278029
-0.4138377 -0.17132255 0.0006977086 0.26831272 -0.08759325 -0.3468031 0.43855268 0.36778545
0.24933411 -0.29203895 0.10809517 -0.27727044 -0.048659448 -0.10043578 -1.8183284e-05 -0.41109952
0.15641962 0.433892 -0.178501 0.06254182 -0.4130677 0.25831565 -0.3311388 -0.02305414
-0.002126338 -0.16746797 0.30566707 -0.44484484 0.21288095 -0.39512193 0.42155796 -0.41668624
0.00040239905 0.12102358 0.10406191 -0.4277537 0.4204319 -0.3785912 0.35515597 0.20471439
-0.19564362 -0.18958263 -0.3167507 -0.2118301 0.4447919 0.34547272 0.009235971 0.2714644
-0.11961578 -0.29660732 -0.1123161 0.16822176 -0.2820776 -0.20094375 -0.3051296 0.08824355
0.34198338 -0.37229034 -0.1840574 0.06505596 -0.17915243 0.19214185 0.02049418 -0.25572374
-0.20888078 -0.046274997 0.18040016 0.06656066 -0.36657798 -0.46416855 0.2624029 0.3408297
-0.18768914 0.24161515 -0.07749726 0.42309597 0.22749472 -0.21929072 -0.091505796 -0.11675204
-0.38973704 0.15139602 0.30190673 -0.19181453 -0.06873751 -0.09197125 -0.17622858 0.10906058
0.4529072 0.36207256 -0.12861651 -0.202878 0.24008717 -0.15415946 -0.11044116 0.4559759
0.31545165 -0.09386582 0.004052638 0.0014277851 -0.37003118 -0.42616054 -0.33476824 0.39269358
0.3980684 0.17849709 -0.22797558 -0.3552374 0.063447125 0.39125422 -0.34638348 0.07316883

weight_hh_l0 f4 [12, 4]
00000000: b5ad 9b3b 9bf9 5c3e 50bc 9c3e 7362 ce3e
00000010: d815 68be 7866 c43e dc75 28be 77bb 5d3e
00000020: 9dc4 353b 6ff8 e63e de0f 933e ad53 2d3d
00000030: 23fd c73e 1863 54be 0303 a0be 65ee 9fbe
00000040: 8947 35bd 16b5 df3e 3827 41be 2acb 713d
00000050: 7f2c 193e a871 b8be 4b75 26be 2b35 29be
00000060: b612 243e 76ff cbbe 87be 8c3d 0a5b b63a
00000070: 3c4a 12bd ef7a a73c c854 d3be fbf0 a7be
00000080: 13b4 cabe 7c77 80be 7e67 2d3d f4ad b8be
00000090: cfc8 48be 8e76 933e 160a 99be 075a 533e
000000a0: 92b3 9a3e 7f3a 50be 43c4 bbbe cf97 a93d
000000b0: 01d0 82be 2ffa eabd 82b2 053d 1899 3c3e
0.004750932 0.21579592 0.3061242 0.40309486 -0.22664583 0.38359427 -0.1645121 0.21653543
0.00277356 0.45111415 0.28723043 0.042316128 0.39060315 -0.20740926 -0.31252298 -0.31236568
-0.044257674 0.43692845 -0.18862617 0.059031643 0.1495838 -0.36024213 -0.16255681 -0.16524188
0.16022763 -0.3984334 0.06872278 0.001391263 -0.035715327 0.020444361 -0.4127562 -0.3280104
-0.3959051 -0.2509116 0.042335026 -0.36070216 -0.19607852 0.28801388 -0.29890507 0.20639811
0.30215126 -0.20334814 -0.36673173 0.08280908 -0.2554932 -0.114735 0.03264094 0.18417776

bias_ih_l0 f4 [12]
00000000: 7249 bebe 1f97 82be c043 193e e9bf c2be
00000010: 8c0c 50be c59e debe 3dd0 34be 29cd 4abe
00000020: 7768 c7bc cbf2 2b3e 91cd f13e f0a1 80be
-0.3716541 -0.2550592 0.14967251 -0.3803704 -0.20317286 -0.43480507 -0.17657562 -0.19804825
-0.024341805 0.16791837 0.47227147 -0.25123549

bias_hh_l0 f4 [12]
00000000: 8487 88be 490c 533d 1af7 843e 1dcc 36be
00000010: 182f 673d 3b35 1e3d c44f 20be dec5 fbbd
00000020: 0c7a a9be 53e0 5b3e 02c6 923e 9284 7dbe
-0.2666589 0.051525388 0.25969774 -0.178513 0.056441396 0.038624983 -0.15655428 -0.122935995
-0.33100927 0.21472292 0.28666693 -0.24757603

weight f4 [4, 4]
00000000: b7eb a8be e22c abbe 0361 b8be 75d5 7a3d
00000010: e8f2 eebe 4f53 9cbe 76b1 1d3d 921f d13e
00000020: 7c63 d43d 1ec2 3cbe 9120 27be 60e4 963d
00000030: 1731 753e 9cbe 98be 8fae 7a3e 8b01 e33e
-0.32992336 -0.3343268 -0.36011514 0.061238725 -0.46669698 -0.3053231 0.038499318 0.408444
0.10370538 -0.18433425 -0.16321017 0.07367778 0.23944508 -0.29832923 0.24480651 0.44337115

bias f4 [4]
00000000: 590b 9fbe bd70 a03e 3afe ccbe 2cc4 28bc
-0.31063345 0.31336012 -0.4003771 -0.010300677

weight f4 [320, 8]
00000000: 97a5 cd3d ec49 283e 8252 8c3e b334 9abe
00000010: be69 16be dac6 1c3d 4a1c 3dbd f50d b5bd
00000020: aacc 4f3b 733a 1e3e 8f8b 76be 551b efbd
00000030: e2d5 15bc 7d26 003d fca4 0dbe b6ce fd3b
00000040: c582 95be 4d78 ff3c ad33 6abe bf5e a93e
00000050: e7ac 73bd 1c7e ab3d d227 97be 6e81 8dbb
00000060: ad8f ff3d 7254 83be fd73 ba3d 7a74 793e
00000070: af12 64bd cff6 823b 561a 5f3c 5937 4c3e
00000080: 9bab 80be 399d 893e 462b 66be 7709 023e
00000090: cd34 25be 18ef 8abe 062e 8ebe c52b bfbd
000000a0: 12df 543e 6faa 9dbe a99a 0b3a 0554 56be
000000b0: 3763 85be 0771 143e 2625 21be 39a0 d53d
000000c0: 4363 f93d b8b7 89be 6367 e4bd 4508 6b3e
000000d0: 5946 eabd 081b 53b9 cb8f 41be 3773 983e
000000e0: a214 16bc 67ed 25be 411b 09bb 5630 833d
000000f0: c267 33be 7ca6 8c3e 8b32 513d 2572 5e3d
00000100: 3293 253e a2d9 94be bbf5 923d ba7c 4abd
00000110: ed74 8f3d 16aa 003d c276 12bd fcec 093e
00000120: 5984 1ebe e2f4 873e ab51 043e 8981 0ebe
00000130: be71 5fbe 1cdb da3d c6d5 983e e7b4 27be
00000140: adad f73d 356f acbd 4b0e 7d3d 2b63 cc3d
00000150: f8e5 583e 979c 9abe 632f 853e 32c5 873e
00000160: db6b b03d 149b e03a 4cad 873e 456d 96bd
00000170: ce87 7fbe 8318 9d3d 5ff6 abbd fc77 a13e
00000180: d7a0 263c 3519 75be 1ad4 143e 2d11 933e
00000190: 2c6a a93d 9806 1c3c 9dac 3fbe bdfe 303e
000001a0: aa49 dc3d 1301 103e 8b71 963e 4413 473e
000001b0: 9a12 623e 0824 993e 3c97 393e c508 243d
000001c0: 1841 96be 8ba8 9f3e f650 84be a687 54be
000001d0: a84e a03e 3e9c 02be acc7 153e 1902 52bb
000001e0: 68f6 c5bc 0f8d 47bd 0800 76bd 9707 5dbe
000001f0: 52e0 78be 56e3 533a bb03 353e 2daf 8dbc
00000200: ff11 5dbe d2bf 97be 5f6d 7a3e a331 63be
00000210: b672 2f3e 2823 533e 8131 313e dae1 f93d
00000220: f081 4cbe f024 583e de04 55be 51a3 9e3e
00000230: 69d2 0dbe 3ac9 493d 836e 98be 0934 d23d
00000240: d6c9 993d fcc4 3e3d c772 28be 22cc 14bb
00000250: cbaf da3d b5bd b43d 3946 26be 30e8 b2bd
00000260: 947d 273d 6d0e fb3c b6ee 3d3c 0be5 9dbe
00000270: 40c4 90be ef08 b03e f60d aebe cb43 103e
00000280: 3ebb 61be 4a56 96bd 3fcd 283e 5133 adbd
00000290: fbfc 9fbe 74ed 143e 457b 953e 8679 73be
000002a0: 228e 08be bb6c b2bd 6b88 453d 87d4 893c
000002b0: 3ab8 043e 0006 f2ba 66e2 a7b8 21de 363e
000002c0: fa70 143e 909f c339 b099 b3bc 9592 663d
000002d0: 0f2b 783e 3ff8 2ebe 75bc b63a eb48 f9bd
000002e0: d2d6 f93d f7e0 13be c31e ebbc 1275 15be
000002f0: cf07 c9bb 9b6a 7bbe 1a38 a5bd a168 813e
00000300: aa95 c43d adaf a5bd 1c70 023d 3758 063e
00000310: b335 9fbe 5cee 263e de13 48be 6c2e 7bbd
00000320: c2d4 eabc c381 2f3e 91d0 31be 28ee 173e
00000330: 046f 353e 0a6e 87be 3880 0f3c d5c3 b2bc
00000340: 8d68 29bd 16af 38bd a7d5 103c f4a6 6f3c
00000350: 2ed2 2b3e 8cc7 963e d06c 883e 4cbd 4bbe
00000360: 7218 06be 6719 4dbe 4bd3 b8bd cb46 383c
00000370: 0858 68be ddc3 3abe 0d91 e63d c8be 8ebd
00000380: 2e8c bdbb 2d2b e9bd 54de 2dbe c77b 513e
00000390: 2136 003e 2ff7 4abd 5fcc f3bb 4f32 5dbe
000003a0: 343a 87be 0722 b7bd f9fd 2bbd 09fa 6dbe
000003b0: 054d 793d 5606 b33e 4618 923d a422 593e
000003c0: bac6 413d d6f0 81be 4f50 253e 1ff7 4ebd
000003d0: 9842 8e38 b29b 413d 75e9 71bd 0b3e 723e
000003e0: 8f12 bfbd 7c81 cc3d 52f0 983e aadf 66be
000003f0: f739 2e3e e4f5 b6bd 04e1 9dbc f190 dc3c
0.100413494 0.16434449 0.27406698 -0.3011833 -0.14688775 0.038275577 -0.046169557 -0.08840553
0.0031707683 0.15451984 -0.24076675 -0.11675135 -0.009145232 0.031286705 -0.13832468 0.007745589
-0.29201332 0.031185294 -0.22871275 0.33080098 -0.059491064 0.08373663 -0.29522568 -0.0043184077
0.12478576 -0.25650364 0.09104154 0.24360839 -0.05568188 0.003996707 0.013617119 0.19942988
-0.25130925 0.26877764 -0.22477445 0.12698923 -0.16133423 -0.2713554 -0.27769488 -0.0933452
0.2078822 -0.30794093 0.00053254754 -0.20930488 -0.26052257 0.14496242 -0.15736827 0.10430951
0.12177136 -0.2689798 -0.11152532 0.22952373 -0.11439199 -0.00020132598 -0.18902509 0.29775402
-0.009160193 -0.16203843 -0.0020920786 0.06405704 -0.17520049 0.27470767 0.051073592 0.054308075
0.16169432 -0.2907229 0.071757756 -0.049435355 0.07004724 0.031412207 -0.035757788 0.13469309
-0.15480174 0.26554018 0.12921779 -0.13916601 -0.21820733 0.10686323 0.29850596 -0.16377603
0.12093673 -0.084196486 0.06178121 0.09979852 0.21181476 -0.30197594 0.26012716 0.26517636
0.08614322 0.0017136061 0.26499403 -0.0734506 -0.24954149 0.07670691 -0.08396601 0.31536853
0.010170183 -0.23935397 0.14534035 0.28724042 0.08272204 0.009523056 -0.1871819 0.17284675
0.10756238 0.1406291 0.293835 0.19440943 0.22077408 0.29910302 0.18124098 0.040047426
-0.29346538 0.31183276 -0.25843018 -0.20754871 0.3131001 -0.12754914 0.1462695 -0.0032044707
-0.024165347 -0.04871851 -0.060058624 -0.21584927 -0.24304321 0.0008082887 0.17677204 -0.017295444
-0.21588896 -0.29638535 0.24455784 -0.22186904 0.17133602 0.2061888 0.1730404 0.12201281
-0.19971442 0.2110784 -0.20802638 0.30983976 -0.13849796 0.04926417 -0.29771814 0.10263831
0.075092 0.046574578 -0.16450034 -0.002270468 0.10678061 0.08825246 -0.16237725 -0.087356925
0.040891245 0.030646527 0.011592558 -0.30838808 -0.28274727 0.34381816 -0.33995026 0.14088361
-0.22044083 -0.07340677 0.16484545 -0.084570535 -0.31247696 0.14543706 0.2919561 -0.23776826
-0.1333547 -0.08712145 0.0482258 0.016824974 0.12960902 -0.0018464923 -8.0053505e-05 0.17858173
0.14496222 0.00037312182 -0.02192387 0.056292135 0.24235176 -0.17086886 0.0013941663 -0.12172111
0.12199177 -0.14441286 -0.028701192 -0.1459544 -0.006134964 -0.24552386 -0.08067341 0.25275138
0.09598859 -0.08090148 0.031845197 0.13119589 -0.31095657 0.16301864 -0.19538829 -0.06132357
-0.028665904 0.17139344 -0.17364718 0.14836943 0.1771813 -0.2645114 0.008758597 -0.021821896
-0.041359473 -0.04508885 0.008840001 0.014627207 0.16779396 0.29449117 0.26645517 -0.1989643
-0.13095263 -0.20029221 -0.09024676 0.011247347 -0.22689831 -0.18238778 0.11258135 -0.069699824
-0.005784533 -0.11385188 -0.16979343 0.20457374 0.12520649 -0.04955214 -0.0074401344 -0.21601222
-0.26411593 -0.08942037 -0.041990254 -0.23239912 0.060864467 0.3496577 0.07133536 0.2120462
0.04730866 -0.25379056 0.16143917 -0.05052864 6.783492e-05 0.047267623 -0.059060533 0.2365648
-0.09329712 0.09985635 0.2987085 -0.22546259 0.170143 -0.08933619 -0.019272335 0.026924582

bias f4 [320]
00000000: 657d 733e 89ff 13be 87ac 803c c791 773d
00000010: 366c 54bc b84c 633e 6e4e 4ebd 6526 05be
00000020: 9d73 543e bb11 f7bd 7d8c ae3b ff00 423e
00000030: 4ed8 81be 097e 5abe 41a7 18be 5b25 e1bc
00000040: 6566 64bd 491f b13e 298a c03d c963 1c3e
00000050: 1dcb 0fbe 5026 76be 3822 5ebe 623a 613e
00000060: d1eb 443e c198 c6bd 903a 933e 3cfc df3c
00000070: 8f14 33bd a63d 543e ac81 5439 ccd2 7bbe
00000080: e2cf 59be 4517 863e c16b 19be ab0b 963e
00000090: f6bf 90bd e0f7 b03e 4b61 a9bd f528 133d
000000a0: de5c 63be c032 83be a472 f9bd d0dc 6e3e
000000b0: 0e63 523d de67 7c3e c16f 65be ec83 25be
000000c0: 9d18 c3bd 7d43 763e 86be fbbb aec5 54be
000000d0: 3d0a 853d c8e5 d23d 0ff2 5d3e 468f 1cbd
000000e0: 6e05 90bd e07e 1c3e af5e 5dbe 1276 9abe
000000f0: 3834 7bbe d4a3 97be 4bed 433e 73b6 b0bd
00000100: 2ee3 ad3e a4e1 e63d 703a f4bd 1ecd 3ebe
00000110: 230e 313d 1e50 8a3e 74e5 8c3c 607c 0ebd
00000120: df93 923e b326 e8bd c632 4abe 195a 073e
00000130: a63a c1bd 0086 04be b050 a23e 3e2f bdbd
00000140: da1c fb3d 47d1 b6bd 9254 913e 5f87 e3bd
00000150: 0036 99bd 7104 863e edf7 7dbe 5102 69be
00000160: 598b 65be 3cd4 283d 34f1 4a3e 7c5b 00be
00000170: 4a10 57be 19b7 92be 8cde 303e fc96 a53e
00000180: bc3d 19be 2dff 2bbc f3f7 8abe 7817 983e
00000190: 9f85 aaba 3e6b 013d 474f 8abe b477 893d
000001a0: 3955 2f3e ed19 003e 205c 3b3c 1525 54bc
000001b0: b9d9 8dbe 78c7 9b3e 4aa2 eabd 1e0f 3a3c
000001c0: 26b8 ffbd bd3f a53e 6223 913e c0d9 af3e
000001d0: 905f 9b3e 260e 4c3e 334f 37be 8c04 3b3e
000001e0: c544 303e c07d a63e 37df a23e 05f9 69be
000001f0: 6ce0 4cbe ef37 9e3b 4623 84be 4931 0d3e
00000200: a032 ca3c 18bd d0bd 3d15 013e fe2e 22be
00000210: 5b1a 4b3e 2158 de3d d9ad 68be d53a 083e
00000220: a46c 1f3e 2fad 07be c96b b5bd 88b2 bfbd
00000230: 5d3c 81be 350e e53d 1b16 be3d 0f5e 66be
00000240: 49dd 623e ec6b ac3e f4a1 373d 714b 89be
00000250: 3d50 26bd 4bed 95be d1cc 99bd 7cf9 363c
00000260: 1440 653e 5d5a 763d d345 793d ea1f 91bd
00000270: 0c49 933e 482f 03be dbac 84be 1d76 8bbe
00000280: 3db5 ab3e 5422 cc3c 2ed9 923e 4ad1 0bbd
00000290: bb84 47be 7978 1fbe 5b21 e5bd 0357 09be
000002a0: fe31 f93c 343d 3e3e 6d67 463d d75a 443e
000002b0: 9953 77be 7c0f debd 0dc9 8d3e a6fd eabc
000002c0: 20d1 993d 727f 26be 0ad4 603e 6508 963e
000002d0: f349 b33d f597 b03e fbe4 983e 1aed 85be
000002e0: 1368 3dbe 06dc 913e 36ed 533e 367f 0cb9
000002f0: a166 dc3d aaee f03c 2ce5 2c3e 3398 a9be
00000300: 864b af3c bacb 92be 36ca 14be d104 a23e
00000310: 4c9f 473e d3c6 68bd b100 bebd c3f4 713e
00000320: 6574 0cbe e36c 93be fab0 1abb 6ba7 a63e
00000330: c6d6 8dbe 84dc 5abd 14ef 12bd 414d 713e
00000340: ea27 da3d 1a26 2dbe c918 313e 59ca f03d
00000350: bf8b bebd 80ba ad3e 7140 8e3e 0d60 f3bd
00000360: 5804 1a3e 6d4c 873e 2800 e2bc 9efa ad3d
00000370: 3490 0f3e 84d4 023e 1208 183d 29f5 953e
00000380: 2cbf 14be 7fe9 46be 3207 553d e6dc 833e
00000390: f781 563d 4e36 44be 5cb7 86be 8698 f3bc
000003a0: 8477 4abe fdec b1bc e380 273d 8a7d 5bbe
000003b0: 4640 823e 5474 b43e b330 c4bd 1702 8abc
000003c0: 947c 5cbd bf89 51be b588 813e 9621 693e
000003d0: b007 6a3e a240 89be 9e29 57be 9e43 0a3e
000003e0: a0fd e93c aa23 21be f019 2e3d 085c 44be
000003f0: 45a7 7e3e 93da 23ba 6288 4f3e c0da ce3d
0.23778303 -0.14452948 0.015707267 0.06044176 -0.012965253 0.22197235 -0.050367765 -0.13002928
0.20747228 -0.12063929 0.005326806 0.18945692 -0.2536034 -0.21337141 -0.14907552 -0.027483633
-0.055761714 0.3459418 0.09401352 0.1527244 -0.14042325 -0.24038053 -0.21692741 0.21994928
0.19230582 -0.09697104 0.28755617 0.027341954 -0.043720778 0.20726642 0.00020266202 -0.24592131
-0.21270707 0.26189628 -0.14982511 0.29305777 -0.07067864 0.34564114 -0.0827051 0.03592773
-0.22203395 -0.25624657 -0.12180069 0.23326421 0.051363997 0.24648997 -0.22405912 -0.16163605
-0.09526179 0.24049182 -0.0076826243 -0.20778534 0.064960934 0.102977335 0.2167437 -0.038222574
-0.07032286 0.15282774 -0.2161815 -0.30168205 -0.24531639 -0.29617178 0.19133489 -0.086285494
0.33962387 0.11273506 -0.119252086 -0.18632933 0.043226372 0.2701425 0.017199256 -0.034786582
0.28628442 -0.11335506 -0.19745931 0.13217963 -0.094350144 -0.12941742 0.31702185 -0.09237526
0.122613624 -0.08926635 0.28384835 -0.11109804 -0.07481003 0.26175264 -0.24801607 -0.2275479
-0.22416438 0.041218027 0.19818574 -0.12534899 -0.21002308 -0.28655317 0.17272395 0.32341754
-0.14964956 -0.01049785 -0.27142295 0.29705405 -0.0013009793 0.031596415 -0.2701361 0.06712285
0.17122354 0.1250989 0.0114355385 -0.012948294 -0.27705172 0.3042562 -0.114567354 0.011356143
-0.124862954 0.3227519 0.28347307 0.34345818 0.30346346 0.19927272 -0.17901306 0.18263453
0.17213733 0.32517815 0.31810924 -0.228489 -0.20007485 0.004828445 -0.25808161 0.13788332
0.024682343 -0.10192317 0.12605758 -0.15838239 0.19834273 0.10856653 -0.22722568 0.13303693
0.15568787 -0.13249658 -0.08858449 -0.09360224 -0.25241366 0.111843504 0.0928156 -0.22496818
0.22154726 0.33676088 0.044832185 -0.2681537 -0.040603865 -0.29282603 -0.07509769 0.01116788
0.22387725 0.06014477 0.060857605 -0.07086165 0.28766668 -0.12811005 -0.25913128 -0.2723855
0.3353671 0.024918713 0.2868132 -0.03413514 -0.19484226 -0.155733 -0.11188003 -0.13412099
0.030419346 0.18578035 0.04843848 0.19175278 -0.24152984 -0.10842797 0.27692452 -0.028685402
0.075105906 -0.16259554 0.21955886 0.2930328 0.08754339 0.34490934 0.29862198 -0.26157457
-0.18496732 0.28488177 0.20695958 -0.0001339883 0.107617624 0.029410679 0.16884297 -0.3312393
0.021398317 -0.28671056 -0.14530262 0.316443 0.1949436 -0.05683024 -0.092774756 0.23628525
-0.13716276 -0.2879401 -0.0023604021 0.32549605 -0.27702922 -0.053432956 -0.035872534 0.23564626
0.10652144 -0.16909066 0.17294611 0.11757345 -0.09303998 0.3393135 0.2778354 -0.118835546
0.1504072 0.26425496 -0.027587965 0.08495067 0.14019853 0.12776381 0.03711707 0.29288605
-0.14526051 -0.19425009 0.052008815 0.2575447 0.052370038 -0.1916134 -0.26311767 -0.029735815
-0.19772154 -0.02171945 0.0408944 -0.21434608 0.25439662 0.35245 -0.09579601 -0.0168467
-0.053829744 -0.20462702 0.25299612 0.22766718 0.22854495 -0.26807123 -0.2101197 0.13502356
0.02856332 -0.15736261 0.042505205 -0.19175732 0.24868496 -0.00062505266 0.2026687 0.10100317

weight f4 [4, 320]
00000000: e7e3 d33b 85ae a8bc 89ca 3338 f112 a6bc
00000010: d769 553d 59d2 e63b 4a9b 57ba e648 8dbc
00000020: 5d7b b1bc 1594 983c eb00 d23b 6231 83bc
00000030: 8e49 b6bb 029c 40bd 87b3 403c 7404 643d
00000040: 4b2a b83c 753f 1fbd 2cda 5a3d cd9b 2c3d
00000050: 3fa4 53bd 6a3a 863b a0cd 0c3b d514 353a
00000060: 708a 733c 0385 14b9 d6aa d6bc 4b70 c9bc
00000070: 8bb4 a93c f296 f13c 764e 9cbb 8e91 adb8
00000080: a82e a13c 217e 80bb 0830 08bc bedd 2e3d
00000090: 946b 613d ce9f 93bc e16c 4e3d ac78 48bb
000000a0: 80e8 543c 3d62 3bbb b81c 31bd 7ee2 80bc
000000b0: 1c88 663d 3e55 ecbc 5258 263c 7231 72b9
000000c0: 4de3 863c f02b 763d e8b5 b1bc d2d6 8b3b
000000d0: 861f c7bb 70f6 2dbd ef2a 01bd 5f23 603c
000000e0: 714a 0a3d 70f4 443d 3731 1bbc b308 2f37
000000f0: 5933 1f3d 6e2d 19bc 9e26 30bd 494c 15bd
00000100: 4ee2 123d 85e8 15bd 08f3 223c 048d a0ba
00000110: 02ee 2c3d 370a 11bd 23fc 4ebc c1c1 efbc
00000120: bb04 183d 29a9 473a 20b9 053a 04e0 353d
00000130: 8d9e 18bd 023f 30bd d7c7 6f3d 7478 393b
00000140: a8f2 113d 08a6 0abd d72c 023c 6392 853c
00000150: ace7 fbbc 2873 1b3d 0756 2b3d a21b 803a
00000160: 53e8 0fba 5d7f 1e3c 550e e93c e4d3 8dbc
00000170: 2e3f 223a 6dd1 b13a a139 2f3d 2eae 103c
00000180: 5742 96bb a8df 1939 7359 44bc 3cbf 103b
00000190: 682f 10bc 2b66 4dbd d04b e93a 10f8 d3bc
000001a0: b505 07bd a97f 4a3d 9e21 4c3d 55f3 a2bc
000001b0: 71f7 acb7 a6f7 5b3d 90ff 0dbc 2fa5 d9b8
000001c0: 12dd 07bd 1272 47bd 00e4 a13c 52bd 433c
000001d0: 17e2 82bb cc30 17bd 89b6 45ba 70f2 a9b9
000001e0: f6b2 6cbb d8a6 86bc d0a6 81bc e5bb 4abc
000001f0: 06c7 f53b 8bdf aebb 3cfa 983c 29ca e53c
00000200: cbb7 fe3a 8143 8f3c 5e72 ecbc 1254 96bc
00000210: eeec 21bd fb67 10bd 9309 83bb a1d9 3a3c
00000220: 33ab baba 992e 373d 107a 23bd 9c21 ee3a
00000230: 073a 413b 5ed8 4abc 61a1 303d 7e9d ac3c
00000240: 8b22 183d b6e8 b839 b0c2 153d ca4e 82bc
00000250: ef33 653d 2254 fcb7 71f8 3fbd dc42 8fbc
00000260: 93f8 d73b 1a8a 383d 907b d737 05d9 ae3c
00000270: 9f08 623d 2bc2 223d 16b8 823c 25e2 793b
00000280: 5f04 48bd 22cb e9bc 2647 d83b cc21 273b
00000290: af40 0f3a d83b 21bb c7e6 aa3b fca7 e13b
000002a0: 8bec 123c e3cd f6bc 0fbc b83a a73b 903b
000002b0: 5bac d1bb 18a1 dc3a 1969 30bd 7aab d6bc
000002c0: 8710 f8ba c84e 02bc ee20 d5bc 5f42 e93c
000002d0: 2e5c 1fbd d5f6 ff3c 1e63 1ebd 3079 2338
000002e0: e2e3 e7bb 6281 0abd 4b47 283d 0848 4cb7
000002f0: 1f3d 2abc 1c8d 41bd 8170 ef3b 6bfc e5bb
00000300: 21ed e93c c5f9 453c df1a b8bc 68dc 413d
00000310: 45bf 723d b2cb 58bc 8843 743c 0340 b6bc
00000320: eb9b df3b f4af 6ab7 3ddd 723d 5514 2c3d
00000330: 175c 04b9 6a15 bfbc a811 613c 99b5 55bc
00000340: f6cc 573d f4db 433c d7d0 a1bb ba93 44bd
00000350: 8b2f 86bc a509 3cbd 35cc 07bc e1ba 4dbc
00000360: 42d1 4cbd 6f3d 173d 98b5 c7b9 ca4c 0a3b
00000370: 3e2c c73c 3664 a7bc 6b75 483d 8e01 06bd
00000380: 70f8 c0bc 043f 60bc 1967 05bd 92ed 4cbd
00000390: 5417 9639 2026 113a 105a 33bc 5a2d 363c
000003a0: c209 293c e179 673c ce7f e03b 52fc d8ba
000003b0: 1755 56bc fc23 213c fa1a a1bc 9060 c13b
000003c0: 76e7 813c fdea eabb d641 20bd 7579 50bc
000003d0: 02ed 44bd c68e 8fbc 8d22 90bc 0ad0 6e3b
000003e0: ad84 36bd 0023 8b3b 13a1 763d 722c 593c
000003f0: 9a0b 11bc 0bd7 673d 9118 84bc 700e 5b3d
0.006466377 -0.02059103 4.286555e-05 -0.020272704 0.05210289 0.0070441184 -0.0008224739 -0.017246675
-0.02166527 0.018625299 0.006408801 -0.016014758 -0.0055629676 -0.04702378 0.011761553 0.05566831
0.022481104 -0.038878877 0.05343072 0.04214077 -0.05167031 0.004096319 0.0021484867 0.0006907706
0.014864549 -0.0001416393 -0.026204508 -0.024589678 0.020715972 0.029490922 -0.0047700955 -8.2763945e-05
0.019675568 -0.0039212857 -0.008312233 0.04269194 0.055034235 -0.018020537 0.050396804 -0.0030589504
0.012994885 -0.002859249 -0.04324028 -0.015733 0.056282148 -0.02884924 0.010152893 -0.00023097338
0.016465807 0.060100496 -0.021693185 0.004267552 -0.006076756 -0.04247135 -0.031535085 0.013680308
0.0337624 0.048084676 -0.009472183 1.0432838e-05 0.03886733 -0.00934921 -0.04300558 -0.036449704
0.035860352 -0.0365987 0.0099456385 -0.0012249057 0.04221917 -0.035410132 -0.012633356 -0.029267194
0.037113886 0.00076164544 0.0005101133 0.04440309 -0.03726058 -0.04302884 0.05854019 0.0028300555
0.035631806 -0.033849746 0.007945261 0.016305154 -0.030750118 0.03795162 0.04183009 0.000977386
-0.0005489636 0.00967392 0.028449217 -0.017312951 0.0006189224 0.0013566442 0.04277957 0.00883059
-0.004585545 0.00014674535 -0.011984217 0.002208664 -0.008800365 -0.050146263 0.0017799083 -0.025875121
-0.032964427 0.049438152 0.049836747 -0.01989142 -2.0619222e-05 0.053702973 -0.008666888 -0.00010378134
-0.033169813 -0.04869277 0.01976204 0.011946993 -0.003994237 -0.03691177 -0.00075421535 -0.00032414822
-0.0036117411 -0.01643698 -0.015826613 -0.012373899 0.007500532 -0.005336707 0.018674009 0.028050499
0.0019433437 0.017488243 -0.028863128 -0.018350635 -0.039532594 -0.035255414 -0.003998944 0.011404426
-0.0014241695 0.044722173 -0.03991133 0.0018167975 0.002948405 -0.0123806875 0.043122653 0.021071192
0.037142318 0.00035268598 0.03656262 -0.01590671 0.05595773 -3.0079918e-05 -0.04686779 -0.017487936
0.0065909117 0.04505358 2.5687536e-05 0.021343717 0.055184003 0.039735954 0.01595692 0.0038129177
-0.048832294 -0.028539244 0.0066002784 0.0025502322 0.00054646557 -0.002460232 0.005215499 0.0068864804
0.008967529 -0.030127471 0.0014094132 0.0044016424 -0.00639872 0.0016832678 -0.04306898 -0.026204813
-0.0018925824 -0.007953353 -0.026016679 0.028474031 -0.03890627 0.031245628 -0.038668744 3.8975093e-05
-0.0070767263 -0.033814795 0.041083615 -1.2176119e-05 -0.010390549 -0.047253713 0.0073071127 -0.007018616
0.028555455 0.0120834755 -0.02247375 0.047329336 0.05926444 -0.0132321585 0.014908679 -0.02224732
0.006824007 -1.3988454e-05 0.05929302 0.042011578 -0.00012622807 -0.02332564 0.01373712 -0.013043785
0.0526857 0.011954296 -0.0049382257 -0.047992446 -0.016380092 -0.045907635 -0.008288433 -0.012556762
-0.05000425 0.036923822 -0.00038091536 0.0021102899 0.024313089 -0.020433526 0.048940104 -0.032716326
-0.023555964 -0.013686899 -0.032569025 -0.050031252 0.0002862761 0.0005536992 -0.010946766 0.011119211
0.010317268 0.014128179 0.006851173 -0.001655469 -0.01308181 0.0098352395 -0.019666184 0.0059014037
0.01585744 -0.007169126 -0.039125286 -0.01272427 -0.04807759 -0.017524134 -0.0175946 0.003643992
-0.044560123 0.0042461157 0.060212206 0.0132552255 -0.008852864 0.056601565 -0.016124995 0.053480566

bias f4 [4]
00000000: 1a4f 41bc 09a4 bd3c 39a9 493d 04a2 2e3c
-0.011798644 0.023149507 0.04923365 0.010658745

weight f4 [4, 8]
00000000: 4290 9e3c 1d11 893d f692 0d3d 3b5f 1fbe
00000010: 82cc ac3d 3eff fcbd 58ea 81be 1e8f 76be
00000020: ff6e 9a3d 74ab 20bc 0ea2 023e 47f3 673e
00000030: 4b36 98be 7d9f 263e 25e8 753e d653 8f3e
00000040: 7c01 23bd 91b8 2ebe 5031 88be 9c78 543e
00000050: 8ade 283e 822c 26be f6aa 78bd cd6b 6ebc
00000060: 5394 33be d330 57be b507 57bc a54a 24be
00000070: 5c94 c23d 617f c23d b083 9ebe b989 433e
0.019355897 0.06692717 0.03456398 -0.15563671 0.08437444 -0.12353371 -0.25374103 -0.24078032
0.07540702 -0.009806503 0.12757131 0.22651397 -0.29728922 0.16271777 0.24014337 0.2799365
-0.039796337 -0.17062594 -0.26600122 0.20749134 0.16491142 -0.16227916 -0.060709916 -0.014552069
-0.1753705 -0.21014719 -0.013124396 -0.160441 0.095009536 0.09496952 -0.30959845 0.19095506

bias f4 [4]
00000000: 2fe4 9a3e 2384 f9bb 2019 093d d79a 203e
0.30252215 -0.007614629 0.033471227 0.15684067

weight f4 [4, 8]
00000000: 71e7 d63b b69a 663e 5ca4 84be ef9a 883e
00000010: b5ef 0a3e bbea 1a3e 11c8 fb3d 301c e5bd
00000020: 44a8 85bd 9eab 093e 4583 3abd 2851 67be
00000030: e4f0 2b3e 83df 4b3e e0be 06ba 2bf3 8abe
00000040: 410e a93e 3eea a83e 5e35 5b3e 9173 c3bd
00000050: 2301 973e 613d a6bc d7c8 893a b06c a3bd
00000060: d27a dabd d090 9cbe d932 503e 25a2 c2bd
00000070: 722b 5ebe ada0 393e 4e1f 1b3b 08be 833e
0.0065583517 0.22519955 -0.25906646 0.26680705 0.13568003 0.15128605 0.12294019 -0.11187017
-0.06526235 0.13444373 -0.045535345 -0.22589552 0.16791111 0.19909482 -0.0005140137 -0.27138647
0.33018687 0.32991213 0.21407077 -0.09543527 0.29493055 -0.02029294 0.0010512125 -0.07979715
-0.10667957 -0.30579233 0.20331897 -0.09503583 -0.2169626 0.18127699 0.0023669782 0.2573092

bias f4 [4]
00000000: 0557 b23e 79ad 803e 16e5 cabc 9d18 66b7
0.34832016 0.2513235 -0.02476744 -1.3714799e-05

weight f4 [10, 2]
00000000: c840 113f 4e4e dabe d363 a9bd 7b64 c63e
00000010: 8897 c5be 2dfe c9bc 5c23 8b3e 373f 09bf
00000020: d797 03be f331 9b3e 3f73 e9be 46c9 123e
00000030: ddcb e1be 616e 5abe caac 103e d93b dc3d
00000040: 4927 d2be f197 82be bf1c 52be e4f7 113d
0.56739473 -0.42637867 -0.08270993 0.38748536 -0.38592172 -0.024657333 0.27175415 -0.53612083
-0.12850891 0.30311546 -0.45595738 0.14334592 -0.44100848 -0.21331169 0.14128414 0.107536025
-0.41045597 -0.25506547 -0.20518778 0.035636798

bias f4 [10]
00000000: b16d 2c3e 9633 32bc e86f 203f 7cd6 63be
00000010: 5b05 223f bb21 1cbf e994 303d 1d50 e73e
00000020: 9a20 0cbf 1fbe 913e
0.16838719 -0.010876557 0.62670755 -0.22249788 0.6328942 -0.6098897 0.04311076 0.4517831
-0.54737246 0.28465363

weight f4 [10, 2]
00000000: f242 e5be 0281 593d 7143 ec3d 0dc0 e7be
00000010: 021f cdbd 92d8 bfbd 108e 92be 80ea bcbd
00000020: e47c 023f 7f51 dfbd e8e4 803d 912c ff3e
00000030: f914 52bd 92dd 77be 2bf8 28bf d1aa de3e
00000040: 4341 733e 1ce8 df3e 6b07 7b3e 8b6e 58be
-0.44777638 0.053101547 0.11536301 -0.4526371 -0.1001568 -0.093674794 -0.2862401 -0.09224415
0.5097182 -0.10904216 0.062936604 0.4983869 -0.051289532 -0.24205616 -0.66003674 0.43489698
0.23755364 0.43731773 0.24514548 -0.21135919

bias f4 [10]
00000000: e7a5 303e 5d9c cc3e 8a50 e83c a4ad eabe
00000010: 7161 15bf 4684 f23e 14f0 dabd 7f43 a93d
00000020: 1651 0dbf 102f 09bf
0.17250787 0.39963046 0.028358717 -0.45835602 -0.5835181 0.47366542 -0.106903225 0.08264827
-0.5520185 -0.53587437

weight f4 [20, 4]
00000000: 0219 cd3e 978b d3be dde9 d3be e895 993d
00000010: 8521 c1be 99dd d4be 9497 eebe 2774 5dbc
00000020: 5357 e63e 9106 0ebe 9986 e7be f9c3 dcbd
00000030: 94cd dc3e e239 d4be 5f7b d4be 1808 8c3e
00000040: e7d5 d9be a277 dabe 499d 853e a4ab 96bb
00000050: d1e8 de3e 2683 1f3e 3a6d 72be 3525 9bbe
00000060: b522 7c3e 66a7 023e fe13 233e 874d 273e
00000070: c918 ffbd 38f2 8e3e 1d7a 853d 4b03 a7be
00000080: 2657 c3bd ac4a 07bb cc4d bfbe 4874 2f3d
00000090: dbfc b4be ff12 c0be a0a1 c8be eef8 e63d
000000a0: 295e 453e 1a86 773e 19a9 cf3e 1eb6 d13e
000000b0: 8bd8 7e3e 796b 6f3e da8b 99bd 17b7 c73e
000000c0: 4936 77be ae9b 943e de7d c83e c8ee 64be
000000d0: cf71 7cbe 4244 bfbe 6175 a0be 68ab a73e
000000e0: ecaa 13be 36d0 8bbe 39b5 49bc 1394 df3e
000000f0: 4f3f b53e 49a4 e53e 38a0 60be 618a de3d
00000100: a856 90be 6cf8 b83e b044 c33e 766a f33e
00000110: af14 a83e 2208 333e 404c 553e 60f9 233d
00000120: 8e8e 69be f8b6 803e 928c b93d da28 8e3e
00000130: c617 953e b904 03be 8f55 eb3e b6ad d1bd
0.40058142 -0.41317436 -0.4138936 0.074992955 -0.37720886 -0.41575316 -0.4660002 -0.013516462
0.44988498 -0.13869692 -0.45219877 -0.10779566 0.43125594 -0.4145041 -0.41500375 0.27349925
-0.42546007 -0.42669398 0.26096562 -0.004598098 0.43537 0.15577373 -0.23674479 -0.30301824
0.24622615 0.1275917 0.15925595 0.16338168 -0.12455899 0.27919173 0.06517432 -0.326197
-0.095381066 -0.0020643873 -0.37364042 0.042835504 -0.35349163 -0.37514493 -0.3918581 0.11277948
0.192742 0.2417225 0.405587 0.40959257 0.24887292 0.23380841 -0.07497378 0.39006874
-0.24141802 0.29025024 0.3915853 -0.22356713 -0.2465279 -0.37356764 -0.31339553 0.3274796
-0.1442067 -0.2730729 -0.012311273 0.4366766 0.35399863 0.44851902 -0.21936119 0.108662374
-0.28191113 0.3612703 0.38138342 0.4754216 0.3282828 0.17483571 0.20829868 0.040032744
-0.22808287 0.25139594 0.09060015 0.27765542 0.291197 -0.1279477 0.45963714 -0.10238211

bias f4 [20]
00000000: 4e38 c3be fa15 0f3e 1321 20be 8e70 f83d
00000010: dc8a 733e cc7d 43be 6791 b0be 3192 b2be
00000020: eeb5 ddbe 430d 473e 5685 eabd ac5f a03e
00000030: 5cd7 a1bd 3734 0a3e 85c3 c8be 190d 77be
00000040: aba7 d53e befc 83be 976a 983e e5fa d03e
-0.38128895 0.13973227 -0.15637617 0.12130843 0.2378344 -0.19090956 -0.34485933 -0.3487716
-0.43302864 0.19438653 -0.11451213 0.31322992 -0.07902405 0.13496481 -0.3921167 -0.2412609
0.41729483 -0.25778764 0.29768822 0.40816417

x_out f4 [2]
00000000: b699 dc3f 3786 dc3f
1.7234409 1.7228459

m1x_posterior f4 [2, 1]
00000000: b699 dc3f 3786 dc3f
1.7234409 1.7228459

m1x_posterior_previous f4 [2, 1]
00000000: c771 dc3f 9f7f dc3f
1.7222222 1.7226447

m1x_prior_previous f4 [2, 1]
00000000: 528d dc3f 2a85 dc3f
1.7230628 1.7228138

KGain_array f4 [100, 2, 2]
00000000: b3fb aa3c 1ad9 7c3c 0c26 313c 3060 2e3c
00000010: c59d a73c 0c67 debb a815 f23b e430 f43c
00000020: ba7d 2e3c 4e3f 31bc ecd1 7fbc 387e 9a3c
00000030: dd33 d73c 5477 e0bb a026 653b 98fb 903b
00000040: dfe9 833c a073 193a 08c4 af3b 50e3 943c
00000050: 8e50 643d 7ae2 063d 2a13 833c 98a3 0d3c
00000060: dacd 673d 588f 1d3d 4862 30bc bbe3 ac3c
00000070: f016 323d fdab 8d3c e0d4 c6bb 300c f63c
00000080: 6945 ff3c c502 a33c 1020 b0bb a03b ecba
00000090: 88f0 193d 787b 10bb 10b3 433b 9456 313c
000000a0: d495 063d e491 e53b 163a 9ebc 2468 003d
000000b0: bc7a 083d a88a 43bb 4eb9 d2bc d654 933d
000000c0: 0b5c fa3c 14f6 ff3b 784d 3b3c c898 f03b
000000d0: 1aea 053d 1024 c5ba 9e48 86bc c249 993d
000000e0: de5f 3b3c a46a 04bd 409f 68ba 58c8 8b3c
000000f0: ae53 673c 2aeb 16bd 53ad 20bd acd8 cc3d
00000100: 76d0 183d 82d1 02bc 40be b03a f462 8a3c
00000110: 133c e13c ac00 cbbb 0013 cc3a ba47 9a3c
00000120: 0c03 af3b 6428 08bd c01a 24bb 5bb3 333d
00000130: 0b38 a53c 9e5d 06bd 466a d9bc 4269 be3d
00000140: 2fee aa3c 2afc 58bc c0e1 9ebb cfbe 1f3d
00000150: ae44 4c3d 8392 8a3c 8460 523c 78f5 1b3c
00000160: 9ffc d43c 6d95 a2bc c0dd 363c bce1 d13c
00000170: e0eb 1b3a cadb 14bc 202a a0bb 1268 bd3c
00000180: 6c59 113d 44c4 863b 18d4 273c f849 e03b
00000190: 82a8 033d 7ab5 343c 8874 ccbb da02 3b3d
000001a0: 9813 353d bdb8 b83c 8014 a93a e0cb 22bb
000001b0: 8a97 073d 7c1e acbb 8005 c7ba 68ad 8a3c
000001c0: 2d5e a03c 3b28 afbc 764c b2bc 6ef7 b53d
000001d0: cd05 d63c 4e1b 0ebc 124f d3bc 6cbb a63d
000001e0: 2aac 153d 2899 2f3b e4c5 573c 0861 f63b
000001f0: 6768 f43c 2c7b f03b dc81 15bc 8542 563d
00000200: dc8b 033d 4a2b 24bc c03a 763b 1865 5c3c
00000210: 17e0 9f3c 08f6 333b 283c b7bb e0ad 323d
00000220: 0b11 cc3c 18d4 2f3b c655 c7bc cbaa 933d
00000230: 7a4d 6e3c 0f5c babc e0bf b73a 2838 6c3c
00000240: c6a0 113d 6c57 823b bc72 12bc b4d7 ed3b
00000250: dfd5 f53c 5e0c 583c 1890 4bbc e859 103d
00000260: 9e37 2f3d 700c dfba a07a 37bb f92f d63c
00000270: b649 723c e4ee d33b b8c0 cf3b c0a6 ff3a
00000280: a0eb 353d baa2 123d c084 733a 6e21 8b3c
00000290: 7b47 fb3c a108 8abc 2872 e93b d007 bf3c
000002a0: 1aa8 2e3c ba09 07bc c65d eabc 507a 363d
000002b0: 53c4 e93c e6fb 66bc 069c b9bc 36fe 383d
000002c0: 190b a23c f5c0 afbc d0a8 e1bb 702f 533c
000002d0: 454c 8d3c c1cf f5bc 215d 10bd 32c7 d73d
000002e0: 673c b53c becb 18bd 7e24 c8bc e15e a73c
000002f0: e53a 9a3c e2ca 10bc f873 ebbb 0a66 fb3c
00000300: e489 2a3d 6c11 c93b 1c32 52bc aaee 283d
00000310: 5322 e23c 595f c4bc 3009 073b 8872 cd3c
00000320: 02fc 223c 7471 01bd 7f47 19bd d8e9 b93d
00000330: f730 e13c 5503 cdbc 0024 b738 2e13 b03c
00000340: 9e0a 383d 3790 853c 8091 00bc 0060 c83b
00000350: ba53 793d 5ce0 0c3d 40e7 29bb be97 983c
00000360: dee9 2f3d 9cf4 033d 00b7 00bc e456 7d3c
00000370: 3edd 623d c039 193d 703e 5e3b 9480 403c
00000380: 06ae 183d a785 d43c 8010 823a 8c2d 033c
00000390: 87b9 d13c 4236 46bc c003 4d3a 23d4 093d
000003a0: 4c82 ff3b 905c fdba 705b c8bb e06f 693c
000003b0: 711b d93c 34b8 f2bb 9761 02bd 3cb1 b73d
000003c0: 3eb6 133d 347d 893b b0a1 793c 6402 193c
000003d0: 6b1e f73c b764 83bc c076 eaba 7ce5 803d
000003e0: f08e beba 67be abbc 7008 dabb 205c fb3a
000003f0: 6539 8c3c c3b5 d9bc f31f 06bd ae16 ca3d
0.020871973 0.01543262 0.010812294 0.01064305 0.020460973 -0.0067871865 0.0073878355 0.02980847
0.010650093 -0.010818316 -0.015614014 0.018859014 0.026269848 -0.0068501625 0.003496565 0.0044245236
0.01610273 0.0005853716 0.005363945 0.018174797 0.055740885 0.03293083 0.01600035 0.008644961
0.0565928 0.03846678 -0.01076562 0.021104684 0.043478906 0.017293924 -0.006067857 0.030035108
0.031161027 0.019898782 -0.005374916 -0.0018023141 0.037582904 -0.002204625 0.0029861368 0.0108238645
0.03285773 0.007005917 -0.019314807 0.031349316 0.033320174 -0.0029837284 -0.025723126 0.071939155
0.030561468 0.007811317 0.011432044 0.0073424317 0.03269396 -0.0015040655 -0.016392048 0.07484771
0.011436431 -0.032328263 -0.0008873828 0.017063305 0.014119072 -0.036845364 -0.039227795 0.100022644
0.03730818 -0.007984521 0.0013484433 0.016892888 0.027494466 -0.0061951485 0.0015569627 0.01883303
0.0053409394 -0.033241645 -0.0025040358 0.04387222 0.020168325 -0.032804124 -0.026539933 0.0929742
0.020865528 -0.013243714 -0.004848689 0.03900033 0.049870186 0.016915565 0.012840394 0.0095189735
0.025999365 -0.019846642 0.011161268 0.025620334 0.0005947929 -0.009085605 -0.004887834 0.023120914
0.03548567 0.004112752 0.010243438 0.0068447553 0.032143123 0.0110295955 -0.0062394775 0.045657016
0.04420814 0.022549028 0.0012899786 -0.0024840757 0.033103503 -0.0052526575 -0.0015184134 0.01692839
0.019576157 -0.021381488 -0.021764975 0.08885084 0.026125813 -0.008673502 -0.02579454 0.08141217
0.03654114 0.002679417 0.013169739 0.0075188912 0.02983494 0.007338902 -0.009125199 0.05230953
0.032115802 -0.010020087 0.0037571639 0.013451837 0.019516034 0.0027459878 -0.005591888 0.04362285
0.02491047 0.0026829299 -0.024332892 0.072103105 0.014544839 -0.022748975 0.0014018975 0.014417686
0.035553716 0.0039777067 -0.008938488 0.00725838 0.030009208 0.013186542 -0.012424491 0.03524199
0.04277765 -0.0017017256 -0.0027996674 0.026145922 0.014788082 0.006467687 0.0063401125 0.0019504651
0.044414163 0.03579972 0.00092894956 0.016983714 0.030673733 -0.016849818 0.007124204 0.023319155
0.010660196 -0.008242065 -0.028609168 0.04455024 0.028535997 -0.014098143 -0.022657406 0.04516431
0.019780682 -0.021454314 -0.006886579 0.012889728 0.017248282 -0.030006291 -0.035245065 0.1053604
0.022123529 -0.03730368 -0.024431463 0.020430984 0.018826911 -0.0088374335 -0.0071854554 0.030688304
0.04163541 0.00613611 -0.01282933 0.041243233 0.027604258 -0.023971247 0.0020604841 0.025079027
0.009947779 -0.031602338 -0.0374217 0.09077805 0.027489169 -0.025026003 8.7328255e-05 0.02149352
0.044932 0.016304119 -0.00784719 0.0061149597 0.060870863 0.034393653 -0.002592519 0.018627044
0.042947643 0.0322157 -0.007856131 0.015462611 0.055386774 0.03740859 0.0033911727 0.011749405
0.037275337 0.025942637 0.000992313 0.008006465 0.025601162 -0.012097897 0.0007820688 0.033649575
0.007797515 -0.0019329954 -0.006114416 0.0142478645 0.026502343 -0.0074072126 -0.03183135 0.08969352
0.03606247 0.0041958336 0.015236303 0.009338949 0.030165872 -0.016039236 -0.0017888173 0.06293771
-0.0014538448 -0.020964814 -0.006653838 0.0019177236 0.017117212 -0.026575929 -0.032745313 0.09867607

prior_Q f4 [2, 2]
00000000: 0000 803f 0000 0000 0000 0000 0000 803f
1.0 0.0 0.0 1.0

prior_Sigma f4 [2, 2]
00000000: 0000 803f 0000 0000 0000 0000 0000 803f
1.0 0.0 0.0 1.0

prior_S f4 [2, 2]
00000000: 0000 803f 0000 0000 0000 0000 0000 803f
1.0 0.0 0.0 1.0

h_Q f4 [1, 1, 4]
00000000: 0b1e 0f3e 4335 313f 44c1 b4bd 9cd9 9bbe
0.13976304 0.69221896 -0.08825925 -0.3043946
