KNet/KNet_TSP/KNet/model/Toy/model_KNet_point5_partial.pt (torch, 47402 bytes, 41 tensors)

weight_ih_l0 f4 [12, 10]
-0.3378549 0.12820527 0.3897702 0.19569434 -0.048934788 -0.37660486 0.0031496817 0.46115312
-0.19949704 -0.42027912 0.3586293 -0.44944042 -0.15417212 0.3002458 0.13602799 0.085566
0.17944948 0.037191812 0.45965767 -0.10831373 0.15943979 -0.39592257 0.0149004655 -0.3526923
-0.16252801 0.35465804 -0.40298232 0.40382484 -0.28309828 -0.20984301 -0.34564784 -0.31568953
0.18200241 -0.21007548 0.26885927 0.31204036 0.005104002 0.4781747 -0.06160399 -0.36647946
0.34979102 -0.096827 -0.35264382 0.46500483 -0.42891136 0.22997878 0.3286081 -0.018009115
0.15498099 0.16606744 0.2244562 -0.154361 -0.21902587 -0.025651576 0.42548865 -0.25902203
-0.1498417 -0.46604714 0.39333448 0.021409063 0.03643533 0.11920181 0.4716867 0.34055385
0.1453395 0.033355877 -0.4517397 -0.0796297 0.14231138 -0.19445021 0.10352762 -0.40784627
-0.022070304 -0.09082312 0.17510432 -0.43332377 0.40340483 -0.37046385 0.31688884 -0.055974532
0.042460207 -0.28021488 0.45565307 -0.4352954 0.37829804 0.003846456 0.23113161 -0.043588523
-0.038404748 0.23840682 0.25680548 0.23791507 0.0023529218 -0.29100934 -0.41284066 -0.14180312
-0.0013630848 0.2180501 0.29737034 -0.27988398 0.41131422 -0.010173096 0.3514658 -0.4184698
-0.34610978 -0.49836218 0.4487887 -0.09081935 -0.022066832 -0.029308649 -0.25362122 0.027034536
0.27185157 0.38836136 0.033905927 -0.31325614 -0.23298822 -0.49386978 -0.24916309 0.17411907
00000000: 51fb acbe 3e48 033e f68f c73e 1964 483e
00000010: d86f 48bd 5ad2 c0be e46a 4e3b 431c ec3e
00000020: f448 4cbe d32e d7be 429e b73e 0e1d e6be
00000030: 4cdf 1dbe d1b9 993e ec4a 0b3e 3a3d af3d
00000040: 9bc1 373e 7156 183d 4058 eb3e 97d3 ddbd
00000050: 2f44 233e 5db6 cabe 1521 743c 1694 b4be
00000060: be6d 26be bd95 b53e b353 cebe 21c2 ce3e
00000070: 42f2 90be 16e1 56be c1f8 b0be 0fa2 a1be
00000080: d75e 3a3e 071e 57be eca7 893e c1c3 9f3e
00000090: 793f a73b 50d3 f43e 7754 7cbd 32a3 bbbe
000000a0: cf17 b33e 3c4d c6bd bb8d b4be 1d15 ee3e
000000b0: 459a dbbe 8f7f 6b3e 523f a83e da87 93bc
000000c0: 56b3 1e3e 950d 2a3e d9d7 653e cf10 1ebe
000000d0: 5148 60be 4123 d2bc a6d9 d93e 899e 84be
000000e0: 1a70 19be bb9d eebe 2363 c93e 0f62 af3c
000000f0: 363d 153d 1420 f43d eb80 f13e 135d ae3e
00000100: e1d3 143e 2ca0 083d 6d4a e7be e514 a3bd
00000110: 13ba 113e f51d 47be 4a06 d43d 3ad1 d0be
00000120: c8cc b4bc 7901 babd 8c4e 333e 9ddc ddbe
00000130: 148b ce3e 70ad bdbe 413f a23e 8d45 65bd
00000140: c1ea 2d3d 5378 8fbe 5c4b e93e 0adf debe
00000150: 48b0 c13e d314 7c3b c4ad 6c3e e189 32bd
00000160: 4c4e 1dbd eb20 743e 027c 833e 02a0 733e
00000170: 7a33 1a3b 2dff 94be da5f d3be d634 11be
00000180: 89a9 b2ba 8748 5f3e ed40 983e f44c 8fbe
00000190: c797 d23e 0fad 26bc 53f3 b33e ac41 d6be
000001a0: 4d35 b1be 5429 ffbe a2c7 e53e 7fff b9bd
000001b0: 80c5 b4bc b118 f0bc a4da 81be 8877 dd3c
000001c0: 2130 8b3e 4dd7 c63e f1e0 0a3d 1c63 a0be
000001d0: 7794 6ebe 80dc fcbe 9c24 7fbe 454c 323e

weight_hh_l0 f4 [12, 4]
-0.33320355 -0.3720528 -0.0051058885 0.20220843 0.2839659 -0.078013346 0.008456019 -0.29818037
-0.010329783 -0.44359276 0.3736859 -0.06335223 -0.34976277 -0.17744295 -0.1970206 0.4527414
0.21854399 -0.23857398 -0.1584727 0.23525587 0.099940196 0.41094673 0.18969813 -0.4452101
0.49402332 0.17212541 -0.08943057 -0.16183056 -0.060551003 0.26284504 -0.28225183 0.31176916
-0.26743248 0.06975576 -0.17119929 0.12756187 -0.38064614 0.35094547 -0.05583434 0.112357005
0.30294737 0.3995227 -0.08629789 0.12415903 0.48774382 -0.021546172 -0.3588169 -0.3047544
00000000: a899 aabe b47d bebe 4c4f a7bb ba0f 4f3e
00000010: fa63 913e 76c5 9fbd 1d8b 0a3c 19ab 98be
00000020: 403e 29bc 971e e3be c253 bf3e d0be 81bd
00000030: 1b14 b3be 9bb3 35be c5bf 49be b9cd e73e
00000040: ffc9 5f3e bd4c 74be ab46 22be eae6 703e
00000050: 72ad cc3d 9c67 d23e 3a40 423e 94f2 e3be
00000060: a0f0 fc3e a541 303e 6027 b7bd e9b6 25be
00000070: 5404 78bd a093 863e 5083 90be 35a0 9f3e
00000080: e9ec 88be 1cdc 8e3d de4e 2fbe 949f 023e
00000090: 0de4 c2be 20af b33e 8db2 64bd 6e1b e63d
000000a0: eb1b 9b3e 3d8e cc3e f3bc b0bd 1747 fe3d
000000b0: 8fb9 f93e 9981 b0bc d9b6 b7be c508 9cbe

bias_ih_l0 f4 [12]
0.22162385 0.45430464 0.4205947 -0.089782774 -0.08609016 -0.057738803 0.37333885 -0.22803247
-0.04574757 0.4017877 -0.47916678 -0.26127023
00000000: 5df1 623e 9e9a e83e 3058 d73e 08e0 b7bd
00000010: 0a50 b0bd 867f 6cbd 4526 bf3e 5881 69be
00000020: ce61 3bbd 1eb7 cd3e 5955 f5be 36c5 85be

bias_hh_l0 f4 [12]
0.4760455 0.018582016 0.22241043 -0.10881473 -0.34688726 -0.3773031 -0.30284145 -0.0671379
-0.21086118 0.15582867 0.039768282 0.18182464
00000000: 3cbc f33e 5039 983c 8fbf 633e 42da debd
00000010: 359b b1be df2d c1be 090e 9bbe 987f 89bd
00000020: feeb 57be 8d91 1f3e 11e4 223d 3d30 3a3e

weight_ih_l0 f4 [12, 14]
-0.29785705 0.15104373 0.26349556 -0.40400344 0.31285906 0.006621546 0.22229238 -0.11108759
0.2500356 -0.30715656 0.0025659942 0.21740294 -0.46882078 0.18351403 0.030288061 -0.4051782
-0.39025146 -0.02867772 0.3028082 -0.10735802 0.47046107 -0.37708178 -0.40503183 0.21902198
-0.2924794 0.41778666 0.31141412 0.11662985 -0.21608888 0.31698936 -0.13171227 0.11369193
-0.20656477 0.24341239 0.41020754 -0.26596355 0.2867679 -0.32955134 0.13213542 -0.028213345
0.10530506 0.05621648 -0.320537 -0.07545154 0.14451392 -0.17271422 0.039479557 -0.34045777
0.3030901 -0.20990077 -0.33237004 -0.17531925 0.29264155 -0.14787084 0.011507514 -0.27217942
-0.36927488 -0.11591386 -0.09131646 0.014669488 0.045158144 0.30626097 0.46499094 0.28280327
-0.3087854 -0.44137436 0.28325054 0.46699303 0.3839414 0.10634436 -0.31373912 -0.28303704
0.1355701 -0.27198157 0.3651073 -0.40262184 0.074038684 0.47623357 -0.026397984 0.21595857
-0.3822249 0.22440447 0.08334738 -0.17920694 -0.050060067 -0.25916737 -0.122159295 -0.2691224
-0.042577084 -0.4441198 0.084800206 -0.37746358 -0.42882067 0.33663505 -0.42077354 -0.35106912
-0.21216536 -0.3132096 0.09694566 0.15935121 0.030954637 -0.2799817 0.32260397 0.44487104
0.2543234 0.22104892 0.22587888 -0.22668155 -0.28899917 -0.027076563 0.21885236 0.2044704
0.3744783 0.33576986 -0.43956733 -0.134078 0.4654511 -0.45133013 -0.40065348 -0.25476024
-0.003499471 0.32280093 0.014328019 -0.0834208 -0.32323417 -0.30805013 -0.2109702 -0.014067239
0.44778118 -0.3420898 -0.09783252 0.30542368 0.4558537 0.35654017 -0.009310896 0.29135877
0.33775455 -0.0812782 -0.29281133 0.24899998 -0.38954806 0.114884734 0.30749917 0.34915063
-0.39506975 -0.080161646 -0.39633366 0.20755497 -0.15028052 -0.32856452 0.15909475 0.30631384
-0.056812417 -0.14933822 0.1854136 0.082501054 0.4700269 -0.1232972 -0.08852999 0.28213856
-0.4444103 0.09892346 -0.35940498 0.3790024 -0.20384556 -0.11648921 0.44661456 0.05834456
00000000: b880 98be 35ab 1a3e e4e8 863e 8ad9 cebe
00000010: 102f a03e 8ef9 d83b 9da0 633e e481 e3bd
00000020: ab04 803e a043 9dbe 3d2a 283b e09e 5e3e
00000030: 4709 f0be 1aeb 3b3e ab1e f83c 8473 cfbe
00000040: 0acf c7be 8aed eabc ad09 9b3e 86de dbbd
00000050: 46e0 f03e dd10 c1be 5560 cfbe 4c47 603e
00000060: dcbf 95be 22e8 d53e ac71 9f3e a1db ee3d
00000070: 6746 5dbe 6e4c a23e 95df 06be 51d7 e83d
00000080: b785 53be 1941 793e b906 d23e 602c 88be
00000090: 3ed3 923e f4ba a8be 824e 073e ac1f e7bc
000000a0: 2eaa d73d 4043 663d 6d1d a4be 5686 9abd
000000b0: 75fb 133e ffdb 30be 51b5 213d 7b50 aebe
000000c0: a02e 9b3e 3af0 56be 682c aabe e486 33be
000000d0: 1dd5 953e 746b 17be 038a 3c3c 1a5b 8bbe
000000e0: 9911 bdbe 3f64 edbd 2004 bbbd 4b58 703c
000000f0: bff7 383d 3dce 9c3e 4b13 ee3e 97cb 903e
00000100: 1f19 9ebe d2fb e1be 3706 913e b619 ef3e
00000110: f893 c43e 12cb d93d 6aa2 a0be 3bea 90be
00000120: e3d2 0a3e 2b41 8bbe 58ef ba3e 7324 cebe
00000130: 98a1 973d e3d4 f33e 9640 d8bc 3e24 5d3e
00000140: fbb2 c3be 49ca 653e 08b2 aa3d 0682 37be
00000150: c90b 4dbd 96b1 84be a72e fabd 69ca 89be
00000160: 4f65 2ebd ac63 e3be bbab ad3d e842 c1be
00000170: 628e dbbe 6e5b ac3e a16f d7be 55bf b3be
00000180: e041 59be 025d a0be 728b c63d f72c 233e
00000190: 9494 fd3c c359 8fbe 592c a53e 23c6 e33e
000001a0: ad36 823e a65a 623e cb4c 673e 351f 68be
000001b0: b3f7 93be abcf ddbc d51a 603e b060 513e
000001c0: 9fbb bf3e 07ea ab3e f80e e1be be4b 09be
000001d0: 9b4f ee3e be14 e7be 7422 cdbe ef6f 82be
000001e0: 6157 65bb 2a46 a53e 11c0 6a3c 86d8 aabd
000001f0: f37e a5be bfb8 9dbe 9208 58be 477a 66bc
00000200: 9343 e53e 6526 afbe 6b5c c8bd 7e60 9c3e
00000210: a865 e93e 6f8c b63e ba8c 18bc fa2c 953e
00000220: 2aee ac3e 2f75 a6bd 5eeb 95be daf9 7e3e
00000230: d872 c7be b048 eb3d 8870 9d3e dfc3 b23e
00000240: 9546 cabe ca2b a4bd 3fec cabe 4a89 543e
00000250: 23e3 19be 9c39 a8be bce9 223e 2bd5 9c3e
00000260: 23b4 68bd 1eec 18be 10dd 3d3e 50f6 a83d
00000270: 5ea7 f03e 3e83 fcbd 364f b5bd 7774 903e
00000280: bf89 e3be 6298 ca3d ee03 b8be 9a0c c23e
00000290: e4bc 50be e591 eebd aaaa e43e b5fa 6e3d

weight_hh_l0 f4 [12, 4]
0.23218742 -0.3385888 -0.2834631 -0.115376525 0.03074293 0.21992712 -0.26140425 0.29439783
-0.10990764 0.37179038 -0.30071273 -0.38924438 -0.42954996 0.017326301 0.15012984 -0.3909456
-0.14094447 -0.2493734 -0.3017243 -0.35444734 0.4122322 -0.15774001 0.4946987 0.35417002
-0.34137896 0.39132777 -0.3304756 -0.42017072 -0.34099028 -0.053559136 -0.14195935 -0.19446295
0.16275825 0.077082776 0.31427786 0.10809137 0.053520605 0.17608194 -0.21263498 -0.036265194
0.09612071 -0.0004989688 -0.26550353 0.29232582 0.010370143 0.062664025 -0.042566724 0.0322737
00000000: 8ac2 6d3e 835b adbe 1322 91be 874a ecbd
00000010: 99d8 fb3c 9334 613e c7d6 85be 50bb 963e
00000020: 4217 e1bd 4f5b be3e 05f7 99be 0a4b c7be
00000030: f9ed dbbe e3ef 8d3c a3bb 193e 062a c8be
00000040: bf53 10be be5b 7fbe 9c7b 9abe 1f7a b5be
00000050: 1910 d33e 9986 21be 2649 fd3e c655 b53e
00000060: 39c9 aebe 1d5c c83e 1934 a9be 9e20 d7be
00000070: 4796 aebe d360 5bbd cb5d 11be 4c21 47be
00000080: 19aa 263e 93dd 9d3d 07e9 a03e 025f dd3d
00000090: 6c38 5b3d d34e 343e fcbc 59be d08a 14bd
000000a0: efda c43d 3bcd 02ba 14f0 87be bbab 953e
000000b0: 88e7 293c ff55 803d 725a 2ebd 6d31 043d

bias_ih_l0 f4 [12]
-0.4235453 0.44223708 0.12509012 0.43403074 -0.34239575 -0.0029607122 -0.15261309 -0.16168036
-0.46344033 0.098143466 -0.47308782 -0.3894631
00000000: eeda d8be e66c e23e a017 003e 4739 de3e
00000010: 7f4e afbe 8208 42bb 9b46 1cbe 898f 25be
00000020: 0d48 edbe 71ff c83d 9138 f2be b567 c7be

bias_hh_l0 f4 [12]
-0.49159554 0.45245197 0.2882785 -0.41669676 -0.21892616 -0.3954735 0.27366927 -0.013493246
0.24233787 0.08583551 -0.19103305 0.08581729
00000000: 69b2 fbbe c9a7 e73e 3d99 933e 4759 d5be
00000010: 2e2e 60be 817b cabe 611e 8c3e c712 5dbc
00000020: 6b27 783e 87ca af3d 2b9e 43be fac0 af3d

weight_ih_l0 f4 [12, 24]
-0.40873882 0.44296864 -0.26962894 -0.27223846 -0.46176466 -0.44035512 0.28761816 0.2959502
-0.1287791 -0.049658794 -0.43664703 0.14154238 -0.28416803 -0.014527755 -0.31296518 -0.027493654
-0.30669412 0.45360467 -0.17221092 0.17214407 0.23699199 0.36337954 -0.4341465 -0.29130423
-0.09948096 0.44287455 0.025640512 -0.23155978 -0.37169123 0.4491195 0.42534405 0.35848847
-0.11747462 0.3830527 0.044495154 0.07829613 -0.35211614 -0.3684409 0.22186886 -0.24070527
0.03592636 -0.33514938 -0.24987878 0.44191378 -0.44740018 -0.078893684 0.45173368 -0.31886324
0.44884428 0.3886573 0.1151452 -0.020046912 0.30451176 -0.018155506 -0.020237612 -0.013829312
-0.04545325 0.0073205726 -0.45759833 -0.20939858 -0.3952018 -0.41951412 0.03986528 -0.24064244
-0.045726348 -0.23118742 -0.06506751 -0.044005014 -0.42174682 -0.2449998 -0.028451031 -0.2720414
0.093091354 -0.28839082 0.46566814 0.2810045 0.4502141 -0.38854304 0.09116808 0.02458646
-0.3190655 -0.4621775 0.48264396 -0.05075797 -0.20389032 -0.49286243 -0.18747719 0.29381186
-0.3096896 0.18356355 -0.12135703 0.05889215 0.11493238 0.43488228 0.3542779 -0.41725084
0.12703635 0.43778095 -0.018136581 -0.12167071 -0.47019148 0.089105114 0.1726584 -0.37886977
0.37281656 -0.28973904 -0.45597228 -0.1931348 -0.14083456 -0.0878935 0.3285982 -0.4915993
0.034093212 -0.35577992 0.1823899 0.21792182 0.050442196 -0.30471504 -0.12900357 0.15182735
-0.18791158 -0.16919288 -0.29056427 -0.45825046 0.05472387 -0.40421212 0.027581004 0.098525114
-0.20025514 0.024515223 0.43089294 -0.28159153 0.4431991 0.47548974 0.08342841 0.20897785
-0.24487373 0.43271354 -0.3651861 -0.33706403 -0.23903342 -0.3229824 0.28570625 0.43193647
0.38736516 -0.3680317 0.0038602566 -0.016045325 -0.3807565 -0.0075243167 0.019556068 -0.40533355
-0.16131368 0.19871014 0.27979237 0.2899131 0.24173403 -0.31372792 0.4708455 -0.51731706
-0.4500038 -0.40956348 -0.48180634 -0.23530436 0.0061138687 0.2858177 0.38719147 0.41637373
-0.12692831 -0.3986823 -0.06575597 -0.21871774 0.352695 -0.22281326 0.2535216 -0.36052224
-0.04489874 -0.032576837 -0.48611724 0.32626227 -0.4633997 0.14495426 0.10512153 0.019933673
-0.33872458 0.39553046 0.0067178924 0.078130215 0.0048515983 0.051657606 0.48320654 -0.41462743
-0.08474616 0.39193925 0.078259304 -0.009785725 0.2616599 0.3356623 0.48669294 0.14867751
0.37276798 -0.4676927 0.23541078 -0.008726649 -0.40773338 -0.21890454 -0.16298214 -0.4378344
-0.24545072 -0.30533537 -0.21224539 -0.21911515 0.3074232 -0.036490615 -0.30414173 -0.052221637
0.19776905 -0.15400112 -0.39585647 0.35967684 0.09134705 -0.24879992 0.2810283 -0.30291578
-0.26724365 0.11677212 0.051683977 -0.29553157 -0.3003576 0.01992742 0.053493813 -0.24142052
0.21764854 -0.009275977 -0.032891262 0.49558914 -0.16182196 -0.30085543 -0.042838816 -0.30730018
0.111194775 -0.2571925 0.18064749 -0.45732746 -0.23818763 -0.07761095 0.4430068 0.07233074
0.2909486 0.21325926 0.0727057 0.10722874 -0.37863326 0.03924388 0.37596053 0.25253236
00000000: 3746 d1be c9cc e23e ce0c 8abe d762 8bbe
00000010: 6b6c ecbe 3a76 e1be b042 933e c986 973e
00000020: abde 03be 0567 4bbd 3390 dfbe 7cf0 103e
00000030: 797e 91be d205 6ebc f93c a0be 5f3a e1bc
00000040: 0307 9dbe df3e e83e 0f58 30be 8946 303e
00000050: 07ae 723e e20c ba3e 7348 debe d425 95be
00000060: acbc cbbd 74c0 e23e 0d0c d23c 021e 6dbe
00000070: 504e bebe fef2 e53e b2c6 d93e cd8b b73e
00000080: 8996 f0bd 7c1f c43e 8d40 363d b959 a03d
00000090: 9148 b4be 49a4 bcbe 9731 633e 717b 76be
000000a0: 8527 133d b398 abbe 39e0 7fbe 8642 e23e
000000b0: a311 e5be 0393 a1bd a349 e73e 0b42 a3be
000000c0: ebce e53e 17fe c63e 3fd1 eb3d 6c39 a4bc
000000d0: f7e8 9b3e dbba 94bc 59c9 a5bc 5794 62bc
000000e0: 302d 3abd 6ae1 ef3b 544a eabe 956c 56be
000000f0: e457 cabe 8eca d6be c749 233d f96a 76be
00000100: 8d4b 3bbd 65bc 6cbe 1d42 85bd 9a3e 34bd
00000110: 33ef d7be 3ae1 7abe 2312 e9bc 0349 8bbe
00000120: aea6 be3d f6a7 93be 0e6c ee3e d2df 8f3e
00000130: 7682 e63e 1def c6be 55b6 ba3d 8b69 c93c
00000140: 8e5c a3be 87a2 ecbe 1c1d f73e 97e7 4fbd
00000150: a0c8 50be 7758 fcbe 05fa 3fbe 826e 963e
00000160: a38f 9ebe 15f8 3b3e 098a f8bd e538 713d
00000170: ab61 eb3d e4a8 de3e ea63 b53e e7a1 d5be
00000180: d115 023e d324 e03e 2b93 94bc 7e2e f9bd
00000190: f0bc f0be be7c b63d 5dcd 303e 38fb c1be
000001a0: d0e1 be3e ad58 94be 3375 e9be 21c5 45be
000001b0: ef36 10be 8201 b4bd 063e a83e e7b2 fbbe
000001c0: 53a5 0b3d c928 b6be 6bc4 3a3e e626 5f3e
000001d0: 7a9c 4e3d 9c03 9cbe 8319 04be a178 1b3e
000001e0: e56b 40be e640 2dbe d7c4 94be ce9f eabe
000001f0: 2326 603d e4f4 cebe 8ff1 e13c 89c7 c93d
00000200: af0f 4dbe 26d4 c83c 009e dc3e c42c 90be
00000210: feea e23e 6473 f33e 84dc aa3d 4afe 553e
00000220: 2ec0 7abe a18c dd3e acf9 babe a893 acbe
00000230: 2dc5 74be f35d a5be 1748 923e c726 dd3e
00000240: ba54 c63e a76e bcbe 5cfc 7c3b 7c71 83bc
00000250: 84f2 c2be 8b8e f6bb 0c34 a03c e187 cfbe
00000260: 6a2f 25be ac7a 4b3e f240 8f3e 7d6f 943e
00000270: 2089 773e f2a0 a0be a912 f13e e46e 04bf
00000280: e666 e6be 4eb2 d1be 52af f6be a0f3 70be
00000290: d956 c83b b356 923e f63d c63e f02e d53e
000002a0: 7ff9 01be 1620 ccbe 11ab 86bd 8bf7 5fbe
000002b0: 7094 b43e 2929 64be 95cd 813e 5f96 b8be
000002c0: bee7 37bd 4a6f 05bd 5ce4 f8be d90b a73e
000002d0: ba42 edbe e46e 143e f549 d73d f14b a33c
000002e0: 4f6d adbe f882 ca3e c421 dc3b bc02 a03d
000002f0: 28fa 9e3b ed96 533d d966 f73e 0c4a d4be
00000300: 658f adbd 43ac c83e 6a46 a03d 4e54 20bc
00000310: 49f8 853e eedb ab3e d12f f93e eb3e 183e
00000320: 72db be3e 6b75 efbe 860f 713e 38fa 0ebc
00000330: 6ec2 d0be 8328 60be cae4 26be d52b e0be
00000340: 6f57 7bbe eb54 9cbe db56 59be b95f 60be
00000350: 9366 9d3e 2f77 15bd 77b8 9bbe 5be6 55bd
00000360: f883 4a3e 78b2 1dbe b3ad cabe 9027 b83e
00000370: 2a14 bb3d 68c5 7ebe f1e2 8f3e c717 9bbe
00000380: 29d4 88be 3926 ef3d 94b2 533d ea4f 97be
00000390: 79c8 99be d43e a33c 541c 5b3d f136 77be
000003a0: 42df 5e3e 44fa 17bc fdb8 06bd dcbd fd3e
000003b0: a8b4 25be b909 9abe c177 2fbd 7356 9dbe
000003c0: 16ba e33d bcae 83be a8fb 383e d326 eabe
000003d0: 75e7 73be 7df2 9ebd cad1 e23e 2422 943d
000003e0: 37f7 943e a360 5a3e bae6 943d be9a db3d
000003f0: 38dc c1be 31be 203d e67d c03e ec4b 813e

weight_hh_l0 f4 [12, 4]
-0.08917514 0.1568527 0.018648589 0.35868052 0.24869265 0.31992617 0.25011003 -0.03662128
0.35285416 0.40320027 0.33333224 0.4094542 -0.2828672 0.22318847 -0.11668025 -0.25446376
0.21140358 0.4522871 -0.27377886 0.26074722 -0.15666409 -0.01658034 -0.009429389 -0.50561076
0.34219435 0.30929098 0.44417828 -0.19311 -0.2634158 0.30719575 0.49014404 0.10352071
-0.44947577 0.17153023 -0.2880488 -0.37668318 0.001586117 -0.34180665 -0.10742504 0.37048966
-0.45408952 0.2952553 -0.091351554 -0.33069068 0.009214523 -0.052560776 -0.46893358 0.3734507
00000000: 75a1 b6bd ff9d 203e edc4 983c f9a4 b73e
00000010: 49a9 7e3e 5dcd a33e 6c0e 803e 3200 16bd
00000020: 4da9 b43e 4470 ce3e 86aa aa3e fba3 d13e
00000030: f8d3 90be 858b 643e 0ef6 eebd 1349 82be
00000040: 2e7a 583e 2d92 e73e be2c 8cbe a980 853e
00000050: 8d6c 20be 7ed3 87bc b97d 1abc b56f 01bf
00000060: 1934 af3e 635b 9e3e 566b e33e a1be 45be
00000070: 70de 86be c348 9d3e 29f4 fa3e aa02 d43d
00000080: b021 e6be 9fa5 2f3e 227b 93be 9edc c0be
00000090: 41e5 cf3a 4801 afbe a901 dcbd d2b0 bd3e
000000a0: 6c7e e8be b42b 973e 8616 bbbd 4a50 a9be
000000b0: 83f8 163c f849 57bd 1018 f0be ee34 bf3e

bias_ih_l0 f4 [12]
-0.14218241 -0.32369548 -0.4640386 0.45803413 0.3242924 0.30288172 -0.091475666 0.08867376
-0.07178351 0.23539196 0.4231143 0.29370835
00000000: 4498 11be 6abb a5be 7896 edbe 7383 ea3e
00000010: a709 a63e 5013 9b3e 9857 bbbd 979a b53d
00000020: 3c03 93bd 970a 713e 70a2 d83e f160 963e

bias_hh_l0 f4 [12]
-0.2938811 -0.49199328 0.07403311 -0.41553125 -0.47958755 0.13477427 0.480783 0.31747776
-0.473998 -0.023008503 -0.34441295 -0.27215275
00000000: 9577 96be 8be6 fbbe ac9e 973d 83c0 d4be
00000010: 808c f5be 4402 0a3e 3029 f63e 728c a23e
00000020: deaf f2be 547c bcbc e556 b0be 9b57 8bbe

weight f4 [4, 4]
0.028595334 -0.00023084649 0.15344505 -0.06852179 -0.081304856 0.08882593 -0.09593013 -0.010197703
0.2376993 0.44894564 -0.24540399 0.20299375 -0.09259196 0.47196043 -0.12989645 -0.085875295
00000000: c340 ea3c 620f 72b9 b320 1d3e 2755 8cbd
00000010: 2983 a6bd 5fea b53d 0477 c4bd 4414 27bc
00000020: 7267 733e 34dc e53e 2f4b 7bbe 98dd 4f3e
00000030: dba0 bdbd cca4 f13e 9303 05be 63df afbd

bias f4 [4]
-0.0042580985 0.21946296 0.44284168 0.31314892
00000000: 8587 8bbb e6ba 603e 25bc e23e 0e55 a03e

weight f4 [320, 8]
0.18862788 0.23196109 0.24772315 0.0715339 -0.07913038 0.049610127 0.0013457079 -0.04753639
0.33842537 -0.097056575 0.33516642 -0.16111685 -0.09634291 0.16890948 -0.34576342 -0.10795357
-0.1046841 0.24929494 -0.0022148213 0.0072707026 0.057597075 0.1218951 -0.29965204 0.1379357
-0.043369178 0.20174247 0.19851393 0.13643098 0.06409888 0.20082906 -0.26597765 -0.19896081
0.26942384 -0.28362677 0.116361246 0.34441882 -0.23488085 0.2875933 0.13310556 -0.054986123
-0.28041172 0.13379592 0.003174797 0.017588677 0.21019986 -0.27559808 -0.21922877 0.077603824
-0.2698847 -0.04827336 -0.17388918 -0.052838527 0.0463997 -0.010963749 0.16647792 0.19438976
0.08862807 0.013875728 -0.23853338 0.17393585 0.22046736 0.2464917 0.23019822 0.10126609
0.00053716725 -0.11862705 -0.24061635 -0.21729806 -0.16345389 -0.1207667 -0.04660588 -0.32817894
0.08850982 0.29299903 0.050558843 0.045074668 0.15465067 0.32468858 -0.010451387 -0.027749343
-0.2807189 -0.13882856 0.055012513 -0.16313788 -0.15764835 -0.090921946 -0.2448016 -0.16708492
0.23034312 -0.15745766 -0.29742515 -0.14547794 -0.009824159 0.045582436 0.04159335 -0.039354775
0.22580315 -0.14644589 -0.010770536 0.02980303 0.09196007 -0.21521695 -0.120215885 -0.074457794
-0.33133703 -0.063269235 -0.30138758 -0.11217269 0.12362421 -0.22288321 0.35147703 0.14013734
-0.33351418 -0.10561225 0.0488154 0.14208496 0.3186825 -0.03387875 0.16314535 -0.23138402
-0.26961723 0.15983875 -0.30154273 -0.059372637 0.22800075 -0.29890385 0.011030928 0.15015739
0.09336773 -0.14988592 -0.013394401 -0.0008763216 0.13981771 0.14248502 0.05831655 0.25627127
0.09972836 -0.30303836 0.12015559 0.1562812 -0.07335762 -0.06413511 -0.26247227 -0.23864076
-0.15808041 0.32237086 -0.24609299 -0.08799159 -0.0010712409 0.09943487 0.15591042 -0.074590504
-0.19959225 0.0820825 0.009332681 0.12189519 0.24588549 0.11696721 0.0926036 0.008176785
0.00876777 -0.14618899 0.17887294 0.07178207 -0.24772768 0.16605482 -0.23111446 0.034568146
-0.33063287 -0.255109 0.23130393 -0.03949495 0.07499744 0.14719258 -0.23490852 -0.22210011
-0.12614393 0.1918553 -8.054734e-05 0.2357337 -0.041770436 0.11007149 0.30265635 0.25142145
-0.058301847 0.026799535 -0.03791046 -0.34116483 0.07254983 -0.14509079 -0.020109762 -0.10736103
-0.14367871 -0.08815619 -0.042390596 0.07603276 -0.19629231 -0.20769925 -0.17289422 -0.0039548874
0.08428732 -0.103589445 0.09669011 -0.30678406 0.30278227 -0.15330918 0.025021508 -0.13562745
0.049678117 0.18577264 -0.34568262 -0.14583519 -0.19324721 0.10679093 0.20433661 -0.16063665
0.09764775 -0.09430407 0.011814035 -0.31983718 0.2111143 -0.23484786 0.16763493 0.012151606
-0.014546774 -0.15051608 -0.27101442 0.2172747 -0.026301049 0.30207333 0.18085913 0.16585729
-0.2792115 -0.30575266 0.11421093 0.07003423 0.008857993 0.25435126 0.14239794 -0.10682867
-0.064775854 0.2879872 0.35276404 -0.2248351 -0.20187315 0.15710568 0.2689611 0.04043968
0.27680475 0.31403083 0.19119436 0.15574521 0.07282816 0.0698403 -0.27649754 -0.14198738
00000000: ab27 413e 3587 6d3e 23ab 7d3e 5e80 923d
00000010: 1c0f a2bd fd33 4b3d 7762 b03a 85b5 42bd
00000020: 1746 ad3e 99c5 c6bd ef9a ab3e d1fb 24be
00000030: 6e4f c5bd 9bf6 2c3e e707 b1be c316 ddbd
00000040: 9e64 d6bd 2c47 7f3e 8926 11bb 133f ee3b
00000050: e9ea 6b3d 23a4 f93d fe6b 99be 043f 0d3e
00000060: e1a3 31bd 9495 4e3e 3c47 4b3e 90b4 0b3e
00000070: 4646 833d 22a6 4d3e 392e 88be 62bc 4bbe
00000080: ecf1 893e 8737 91be ce4e ee3d aa57 b03e
00000090: 9b84 70be 6e3f 933e d34c 083e 2139 61bd
000000a0: 2092 8fbe cc01 093e 4110 503b 2116 903c
000000b0: a23e 573e 311b 8dbe 827d 60be c1ee 9e3d
000000c0: 542e 8abe 49ba 45bd 0110 32be 366d 58bd
000000d0: 9d0d 3e3d 4ca1 33bc 3079 2a3e 1c0e 473e
000000e0: a282 b53d 0557 633c 1842 74be 3d1c 323e
000000f0: 32c2 613e 5268 7c3e 15b9 6b3e 9964 cf3d
00000100: afd0 0c3a bdf2 f2bd 2264 76be 6283 5ebe
00000110: 7560 27be 8854 f7bd cfe5 3ebd 1207 a8be
00000120: a344 b53d f803 963e ca16 4f3d 37a0 383d
00000130: bf5c 1e3e 953d a63e 4b3c 2bbc 9752 e3bc
00000140: 63ba 8fbe 1329 0ebe cd54 613d 9e0d 27be
00000150: 926e 21be 4935 babd 45ad 7abe 4f18 2bbe
00000160: 11df 6b3e 953c 21be 1c48 98be 2bf8 14be
00000170: 82f5 20bc a6b4 3a3d ca5d 2a3d 7932 21bd
00000180: f138 673e e9f5 15be e776 30bc 7c25 f43c
00000190: 9055 bc3d d561 5cbe bf33 f6bd 547d 98bd
000001a0: 02a5 a9be 4d93 81bd 794f 9abe ccba e5bd
000001b0: b12e fd3d 7f3b 64be ccf4 b33e 2a80 0f3e
000001c0: 5fc2 aabe 3c4b d8bd a8f2 473d b87e 113e
000001d0: 5a2a a33e 72c4 0abd 930f 273e efef 6cbe
000001e0: 450b 8abe c5ac 233e cf63 9abe b930 73bd
000001f0: 0779 693e ed09 99be 11bb 343c dcc2 193e
00000200: 9537 bf3d b27b 19be 3174 5bbc f2b8 65ba
00000210: 602c 0f3e 98e7 113e 56dd 6e3d fd35 833e
00000220: 623e cc3d d827 9bbe 2214 f63d 2e08 203e
00000230: 853c 96bd 4559 83bd c462 86be 3e5e 74be
00000240: d5df 21be cb0d a53e cdff 7bbe ef34 b4bd
00000250: e168 8cba 82a4 cb3d fba6 1f3e e8c2 98bd
00000260: e961 4cbe df1a a83d 1ae8 183c 2fa4 f93d
00000270: 68c9 7b3e 818c ef3d f5a6 bd3d ecf7 053c
00000280: b1a6 0f3c 91b2 15be 782a 373e 7a02 933d
00000290: 53ac 7dbe 460a 2a3e 45a9 6cbe 5497 0d3d
000002a0: b648 a9be a69d 82be f0da 6c3e 75c5 21bd
000002b0: 4298 993d a7b9 163e dc8b 70be 366e 63be
000002c0: e02b 01be b775 443e 86eb a8b8 2d64 713e
000002d0: 7a17 2bbd 296d e13d c6f5 9a3e 50ba 803e
000002e0: ebcd 6ebd b38a db3c 0048 1bbd 28ad aebe
000002f0: 0195 943d ae92 14be 3abd a4bc 1ae0 dbbd
00000300: 8320 13be 3c8b b4bd c3a1 2dbd 10b7 9b3d
00000310: da00 49be 1daf 54be 2f0b 31be 0098 81bb
00000320: d59e ac3d b426 d4bd 7705 c63d cd12 9dbe
00000330: 4706 9b3e 15fd 1cbe e8f9 cc3c ece1 0abe
00000340: 487b 4b3d 2f3b 3e3e 50fd b0be d255 15be
00000350: 99e2 45be 34b5 da3d 9e3d 513e ef7d 24be
00000360: 8bfb c73d 7e22 c1bd a78f 413c b3c1 a3be
00000370: 592e 583e f57b 70be 7ea8 2b3e 8817 473c
00000380: 9855 6ebc e320 1abe 67c2 8abe 427d 5e3e
00000390: 4c75 d7bc 5ba9 9a3e 2333 393e 7ed6 293e
000003a0: cff4 8ebe 9d8b 9cbe 6ce7 e93d 1b6e 8f3d
000003b0: 1e21 113c 543a 823e c4d0 113e fdc8 dabd
000003c0: 34a9 84bd 0f73 933e 7d9d b43e 2c3b 66be
000003d0: d6b7 4ebe 50e0 203e 45b5 893e 14a4 253d
000003e0: 5ab9 8d3e a6c8 a03e 74c8 433e ac7b 1f3e
000003f0: ee26 953d 6e08 8f3d 1691 8dbe 2465 11be

bias f4 [320]
-0.24962088 0.18963562 -0.0063802465 0.08392306 0.31134942 -0.26237115 0.025555948 0.33643964
0.12984975 0.0032247498 0.20873415 0.32697138 -0.08340206 -0.0005861865 0.1834209 0.1569345
-0.24485473 0.121440046 0.03772577 0.11714781 -0.0049667 0.18657722 -0.105619214 0.10812806
0.3072029 -0.1990525 0.16605681 0.11807294 0.068302535 0.041798815 0.34892845 -0.076227866
-0.119511 0.2145216 -0.011095946 0.28003934 -0.13842987 0.20863146 0.14204367 0.34412056
0.026116455 0.012843703 0.1407208 -0.20106043 -0.097559154 -0.1631406 0.15469916 0.10208632
-0.0034972292 0.0014032464 -0.23434733 0.25770593 -0.15527838 0.04460689 -0.22509003 -0.121568985
0.34289417 -0.22053035 -0.17649682 -0.21563919 0.27750817 0.23166434 0.2739773 0.2765581
-0.30397192 -0.20389314 -0.16865511 0.2466777 -0.14925438 0.0244844 0.027475893 0.09481524
0.3117504 0.2229834 0.1593616 -0.079898976 0.33148617 0.16608329 -0.18283874 -0.23666689
0.20936707 0.030779583 -0.1461516 0.111969806 0.15426607 -0.07660576 -0.15330486 0.1034291
-0.18833785 -0.078508824 -0.1339542 -0.13921976 0.30204162 -0.13415748 0.1162444 0.26500416
-0.10021152 -0.054100458 -0.18366723 0.09843155 -0.1355827 -0.018486643 0.20495138 -0.14954144
0.08074965 -0.021077456 0.32604352 0.0089211445 -0.30553254 -0.08684442 0.3166441 -0.2823785
-0.10959025 0.23963113 0.28144577 0.13222289 -0.12625585 -0.026395347 0.033895228 -0.21859515
-0.16012822 -0.17430665 -0.11743357 -0.07163029 0.16012368 -0.13620913 0.16775034 0.2647768
0.1406189 0.3409992 0.24709111 0.145597 0.042154215 -0.22165199 -0.026516223 0.2798734
-0.2298933 0.29029438 -0.00594445 -0.089192085 -0.05013643 0.22075132 0.22134034 0.32288548
-0.18636358 0.0007274848 0.088775754 -0.24734463 0.22742525 0.33296117 0.16994832 0.10350492
0.081244424 0.2519395 0.12355586 -0.006275543 -0.14230445 0.34195957 -0.033948366 -0.1626123
0.34861878 0.18668549 0.3457215 0.014975716 -0.0866623 0.3361171 -0.23042403 -0.28118157
0.005021309 -0.098631166 -0.26854342 -0.28652033 -0.08132664 0.010769431 0.13798434 -0.115208246
0.009039282 -0.3029221 0.335052 -0.10693515 -0.23346561 0.3061127 -0.27973452 -0.06568916
0.16620924 -0.03317184 -0.16215475 0.008825859 0.34820673 0.27833867 0.26487437 0.14236338
0.21987765 0.26400438 -0.03792531 0.06730989 0.28968295 0.015986372 -0.03429406 0.29077056
0.15818818 0.06284318 -0.0072509963 -0.10249075 -0.075040616 -0.18621302 0.2371218 -0.044777043
-0.032208234 -0.2296571 0.19590579 -0.30554044 0.19972192 0.23272689 0.012730923 -0.00020795986
0.07861063 -0.09046191 0.33942363 0.13199739 0.30578345 -0.19194852 0.27594578 -0.16547124
-0.116148666 -0.2561763 -0.25744745 0.2537214 0.26261836 0.03491658 0.097244106 -0.07909952
0.24501713 0.31004322 0.34398615 -0.050606992 0.20540418 -0.25108942 -0.12167025 0.24252692
0.07870489 -0.27692345 0.088483505 -0.03189145 -0.25014463 0.043584608 0.23944598 -0.086060114
0.13961117 0.09302221 -0.04077712 -0.35072508 0.15799046 -0.12349342 -0.061457317 0.13573846
00000000: 9e9c 7fbe d72f 423e 6311 d1bb dadf ab3d
00000010: 3169 9f3e 8355 86be b55a d13c d141 ac3e
00000020: 55f7 043e 5356 533b 68be 553e cb68 a73e
00000030: b3ce aabd 4faa 19ba b0d2 3b3e 70b3 203e
00000040: 33bb 7abe 8fb5 f83d 5686 1a3d 31eb ef3d
00000050: b3bf a2bb 190e 3f3e e34e d8bd 3f72 dd3d
00000060: b349 9d3e 6bd4 4bbe cc0a 2a3e 3ad0 f13d
00000070: 33e2 8b3d 3c35 2b3d c0a6 b23e 5b1d 9cbd
00000080: 2fc2 f4bd 8dab 5b3e c5cb 35bc 5161 8f3e
00000090: 8fc0 0dbe 7ca3 553e e573 113e 9230 b03e
000000a0: 2df2 d53c 656e 523c 1d19 103e c9e2 4dbe
000000b0: 18cd c7bd 540e 27be 7569 1e3e a212 d13d
000000c0: c531 65bb 23ed b73a bff8 6fbe 08f2 833e
000000d0: 4c01 1fbe b7b5 363d 007e 66be 29f9 f8bd
000000e0: d38f af3e b5d2 61be 95bb 34be 85d0 5cbe
000000f0: 8d15 8e3e 6b39 6d3e c146 8c3e 0699 8d3e
00000100: 35a2 9bbe 5dc9 50be edb3 2cbe 1499 7c3e
00000110: 24d6 18be 8293 c83c 2015 e13c 7e2e c23d
00000120: c09d 9f3e c355 643e b02f 233e 13a2 a3bd
00000130: 8eb8 a93e bd11 2a3e 143a 3bbe ce58 72be
00000140: 5264 563e 7725 fc3c c4a8 15be 6d50 e53d
00000150: edf7 1d3e 7be3 9cbd f3fb 1cbe a3d2 d33d
00000160: a3db 40be 3cc9 a0bd 4a2b 09be a08f 0ebe
00000170: 33a5 9a3e 9460 09be 8b11 ee3d a0ae 873e
00000180: b33b cdbd 7198 5dbd 4313 3cbe 7b96 c93d
00000190: 31d6 0abe 4d71 97bc c6de 513e 6421 19be
000001a0: 1360 a53d a1aa acbc 2def a63e fe29 123c
000001b0: c36e 9cbe 7ddb b1bd 2d1f a23e ea93 90be
000001c0: da70 e0bd dd61 753e a919 903e 7065 073e
000001d0: 3749 01be 0e3b d8bc b9d5 0a3d 68d7 5fbe
000001e0: a7f8 23be 717d 32be 0381 f0bd e7b2 92bd
000001f0: 76f7 233e 687a 0bbe bfc6 2b3e d390 873e
00000200: 67fe 0f3e 7297 ae3e 7405 7d3e 6117 153e
00000210: e6a9 2c3d bdf8 62be 8d38 d9bc 914b 8f3e
00000220: 2669 6bbe 77a1 943e a9c9 c2bb 57aa b6bd
00000230: db5b 4dbd a20c 623e 0ba7 623e 3f51 a53e
00000240: 18d6 3ebe aeb4 3e3a 10d0 b53d e947 7dbe
00000250: 2ae2 683e e379 aa3e ef06 2e3e 63fa d33d
00000260: 7a63 a63d 37fe 803e db0a fd3d 12a3 cdbb
00000270: 42b8 11be 5315 af3e 710d 0bbd d783 26be
00000280: 297e b23e 7b2a 3f3e 6902 b13e b55c 753c
00000290: 017c b1bd 8a17 ac3e 47f4 6bbe 08f7 8fbe
000002a0: cb89 a43b 23ff c9bd 867e 89be cbb2 92be
000002b0: 958e a6bd 4472 303c c44b 0d3e 4df2 ebbd
000002c0: 7f19 143c 9b18 9bbe f08b ab3e d100 dbbd
000002d0: 9c11 6fbe ceba 9c3e 5d39 8fbe 0a88 86bd
000002e0: c132 2a3e 32df 07bd e50b 26be 569a 103c
000002f0: 2748 b23e 6882 8e3e 9d9d 873e b5c7 113e
00000300: 9b27 613e 952b 873e 9257 1bbd c5d9 893d
00000310: 5351 943e daf5 823c ee77 0cbd e1df 943e
00000320: 15fc 213e edb3 803d c499 edbb ace6 d1bd
00000330: e5ae 99bd a0ae 3ebe 0fd0 723e 2268 37bd
00000340: c8ec 03bd 3b2b 6bbe 879b 483e cc6f 9cbe
00000350: e783 4c3e f54f 6e3e 5c95 503c cd0f 5ab9
00000360: 9cfe a03d 1844 b9bd efc8 ad3e 532a 073e
00000370: a68f 9c3e 278e 44be c448 8d3e 4b71 29be
00000380: 5adf edbd 8a29 83be 27d0 83be c5e7 813e
00000390: ea75 863e b004 0f3d eb27 c73d eefe a1bd
000003a0: c5e5 7a3e fcbd 9e3e f41e b03e 4749 4fbd
000003b0: 7955 523e cb8e 80be 412e f9bd fa58 783e
000003c0: 0830 a13d e9c8 8dbe d736 b53d 9ca0 02bd
000003d0: f512 80be c685 323d 5431 753e 4940 b0bd
000003e0: 3bf6 0e3e 6e82 be3d e905 27bd 3d92 b3be
000003f0: 40c8 213e 1eea fcbd abba 7bbd 06ff 0a3e

weight f4 [4, 320]
0.007144851 -0.02008832 -0.010543452 -0.04360211 0.004648179 0.0057398207 0.073192105 0.0034995282
0.041585255 -0.031260096 -0.041731242 -0.045097724 -0.039879773 -0.0071741873 -0.040933736 0.048900142
0.014419778 0.01069127 -0.024388181 0.04708645 -0.004170884 0.037477553 0.000356809 -0.011728173
0.046497922 -0.044194378 0.02566119 0.0066645625 -0.03483567 0.042318586 0.02026483 -0.0028235272
-0.032294452 -0.033313856 -0.007601675 -0.019248586 0.005113184 0.04133664 0.0022521405 0.031774864
0.07122563 0.0023209185 0.04268504 3.4797638e-06 -0.012445992 0.072219476 0.00067890924 0.058437977
4.3505884e-06 -0.0016985993 -0.00052905624 -0.05178303 0.04944989 0.026042888 -0.01868584 0.045410044
-0.046074238 0.004847703 -0.0015342295 0.014152705 0.039149612 0.0369314 0.046516765 -0.009360867
0.010179572 -0.019267112 -0.01905541 -0.052363038 -0.0136615755 -0.034596127 -0.0004995489 -0.040248033
-0.035710927 0.014662919 -0.03658342 -0.047796976 0.0032468948 0.0072986158 -1.9620005e-05 0.004086872
-0.038080283 -0.0044880677 -0.0014134487 0.0026691563 0.04245889 0.006439331 -0.019372758 0.042347323
0.0055167675 0.0524722 -0.013453621 -0.0001091624 0.035442505 0.009228545 0.036520295 -0.053385835
-0.0080809565 -0.000995449 -0.03837836 -0.050640237 0.015530994 -0.021809623 0.056888167 0.035252664
0.000806684 -0.004561079 -0.009542585 0.027232544 -0.017353822 0.005405701 -0.012518749 0.010087918
-0.016644267 -0.026120247 0.053263973 0.04467804 -2.1151594e-05 0.03163603 -0.0005910045 0.021355493
0.011638626 0.043772202 6.7324977e-06 -0.00013201837 -0.022571549 0.012562478 -0.047378767 0.01727097
-0.008176619 0.03439247 -0.047480248 -0.01637767 -0.0039502643 0.018932259 0.001993913 0.032104377
8.1234095e-05 -0.0016986931 0.005682542 -0.00047665928 0.006394056 0.0849283 0.026263507 0.028834427
0.057515666 0.017151888 -0.061430663 -0.017022755 0.0040153344 -0.050683446 -0.052134767 -0.029510828
-0.006839967 0.018050896 -0.019898951 0.008473905 0.03566695 -0.021202238 -0.040104434 -0.0007547051
0.050040066 -0.033267938 -0.021397755 0.04140632 -0.03638722 -0.023803404 -0.012193052 -0.0010282802
0.04575616 -0.028322699 0.023351563 0.010489281 -0.00016594677 0.004505984 0.02100628 -0.024354545
0.103486456 0.021708226 0.01362657 -0.027827471 -0.02232814 0.05213631 0.019126877 0.023539515
0.057431944 0.052749693 -0.005100631 -0.020554619 0.002162935 -0.007606356 -0.041358065 0.05563421
-0.019480944 0.03032373 -0.018367471 0.03204619 -0.012808 0.031084986 -0.021820558 0.015845058
0.047492374 0.0042946897 0.019752841 -0.021371849 -0.030582113 0.013353071 -0.049459852 -0.013689314
-0.02375145 -0.016577313 -0.017985428 -0.0021212772 -0.038265042 0.044405874 0.011219991 3.5639737e-06
-0.05253053 0.0072456948 0.013934389 0.051480126 0.027590146 -0.010816341 -0.006227917 -0.014162057
0.0025572567 0.023931807 0.009589308 -0.00054613454 0.01664187 0.011196936 -0.04214801 0.054068714
-0.05081974 0.033230584 0.020622753 -0.0059440024 -0.0071507706 -0.022338593 0.005286009 -0.020367632
-0.0047271424 -0.00024613505 0.008125453 0.031912338 0.011126062 0.0330912 0.01066659 -0.0001091822
-0.016692977 -0.04641731 -0.0011940572 -0.039652243 -0.02395541 0.07510542 0.0016175212 0.009826163
00000000: 5b1f ea3b 4390 a4bc 71be 2cbc 2098 32bd
00000010: c04f 983b 1b15 bc3b bee5 953d 5758 653b
00000020: 4d55 2a3d 960a 00bd 61ee 2abd 64b8 38bd
00000030: f958 23bd 7215 ebbb 22aa 27bd 844b 483d
00000040: ef40 6c3c 702a 2f3c b9c9 c7bc b9dd 403d
00000050: e9ab 88bb 1082 193d 1812 bb39 8627 40bc
00000060: 9b74 3e3d 2a05 35bd 6a37 d23c 6762 da3b
00000070: d9af 0ebd 4156 2d3d 6e02 a63c ed0a 39bb
00000080: 3047 04bd 1c74 08bd 7917 f9bb 36af 9dbc
00000090: 7f8c a73b 9c50 293d a698 133b 5c26 023d
000000a0: bede 913d 8d1a 183b 82d6 2e3d e385 6936
000000b0: 46ea 4bbc cee7 933d d4f8 313a a95c 6f3d
000000c0: 45fb 9136 89a3 deba 5db0 0aba 711a 54bd
000000d0: f88b 4a3d e557 d53c 0c13 99bc e2ff 393d
000000e0: 57b8 3cbd 7bd9 9e3b 3318 c9ba bfe0 673c
000000f0: 585b 203d 6145 173d 5d88 3e3d 525e 19bc
00000100: 38c8 263c 10d6 9dbc 171a 9cbc a07a 56bd
00000110: cdd4 5fbc abb4 0dbd 29f4 02ba 1fdb 24bd
00000120: 9f45 12bd bd3c 703c 7fd8 15bd c3c6 43bd
00000130: dbc9 543b 3a29 ef3b a495 a4b7 2beb 853b
00000140: 12fa 1bbd a410 93bb 7843 b9ba 03ed 2e3b
00000150: 5fe9 2d3d 0601 d33b 9eb3 9ebc 6374 2d3d
00000160: 00c6 b43b 17ed 563d 946c 5cbc 1eee e4b8
00000170: 292c 113d 5333 173c 4e96 153d 1bab 5abd
00000180: fd65 04bc ba79 82ba a132 1dbd 236c 4fbd
00000190: b675 7e3c 18aa b2bc 9103 693d 1965 103d
000001a0: a677 533a 1b75 95bb 8158 1cbc c916 df3c
000001b0: 9a29 8ebc 4f22 b13b 701b 4dbc cb47 253c
000001c0: 8f59 88bc 21fa d5bc 532b 5a3d 5200 373d
000001d0: b46e b1b7 c894 013d a4ed 1aba b7f1 ae3c
000001e0: f0af 3e3c 7b4a 333d b7e7 e136 696e 0ab9
000001f0: f8e7 b8bc dad2 4d3c 3d10 42bd d97b 8d3c
00000200: 3af7 05bc 1edf 0c3d a67a 42bd 772a 86bc
00000210: 3871 81bb d317 9b3c 4fac 023b e17f 033d
00000220: 395c aa38 afa6 deba 9e34 ba3b 20e8 f9b9
00000230: 3b85 d13b e3ee ad3d 9126 d73c 2d36 ec3c
00000240: 8c95 6b3d 1e82 8c3c b89e 7bbd 4e73 8bbc
00000250: 1193 833b 7299 4fbd 448b 55bd b1c0 f1bc
00000260: cd21 e0bb 79df 933c 2003 a3bc 22d6 0a3c
00000270: 8217 123d 51b0 adbc 8c44 24bd 67d7 45ba
00000280: d0f6 4c3d f643 08bd 584a afbc ac99 293d
00000290: c40a 15bd 5bff c2bc 5ec5 47bc 5cc7 86ba
000002a0: d06a 3b3d 0105 e8bc c74b bf3c 3cdb 2b3c
000002b0: ff01 2eb9 efa6 933b 5d15 ac3c 2f83 c7bc
000002c0: b5f0 d33d 73d5 b13c fa41 5f3c 70f6 e3bc
000002d0: 81e9 b6bc e28c 553d f8af 9c3c f1d5 c03c
000002e0: c23d 6b3d 1010 583d 3223 a7bb 2962 a8bc
000002f0: 07c0 0d3b bd3e f9bb 1367 29bd b3e0 633d
00000300: 8096 9fbc 7969 f83c 6177 96bc de42 033d
00000310: a5d8 51bc f1a5 fe3c 07c1 b2bc 7fcd 813c
00000320: 5d87 423d 78ba 8c3b b6d0 a13c 0414 afbc
00000330: 5787 fabc d7c6 5a3c 6a96 4abd 2549 60bc
00000340: 6792 c2bc 25cd 87bc 2d56 93bc 2005 0bbb
00000350: cebb 1cbd efe2 353d 0ed4 373c 9a2c 6f36
00000360: 412a 57bd 4b6d ed3b 104d 643c d3dc 523d
00000370: bb04 e23c 0637 31bc 8e13 ccbb f907 68bc
00000380: a697 273b a30c c43c 791c 1d3c 782a 0fba
00000390: 8854 883c 5a73 373c 64a3 2cbd 2877 5d3d
000003a0: 5c28 50bd cb1c 083d 0cf1 a83c e8c5 c2bb
000003b0: 0351 eabb 6dff b6bc 4236 ad3b 05da a6bc
000003c0: 25e6 9abb b00b 81b9 9f20 053c 83b6 023d
000003d0: 164a 363c a38a 073d ecc2 2e3c bff8 e4b8
000003e0: b6bf 88bc 1420 3ebd e981 9cba 646a 22bd
000003f0: 233e c4bc dfd0 993d 0103 d43a eafd 203c

bias f4 [4]
-0.044638947 0.0106073525 -0.020220157 -0.03887929
00000000: 54d7 36bd 76ca 2d3c bea4 a5bc e43f 1fbd

weight f4 [4, 8]
-0.3543623 0.31644535 -0.24274711 -0.033320356 -0.060382593 -0.11327298 0.19437572 0.022339927
0.28096133 -0.13830009 0.004106463 0.24620014 -0.10545442 0.111069724 0.10593237 0.06266723
-0.26734787 0.2161892 0.20831338 -0.25300506 0.13834736 -0.28424016 -0.062738955 -0.17612527
0.16165666 -0.33231473 -0.10819997 -0.17347331 0.011504959 0.16769996 -0.20556062 0.31602934
00000000: fa6e b5be 2005 a23e b392 78be ed7a 08bd
00000010: bd53 77bd aafb e7bd 6e0a 473e 3902 b73c
00000020: 2ada 8f3e 8a9e 0dbe 828f 863b e41b 7c3e
00000030: 7df8 d7bd 8678 e33d 12f3 d83d ad57 803d
00000040: d2e1 88be b460 5d3e 1a50 553e e189 81be
00000050: eeaa 0d3e ed87 91be 487d 80bd 2f5a 34be
00000060: 5389 253e 2825 aabe f297 ddbd fda2 31be
00000070: 4c7f 3c3c 8ab9 2b3e 7c7e 52be 99ce a13e

bias f4 [4]
0.0792652 -0.18350933 -0.28622156 0.14624667
00000000: cb55 a23d dfe9 3bbe a28b 92be b0c1 153e

weight f4 [4, 8]
-0.20321755 0.09840668 0.24138823 0.14980221 0.00025018697 0.2889694 -0.15765223 4.3305623e-05
0.060260344 0.19247335 0.07704734 0.19147362 0.21968958 0.15347746 0.26326302 -0.12506196
-0.11613364 0.2735348 -0.033658817 0.14523175 -0.23202689 0.14972685 -0.007624662 -0.25176638
0.05059606 0.20769307 0.055698413 -0.06699489 0.033645418 0.0980452 0.12645625 0.0016660953
00000000: 4318 50be 7189 c93d 7a2e 773e c065 193e
00000010: 872b 8339 ccf3 933e 966f 21be 0fa3 3538
00000020: 8dd3 763d bc17 453e ffca 9d3d a911 443e
00000030: 4ef6 603e 3229 1d3e 69ca 863e 3e10 00be
00000040: 79d7 edbd c10c 8c3e d4dd 09bd a2b7 143e
00000050: 7598 6dbe ff51 193e 4dd8 f9bb 86e7 80be
00000060: d03d 4f3d 7ead 543e 0524 643d 9e34 89bd
00000070: c7cf 093d eccb c83d bf7d 013e e260 da3a

bias f4 [4]
-0.08681981 0.06916765 0.17294422 0.13735943
00000000: 96ce b1bd c5a7 8d3d 4a18 313e f3a7 0c3e

weight f4 [10, 2]
-0.3758208 0.22135605 -0.47653383 0.1700519 0.689059 0.13962965 -0.6534185 -0.16435863
0.44297233 -0.50003976 0.22497515 0.28449163 -0.15075569 0.513162 0.34590754 -0.053663876
0.33565414 -0.7069848 0.6447775 -0.33620396
00000000: 956b c0be 29ab 623e 3efc f3be 1622 2e3e
00000010: 2c66 303f 13fb 0e3e 6f46 27bf a14d 28be
00000020: 45cd e23e 9b02 00bf e35f 663e e3a8 913e
00000030: b35f 1abe 965e 033f cb1a b13e a7ce 5bbd
00000040: dcda ab3e f5fc 34bf 2310 253f ed22 acbe

bias f4 [10]
-0.35999057 -0.6087276 0.44315454 0.37905753 0.54722625 0.24899572 -0.6289101 0.6408256
0.12029672 -0.39357036
00000000: af50 b8be 92d5 1bbf 27e5 e23e d413 c23e
00000010: 0517 0c3f bcf8 7e3e 4100 21bf 260d 243f
00000020: 205e f63d 0e82 c9be

weight f4 [10, 2]
-0.41989374 0.06525691 -0.60573804 -0.36643815 0.085902296 -0.53293526 -0.11060507 -0.1435651
-0.31941542 -0.19415696 0.36239728 0.6345058 0.25704503 0.06716416 -0.49316826 -0.05386727
-0.28002152 -0.5429174 -0.40636307 0.68362105
00000000: 50fc d6be 6aa5 853d a611 1bbf c89d bbbe
00000010: 8bed af3d 726e 08bf e984 e2bd bb02 13be
00000020: 6b8a a3be 15d1 46be 238c b93e f96e 223f
00000030: 689b 833e 5d8d 893d 8d80 fcbe eda3 5cbd
00000040: fb5e 8fbe a2fc 0abf d20e d0be ca01 2f3f

bias f4 [10]
0.6231113 0.08198838 0.4460583 0.10956977 -0.40086806 0.043996844 -0.52549154 -0.24094151
-0.19557635 -0.019882996
00000000: 3984 1f3f 86e9 a73d c161 e43e 1e66 e03d
00000010: 943e cdbe 0936 343d 9d86 06bf 5fb9 76be
00000020: 2b45 48be aae1 a2bc

weight f4 [20, 4]
0.4425373 0.02633575 0.4079523 -0.36755052 -0.33338872 -0.46225888 -0.044846423 -0.16347472
0.08621812 -0.09088342 0.51199794 -0.12315764 -0.23038656 -0.38993576 0.31291306 0.095260486
0.08964146 -0.02256494 0.28863388 0.29182073 0.4050529 -0.28823447 -0.0059255 -0.10600073
0.32157817 0.48080698 0.45385298 0.40496445 -0.34289867 0.2711921 -0.26889333 -0.067915656
0.47380498 0.060901545 -0.017033206 0.49360093 -0.20124336 -0.1622346 -0.38776597 0.31740394
0.42996475 0.084559835 -0.11340717 0.28938028 -0.109903775 0.0010647604 -0.023934536 0.47682303
-0.48757878 0.2473445 0.2731568 0.3257812 -0.00736358 -0.16973117 -0.0034476193 -0.16596623
0.27847764 -0.31155086 -0.020913694 -0.2581774 -0.44159478 0.3102496 0.17968714 -0.012694231
0.2573798 -0.012407747 -0.48097178 0.23593149 0.41560736 -0.4765883 -0.3927655 0.34261382
0.37297684 -0.24681097 -0.26630944 -0.45935172 0.40771684 0.045713916 -0.30208188 -0.03733856
00000000: 4094 e23e 12be d73c 20df d03e 952f bcbe
00000010: edb1 aabe 32ad ecbe e2b0 37bd eb65 27be
00000020: 2093 b03d 1621 babd 4c12 033f 133a fcbd
00000030: 74ea 6bbe a9a5 c7be 2436 a03e ee17 c33d
00000040: f195 b73d 1cda b8bc d2c7 933e 8769 953e
00000050: 1863 cf3e 7893 93be b22a c2bb e916 d9bd
00000060: e5a5 a43e 552c f63e 6b5f e83e 8057 cf3e
00000070: 6a90 afbe b1d9 8a3e 63ac 89be 5d17 8bbd
00000080: 9196 f23e e673 793d 3989 8bbc 43b9 fc3e
00000090: bd12 4ebe d420 26be 4389 c6be c582 a23e
000000a0: 5724 dc3e b52d ad3d 0542 e8bd a729 943e
000000b0: 3b15 e1bd 6e8f 8b3a 5c12 c4bc 2622 f43e
000000c0: eda3 f9be e047 7d3e 35db 8b3e cbcc a63e
000000d0: 304a f1bb 02ce 2dbe 74f1 61bb 0df3 29be
000000e0: 9f94 8e3e 9883 9fbe 3253 abbc d42f 84be
000000f0: b618 e2be 09d9 9e3e e8ff 373e 77fb 4fbc
00000100: 49c7 833e dd49 4bbc ef41 f6be 0698 713e
00000110: 7dca d43e 6203 f4be 8f18 c9be 146b af3e
00000120: d2f6 be3e 04bc 7cbe b659 88be 2630 ebbe
00000130: 43c0 d03e 843e 3b3d 7aaa 9abe 51f0 18bd

bias f4 [20]
0.49118537 0.3848072 0.07328247 -0.17065817 0.44029564 -0.2953425 0.17011544 -0.28391597
-0.12565343 0.4937032 0.3045324 -0.00804715 0.43579584 -0.14175224 0.42021936 0.18469429
-0.35086295 0.0024987448 0.4755169 0.49448165
00000000: a67c fb3e 7305 c53e 1f15 963d 04c1 2ebe
00000010: 6e6e e13e 2237 97be be32 2e3e 6f5d 91be
00000020: 4bab 00be aac6 fc3e aceb 9b3e 32d8 03bc
00000030: a220 df3e 8027 11be fe26 d73e 8020 3d3e
00000040: 4fa4 b3be fbc1 233b f376 f33e b32c fd3e

x_out f4 [2]
1.7265679 1.7228017
00000000: 2d00 dd3f c484 dc3f

m1x_posterior f4 [2, 1]
1.7265679 1.7228017
00000000: 2d00 dd3f c484 dc3f

m1x_posterior_previous f4 [2, 1]
1.7191987 1.7168528
00000000: b40e dc3f d5c1 db3f

m1x_prior_previous f4 [2, 1]
1.9890085 1.9893527
00000000: d597 fe3f 1ca3 fe3f

KGain_array f4 [100, 2, 2]
0.13259558 0.28051826 0.23500416 0.16103281 0.11221422 0.21032515 0.20195527 0.101126194
0.083454326 0.19483799 0.17659622 0.108625576 0.07578024 0.18533386 0.17054744 0.097148165
0.075666785 0.19732872 0.17758921 0.0961701 0.07347281 0.19192462 0.17237134 0.09511088
0.0703117 0.20143788 0.17926519 0.091460764 0.0711596 0.19352332 0.17108335 0.09477639
0.06389568 0.20502889 0.1769492 0.08993229 0.06677815 0.19538465 0.16732225 0.09508531
0.07421758 0.19793518 0.17828034 0.09284438 0.07413852 0.19114044 0.17153859 0.09278837
0.06974721 0.20242773 0.1773713 0.09065506 0.07148099 0.19343157 0.17041554 0.09399815
0.07835085 0.19773683 0.1707076 0.10231848 0.087531984 0.17842484 0.1705369 0.09296121
0.078798585 0.19194624 0.17534205 0.092353776 0.079043694 0.18811797 0.17206013 0.093840644
0.09098412 0.18806152 0.16768432 0.104606226 0.09427141 0.17505088 0.17073748 0.095534846
0.09688042 0.17598785 0.16522789 0.10431129 0.091052815 0.17524232 0.17080985 0.09659231
0.09498884 0.17710339 0.16914678 0.10084003 0.09972216 0.17171158 0.16904612 0.1023726
0.09066318 0.17695476 0.17231335 0.09883942 0.09910378 0.17545024 0.16770935 0.10322499
0.09511617 0.17625694 0.17081696 0.10362245 0.09254356 0.17485732 0.17278358 0.09865047
0.09888603 0.17649235 0.16844177 0.103057444 0.10590975 0.17391339 0.16710736 0.10504563
0.06930973 0.19198911 0.17413212 0.091578916 0.09168808 0.17797436 0.16897562 0.09966606
0.08342697 0.1824178 0.17256862 0.09780641 0.09695159 0.17389749 0.16813578 0.10208373
0.09627712 0.17148001 0.16842936 0.09837034 0.09583895 0.17534561 0.16991127 0.09893353
0.06461827 0.19312309 0.17447019 0.09326975 0.089521065 0.17837796 0.17138253 0.10018639
0.085425004 0.17714031 0.17361581 0.09336837 0.07055991 0.19773759 0.17989036 0.09425068
0.077088565 0.18697022 0.17136838 0.09487225 0.089421764 0.18623213 0.16619891 0.10226621
0.09628874 0.17584842 0.16890277 0.09869428 0.08771433 0.17854956 0.16892037 0.09440476
0.08202821 0.19352144 0.17318773 0.10185249 0.0849209 0.18000285 0.17006509 0.09597455
0.075298786 0.19638208 0.17374924 0.099708304 0.07895778 0.18967505 0.1747434 0.09679949
0.088122204 0.17794855 0.17065445 0.09552568 0.09199871 0.18238743 0.16893959 0.09990372
0.0977578 0.17379378 0.16938215 0.0985885 0.080883875 0.19077656 0.17764619 0.09701477
0.07844731 0.19246158 0.1767198 0.09653224 0.07164505 0.1891826 0.17346442 0.09696467
0.0932024 0.17762984 0.17185314 0.102541536 0.084612474 0.18005942 0.17309001 0.098818496
0.08450417 0.18434139 0.17290169 0.09905891 0.084666 0.18342043 0.16714992 0.10282937
0.08183448 0.19187012 0.17517042 0.09799199 0.08126859 0.18167365 0.16998123 0.093735754
0.073821574 0.19841017 0.17821106 0.09406908 0.07561991 0.19220428 0.17020454 0.09722328
0.07035452 0.20219935 0.1774404 0.092126116 0.07920926 0.18632868 0.17127302 0.092451915
00000000: 23c7 073e 17a0 8f3e eea4 703e c9e5 243e
00000010: 92d0 e53d 7a5f 573e 5dcd 4e3e 401b cf3d
00000020: 1aea aa3d 9c83 473e a4d5 343e 1677 de3d
00000030: ac32 9b3d 29c8 3d3e fda3 2e3e 9ef5 c63d
00000040: 30f7 9a3d 8a10 4a3e f2d9 353e d4f4 c43d
00000050: ea78 963d e387 443e 1d82 303e 7ec9 c23d
00000060: 95ff 8f3d bb45 4e3e 4b91 373e c84f bb3d
00000070: 20bc 913d fa2a 463e 7930 2f3e 201a c23d
00000080: bddb 823d 18f3 513e 2c32 353e 6c2e b83d
00000090: fcc2 883d ea12 483e 8656 2b3e 16bc c23d
000000a0: 63ff 973d 85af 4a3e 1f8f 363e 3225 be3d
000000b0: f0d5 973d 52ba 433e d0a7 2f3e d407 be3d
000000c0: a0d7 8e3d 3749 4f3e d2a0 353e 5ca9 b93d
000000d0: a064 923d ed12 463e 6981 2e3e 1a82 c03d
000000e0: 6976 a03d 867b 4a3e f9cd 2e3e 5a8c d13d
000000f0: f843 b33d 00b5 363e 3aa1 2e3e 7262 be3d
00000100: 2761 a13d 8e8d 443e de8c 333e fa23 bd3d
00000110: a9e1 a13d ffa1 403e 8830 303e 862f c03d
00000120: e255 ba3d 3393 403e 70b5 2b3e ca3b d63d
00000130: 5e11 c13d 8a40 333e ced5 2e3e c6a7 c33d
00000140: 3e69 c63d 2936 343e 8031 293e 28a1 d53d
00000150: e679 ba3d b972 333e c7e8 2e3e 30d2 c53d
00000160: 8289 c23d 975a 353e d034 2d3e 3885 ce3d
00000170: 223b cc3d 29d5 2f3e 6d1a 2d3e baa8 d13d
00000180: 9ead b93d a133 353e e972 303e 526c ca3d
00000190: ecf6 ca3d 3aa9 333e 00bc 2b3e a067 d33d
000001a0: 44cc c23d b37c 343e a4ea 2e3e 0238 d43d
000001b0: 7a87 bd3d cc0d 333e 2eee 303e 4209 ca3d
000001c0: c284 ca3d 69ba 343e 007c 2c3e c80f d33d
000001d0: 36e7 d83d 5a16 323e 311e 2b3e 2a22 d73d
000001e0: 42f2 8d3d cb98 443e b14f 323e ba8d bb3d
000001f0: f6c6 bb3d e93e 363e f207 2d3e b81d cc3d
00000200: c2db aa3d bbcb 3a3e d4b5 303e ba4e c83d
00000210: 8e8e c63d 2f12 323e c92b 2c3e 4611 d13d
00000220: f02c c53d 7598 2f3e bf78 2c3e 6476 c93d
00000230: 3647 c43d cd8d 333e 38fd 2d3e aa9d ca3d
00000240: 9556 843d 0fc2 453e 50a8 323e 3604 bf3d
00000250: d256 b73d b6a8 363e e77e 2f3e 862e cd3d
00000260: 4ef3 ae3d 4564 353e 58c8 313e ea37 bf3d
00000270: b781 903d b97b 4a3e 2e35 383e 8006 c13d
00000280: 9ce0 9d3d 1f75 3f3e 317b 2f3e 624c c23d
00000290: c222 b73d a3b3 3e3e 0c30 2a3e f270 d13d
000002a0: 0833 c53d 9c11 343e d9f4 2c3e 3a20 ca3d
000002b0: 92a3 b33d b2d5 363e 76f9 2c3e 4857 c13d
000002c0: 68fe a73d 7c2a 463e 2058 313e 0a98 d03d
000002d0: 02eb ad3d ab52 383e 8b25 2e3e 4e8e c43d
000002e0: 4036 9a3d 6218 493e 52eb 313e de33 cc3d
000002f0: 9eb4 a13d 2d3a 423e efef 323e d03e c63d
00000300: 6a79 b43d 2538 363e 0ac0 2e3e f8a2 c33d
00000310: d269 bc3d c5c3 3a3e 80fe 2c3e 529a cc3d
00000320: 3e35 c83d fff6 313e 8472 2d3e c4e8 c93d
00000330: 72a6 a53d ee5a 433e e2e8 353e aeaf c63d
00000340: fca8 a03d a614 453e 09f6 343e b2b2 c53d
00000350: a4ba 923d 15b9 413e a8a0 313e 6a95 c63d
00000360: e6e0 be3d 99e4 353e 45fa 2f3e 4c01 d23d
00000370: 4e49 ad3d 7f61 383e 823e 313e 5a61 ca3d
00000380: 8610 ad3d fdc3 3c3e 240d 313e 66df ca3d
00000390: 5e65 ad3d 91d2 3b3e 5929 2b3e 3498 d23d
000003a0: d698 a73d 9a79 443e e05f 333e 06b0 c83d
000003b0: 2670 a63d a808 3a3e 8f0f 2e3e 88f8 bf3d
000003c0: c42f 973d 092c 4b3e f67c 363e 4aa7 c03d
000003d0: 9dde 9a3d 33d1 443e 194a 2e3e 001d c73d
000003e0: 0816 903d 590d 4f3e f0b2 353e 9eac bc3d
000003f0: 7738 a23d f2cc 3e3e 3262 2f3e 6e57 bd3d

prior_Q f4 [2, 2]
1.0 0.0 0.0 1.0
00000000: 0000 803f 0000 0000 0000 0000 0000 803f

prior_Sigma f4 [2, 2]
1.0 0.0 0.0 1.0
00000000: 0000 803f 0000 0000 0000 0000 0000 803f

prior_S f4 [2, 2]
1.0 0.0 0.0 1.0
00000000: 0000 803f 0000 0000 0000 0000 0000 803f

h_Q f4 [1, 1, 4]
-0.026477575 0.322576 -0.6448161 -0.068195954
00000000: 80e7 d8bc ae28 a53e ab12 25bf 52aa 8bbd

h_Sigma f4 [1, 1, 4]
0.0 0.04189285 0.14705017 0.15393767
00000000: 0000 0000 d697 2b3d 5294 163e d6a1 1d3e

h_S f4 [1, 1, 4]
-0.41878116 -0.23499191 0.16227654 -0.7424685
00000000: 7c6a d6be b8a1 70be d22b 263e 6a12 3ebf

m1y f4 [2, 1]
3.956155 3.957524
00000000: a531 7d40 1348 7d40

KGain f4 [2, 2]
0.09064381 0.1755337 0.17299576 0.09863834
00000000: 76a3 b93d 1bbf 333e cd25 313e e602 ca3d
