KNet/model_VanillaRNN.pt (torch, 97087 bytes, 19 tensors)

weight_ih_l0 f4 [108, 18]
0	0x3dd5e632	0.10444297
1	0x3dd5df4e	0.104429826
2	0xbc7bc1c0	-0.015366018
3	0x3dc4d382	0.096106544
4	0x3e294d7d	0.16533466
5	0x3d597dec	0.053098604
6	0x3e0d4dfd	0.13799281
7	0xbdb4ecf0	-0.08834255
8	0x3d9fd61a	0.078045085
9	0xbe0b3132	-0.13592985
10	0x3d9c5608	0.07633597
11	0x3b9b12a0	0.004732445
12	0xbe07ddc6	-0.13268194
13	0x3db65c9a	0.08904381
14	0xbcb1cc68	-0.021703914
15	0x3df2b97a	0.11851783
16	0x3bdca4a0	0.006733492
17	0x3cf83ac8	0.030301467
18	0xbe03e42f	-0.12880014
19	0xbe001d26	-0.12511119
20	0xbd0fdac4	-0.03512074
21	0xbd070e60	-0.032972693
22	0xbd67416c	-0.056458876
23	0xbdd7762b	-0.105205856
24	0xbdf78613	-0.120861195
25	0xbdc5ccf3	-0.096582316
26	0x3ca30518	0.01989989
27	0x3d707fb0	0.058715522
28	0xbb0c6540	-0.0021422654
29	0xbd275914	-0.040856436
30	0xbe04e412	-0.12977627
31	0x3e15c7e1	0.14627029
32	0xbdf0c9a3	-0.11757209
33	0x3db5526a	0.0885361
34	0xbe28ec2f	-0.16496347
35	0x3e090ddd	0.13384195
36	0xbe0308fc	-0.12796396
37	0x3e137ee7	0.14403878
38	0x3dd6298a	0.10457142
39	0x3d2b5484	0.041828647
40	0x3e1d38a1	0.15353633
41	0x3e1ca947	0.15298949
42	0xbdceed5e	-0.10103868
43	0xbccd07a8	-0.025028065
44	0xbd61687c	-0.055031285
45	0x3d37f890	0.044914782
46	0xbe0ed914	-0.13949996
47	0xbd0ad324	-0.033892766
48	0x3d8dfac6	0.06932597
49	0xbbeeed20	-0.007291451
50	0x3dd2f2fe	0.10300253
51	0x3e1274f9	0.14302434
52	0xbc8b7bf8	-0.017026886
53	0x3cfa6740	0.030566812
54	0x3d0336d0	0.032034695
55	0xbd6f9c76	-0.058498822
56	0xbd3a972c	-0.045554325
57	0xbd61a776	-0.055091344
58	0x3ba908a0	0.005158499
59	0xbdd1286b	-0.10212787
60	0xbd959980	-0.073046684
61	0x3d00bb54	0.03142865
62	0xbd08d710	-0.033408225
63	0xbd2d5b46	-0.042323373
64	0xbb94a2a0	-0.004535988
65	0x3d62dbc0	0.05538535
66	0xbd270dc4	-0.040784612
67	0x3d947eca	0.072507456
68	0x3e187b7b	0.14890854
69	0xbd8133f3	-0.06308737
70	0x3d874fb2	0.066069975
71	0xbe0dd028	-0.13848937
72	0xbd849ca0	-0.06475186
73	0xbe184870	-0.14871383
74	0x3e0f4bb5	0.13993724
75	0x3c73ee00	0.014888287
76	0x3d008830	0.03137988
77	0x3baca860	0.0052690953
78	0xbdf4fdf3	-0.119624995
79	0x3d9b3840	0.07579088
80	0x3e288971	0.1645868
81	0x3d1bc650	0.038030922
82	0x3e1969ef	0.14981817
83	0xbdf548bb	-0.11976763
84	0x3d3f264c	0.046667382
85	0xbcb7db40	-0.022443414
86	0x3d161344	0.036639467
87	0x3c3254f0	0.0108845085
88	0x3b8edd80	0.004359901
89	0x3e0cb311	0.13740183
90	0xbdd1d3a0	-0.102454424
91	0x3d73e0b4	0.059540465
92	0xbd8bf540	-0.06833887
93	0xbe10f532	-0.14156035
94	0xbe1e6e22	-0.154717
95	0x3e0976b5	0.1342419
96	0x3dcf012a	0.10107644
97	0xbd481890	-0.04885155
98	0xbd19df34	-0.03756638
99	0xbe19259f	-0.14955758
100	0x3e0c4f29	0.13702072
101	0xbcafa928	-0.021442965
102	0x3d91bcd8	0.07116097
103	0xbd8c0220	-0.06836343
104	0x3ddaadfa	0.10677715
105	0x3e15ecdd	0.14641137
106	0xbd8b26eb	-0.067945324
107	0x3de2e2d2	0.11078419
108	0xbe1455bb	-0.14485829
109	0x3e0c13f9	0.13679494
110	0x3e1cf821	0.15329029
111	0xbe278370	-0.16358733
112	0x3d8d96f0	0.06913555
113	0x3d5f90e0	0.054581523
114	0xbe24445c	-0.16041702
115	0xbdabed80	-0.08394909
116	0xbde9de23	-0.11419322
117	0x3e0c39f7	0.13693987
118	0xbce84e28	-0.02835758
119	0xbdb9e4ce	-0.09076844
120	0xbd935f2e	-0.071958885
121	0xbe1bed7e	-0.15227315
122	0x3db9c6aa	0.09071095
123	0x3cf81560	0.03028363
124	0xbc4f6d80	-0.012660384
125	0xbcc69a58	-0.024243519
126	0x3db827e2	0.08991982
127	0xbd2c7b16	-0.04210957
128	0xbdd33b63	-0.103140615
129	0xbe27d167	-0.16388474
130	0xbe201a5a	-0.15635052
131	0xbcd0fd08	-0.02551128
132	0x3dde7e5e	0.108639464
133	0x3e01f681	0.1269169
134	0x3e0a9245	0.1353236
135	0xbdfa43d3	-0.12219968
136	0x3d9e0c00	0.077171326
137	0x3de7b502	0.113138214
138	0x3d1830d4	0.03715594
139	0x3dd4bff2	0.10388173
140	0xba5dc900	-0.0008460432
141	0x3d951d76	0.0728101
142	0x3bc11560	0.0058924407
143	0x3e14c037	0.14526449
144	0x3c30dbf0	0.010794625
145	0xbe14d9dc	-0.14536232
146	0x3e181871	0.14853074
147	0x3e205c65	0.15660246
148	0x3c34ec80	0.011042714
149	0x3af5b400	0.0018745661
150	0x3e01cf29	0.12676682
151	0xbc01f0b0	-0.0079309195
152	0x3bd305e0	0.0064399093
153	0x3dfe0c3e	0.12404679
154	0xbd24ff40	-0.040282488
155	0x3d70028c	0.05859618
156	0x3e0bebc9	0.13664164
157	0xbda63758	-0.08116025
158	0xbc6038b0	-0.01368539
159	0xbd814320	-0.06311631
160	0xbc061180	-0.008182883
161	0xbcf25958	-0.029583618
162	0x3c62a410	0.013833061
163	0x3d360ddc	0.04444681
164	0xbd55a1ec	-0.052156374
165	0x3e0a9a9d	0.13535543
166	0x3de03706	0.10947995
167	0xbd8c6828	-0.06855804
168	0x3d58a490	0.052891314
169	0xbd5b231c	-0.05350028
170	0x3dff60ae	0.12469612
171	0xbdf718b3	-0.12065258
172	0xbca04f48	-0.019569054
173	0x3e1eaa21	0.15494587
174	0xbd101f6c	-0.035186216
175	0xbe13dc52	-0.14439514
176	0xbca96998	-0.020680234
177	0x3e2842d3	0.16431741
178	0x3dd7e72a	0.10542138
179	0xbc546190	-0.012962714
180	0x3e008f6b	0.1255471
181	0x3c481480	0.012211919
182	0x3bc7c000	0.006095886
183	0x3d698254	0.057009056
184	0xbcbef128	-0.023308352
185	0x3d90d2c0	0.07071447
186	0x3e1df3bd	0.1542501
187	0x3dea6f5a	0.1144702
188	0x3de15ede	0.110044226
189	0x3d48fbe0	0.04906833
190	0x3df4d246	0.11954169
191	0xbdac6970	-0.08418548
192	0xbe12f5ee	-0.14351627
193	0x3dfe9e72	0.12432565
194	0x3d98d478	0.074624
195	0x3df1e982	0.11812116
196	0xbe25a49e	-0.16176078
197	0xbdbee1b6	-0.09320395
198	0xbe0de697	-0.13857494
199	0xbc4d5850	-0.012533262
200	0xbdfc7bd3	-0.12328305
201	0xbd26443c	-0.040592417
202	0xbdd865ce	-0.10566293
203	0x3e222631	0.15834881
204	0xbd57f506	-0.052723907
205	0x3c312d50	0.010814026
206	0xbd8b331e	-0.06796859
207	0xbdd82c30	-0.10555303
208	0xbe029164	-0.12750775
209	0x3e2527f1	0.16128518
210	0xbd3ec876	-0.046577893
211	0x3e17f4ad	0.1483943
212	0xbe1f4167	-0.15552293
213	0x3dff58d2	0.12468113
214	0xbd816c06	-0.06319432
215	0x3d318964	0.043343917
216	0xbd98f653	-0.074688576
217	0xbbaf58e0	-0.005351171
218	0x3d85e6f2	0.0653819
219	0x3e22c575	0.15895636
220	0xbe067cfa	-0.13133612
221	0xbe04809e	-0.12939689
222	0xbde15090	-0.11001694
223	0xbd88ac10	-0.06673443
224	0x3c7d7650	0.015470102
225	0x3e223d73	0.15843754
226	0x3db411f6	0.08792488
227	0x3e0a764d	0.1352169
228	0xbd9f9088	-0.07791239
229	0xbd878623	-0.066173814
230	0x3d906066	0.070496365
231	0x3e1f0c0d	0.15531941
232	0xbd0eadc4	-0.034833685
233	0x3e1089db	0.14115088
234	0xbd0d1030	-0.034439266
235	0x3d75aaf0	0.05997747
236	0x3c2ebcb0	0.010665104
237	0xbd500bfc	-0.05079268
238	0x3d631404	0.05543901
239	0xbe0f528e	-0.13996336
240	0xbdd7d5f6	-0.10538857
241	0xbda1bbee	-0.07897173
242	0xbd8e3a20	-0.0694468
243	0x3dd6339a	0.10459061
244	0xbe10418b	-0.14087503
245	0x3daa298a	0.08308704
246	0xbe1ce084	-0.15320021
247	0x3dd272e2	0.102758184
248	0x3d562ee4	0.052290812
249	0xbc37bc00	-0.011214256
250	0x3e173f07	0.14770137
251	0x3d798a50	0.06092292
252	0xbdd7635b	-0.105169974
253	0xbc80c9d8	-0.015721247
254	0x3dbb0532	0.0913185
255	0x3e293869	0.16525425

weight_hh_l0 f4 [108, 36]
0	0xbcf00f00	-0.029304028
1	0xba539b00	-0.0008072108
2	0x3d80829a	0.0627491
3	0xbdb8fd68	-0.090327084
4	0xbd42cd4c	-0.047559068
5	0x3e100931	0.14066006
6	0x3e1d9157	0.15387474
7	0xbbe487e0	-0.0069742054
8	0xbd3ee1ec	-0.046602175
9	0xbdabcae0	-0.08388305
10	0xbe15865a	-0.14602032
11	0xbd83dcb8	-0.06438583
12	0xbd80c1cb	-0.06286963
13	0x3d78b164	0.060716048
14	0xbd2dd686	-0.042440914
15	0xbe0cfa56	-0.1376737
16	0x3e0e4e9b	0.13897173
17	0x3cb0f358	0.02160041
18	0xbe0ae682	-0.13564494
19	0xbd86c926	-0.06581335
20	0xbd920c43	-0.07131245
21	0x3db942a6	0.09045915
22	0xbe24a744	-0.16079432
23	0xbe24cede	-0.16094539
24	0xbd7b3bf0	-0.061336458
25	0xbd2c1596	-0.042012773
26	0x3dc8cede	0.09805082
27	0x3e28a96d	0.16470881
28	0x3bcb8900	0.0062114
29	0x3a2bbd00	0.00065512955
30	0x3cc4e9b8	0.024037227
31	0x3e0c6d63	0.13713603
32	0x3c38ee80	0.011287332
33	0x3dfa7202	0.122287765
34	0xbc569870	-0.013097867
35	0x3d259360	0.04042375
36	0x3d82a35a	0.06378813
37	0x3d2a56e4	0.04158677
38	0xbc881778	-0.016612753
39	0x3dd969fa	0.106159166
40	0xbdddc046	-0.10827689
41	0xbd0fbdd4	-0.035093144
42	0x3dfd8aaa	0.12379964
43	0x3e01630d	0.12635441
44	0xbdbd1118	-0.09231776
45	0xbdaf77db	-0.085677825
46	0x3cc71118	0.024300143
47	0xbdb1e3b6	-0.086860105
48	0x3d162c54	0.03666337
49	0x3db81f0a	0.08990295
50	0x3b715500	0.0036824346
51	0xbe03caa0	-0.12870264
52	0xbdb6b95e	-0.08922075
53	0x3e083643	0.13301949
54	0xbc10a230	-0.008827731
55	0xbd8927eb	-0.06697067
56	0x3c3ed5b0	0.011647627
57	0xbd2dd2c6	-0.042437337
58	0xbdd405fe	-0.103527054
59	0xbe0f2a6e	-0.1398103
60	0x3bee4f80	0.0072726607
61	0xbcbd9480	-0.0231421
62	0x3ce76a98	0.02824907
63	0xbd26b62c	-0.040701076
64	0xbd90061b	-0.070324145
65	0x3df3545a	0.11881323
66	0x3dc5f292	0.09665407
67	0x3c374280	0.011185288
68	0xbc66ea90	-0.01409401
69	0x3df04742	0.11732341
70	0x3c1df8f0	0.009641871
71	0x3d6af600	0.05736351
72	0x3dedf8fa	0.11619754
73	0xbcd654c8	-0.026163474
74	0xbd160a50	-0.03663093
75	0x3d941366	0.072302625
76	0xbdc9a846	-0.09846549
77	0xbd9bf63b	-0.07615324
78	0xbdc58d06	-0.09646039
79	0xbe0c3452	-0.13691834
80	0x3d83022a	0.06396897
81	0x3da5e9ee	0.08101259
82	0xbe2226b6	-0.1583508
83	0xbd04f654	-0.03246148
84	0x3e0bc295	0.13648446
85	0x3d8e88d2	0.0695969
86	0x3dc3dd5e	0.09563707
87	0xbd1fa364	-0.03897418
88	0xbdb4d063	-0.08828809
89	0x3d71472c	0.058905765
90	0xbd817b50	-0.06322348
91	0x3d29dc30	0.041469753
92	0x3c8e6880	0.017383814
93	0x3c89f160	0.01683873
94	0x3d8b8808	0.06813055
95	0xbd81421b	-0.06311437
96	0xbddcdbd3	-0.10784116
97	0xbdc04ef3	-0.09390058
98	0x3e03e22d	0.12879248
99	0xbe152c13	-0.14567594
100	0xbdf614b0	-0.120156646
101	0xbe12c94c	-0.14334601
102	0x3d61f364	0.055163756
103	0x3d90818a	0.070559576
104	0x3d9cf090	0.07663071
105	0x3d57262c	0.052526638
106	0x3c9fd820	0.019512236
107	0xbcd054e0	-0.025431097
108	0xbe1e61b6	-0.15466961
109	0x3d2ae0e0	0.041718364
110	0x3d912250	0.07086623
111	0x3dc591de	0.096469626
112	0x3e12aad9	0.14322986
113	0xbd422766	-0.047400855
114	0x3d1d2fac	0.03837554
115	0x3e072dd1	0.13201071
116	0x3d781cc4	0.060574308
117	0xbda56f38	-0.08077854
118	0xbddf9478	-0.1091699
119	0x3d84e046	0.06488089
120	0xbdb50c7e	-0.08840273
121	0xbdb3543b	-0.087563
122	0x3d5f550c	0.054524466
123	0x3e19de2d	0.1502616
124	0xbd3b49a6	-0.045724533
125	0xbd1ba05c	-0.037994727
126	0x3ac11f80	0.0014734119
127	0xbdaa0083	-0.08300879
128	0x3d1aa9e0	0.03775966
129	0x3e0295b9	0.12752427
130	0x3dd92b22	0.1060393
131	0xbe0e9528	-0.13924086
132	0xbde9112b	-0.11380228
133	0xbddbeffe	-0.10739134
134	0xbd858226	-0.065189645
135	0x3b803900	0.003913045
136	0xbdd7cb16	-0.105367824
137	0x3e1d3f95	0.15356286
138	0xbc68dfc0	-0.014213502
139	0xbe23e1df	-0.16004132
140	0xbde5e2e0	-0.112249136
141	0x3df868ea	0.12129386
142	0xbdac17c0	-0.084029675
143	0xbdfc3d8e	-0.12316428
144	0x3d29e320	0.04147637
145	0xbd59a646	-0.053137086
146	0xbddce493	-0.107857846
147	0x3dda089a	0.10646172
148	0xbd48a8cc	-0.048989102
149	0x3ddcce22	0.10781504
150	0xbb8db200	-0.004324198
151	0xbd5386d0	-0.05164224
152	0x3e07d5f9	0.13265218
153	0xbe1b4eea	-0.15166822
154	0x390e6c00	0.00013582408
155	0xbd1a0864	-0.03760566
156	0xbd44b200	-0.048021317
157	0x3e115345	0.14191921
158	0xbe260d96	-0.1621612
159	0x3e15b405	0.14619453
160	0xbe0c2a36	-0.13687977
161	0x3dca7d9a	0.09887238
162	0xbdb7f0ee	-0.089815006
163	0xbc899e60	-0.016799152
164	0x3e0d344d	0.13789482
165	0xbe051cd6	-0.12999281
166	0x3e016a2d	0.12638159
167	0x3cddfcc0	0.02709806
168	0xbdd3bcbb	-0.10338732
169	0x3c9a9f48	0.01887478
170	0x3da1ec42	0.07906391
171	0x3e116c27	0.14201413
172	0xbe0f8987	-0.14017306
173	0x3d2a8434	0.041629985
174	0xbbe2bb80	-0.0069193244
175	0xbe0639ea	-0.1310803
176	0xbe0c41c0	-0.13696957
177	0x3dc4c6a2	0.09608199
178	0x3e00dd83	0.125845
179	0x3da68abe	0.08131932
180	0x3e196ce9	0.14982952
181	0x3d69d794	0.057090357
182	0xbdfdbf80	-0.12390041
183	0xbc24bf40	-0.010055363
184	0x3dcfbb1e	0.10143112
185	0xbe253a0c	-0.16135424
186	0x3b4bcc00	0.0031096935
187	0x3dec33ce	0.115333185
188	0x3e04acb3	0.12956505
189	0xbdcc8ab6	-0.099873945
190	0x3dac18f6	0.084031984
191	0x3de48e02	0.11159898
192	0x3d4e9e4c	0.050443932
193	0xbc6b2b10	-0.014353529
194	0x3d145bdc	0.036220416
195	0xbdc74ed3	-0.097318314
196	0x3dbd3b0a	0.092397764
197	0xbdb87716	-0.09007089
198	0xbd386790	-0.04502064
199	0xbe149cab	-0.14512889
200	0xbd4bfff6	-0.04980465
201	0x3de24e72	0.110501185
202	0xbdc9ce76	-0.098538324
203	0x3aacde80	0.0013188869
204	0x3dc864ba	0.09784837
205	0x3b704a00	0.0036665201
206	0xbd439126	-0.047745846
207	0xbcec4958	-0.028843567
208	0xbd371eac	-0.044706985
209	0xbd873c7b	-0.066033326
210	0x3e1131cf	0.14179157
211	0x3d93637e	0.07196711
212	0xbd7a6cec	-0.061139032
213	0x3dc0ac6e	0.09407888
214	0x3d136434	0.035984233
215	0x3d80f4b6	0.06296675
216	0xbda5d330	-0.080969214
217	0xbdbee3ae	-0.0932077
218	0xbc9e4b68	-0.019323066
219	0x3d5e3f5c	0.054259643
220	0xbe27ea33	-0.16397934
221	0x3db7c016	0.08972184
222	0x3bf2a200	0.007404566
223	0xbe031ff4	-0.12805158
224	0xbdc7dd0e	-0.0975896
225	0x3e04c251	0.12964751
226	0x3d52d364	0.05147113
227	0x3dad1c96	0.08452718
228	0x3c691af0	0.014227614
229	0xbcb1cfa0	-0.021705449
230	0xbccb1100	-0.02478838
231	0xbcdcbdf8	-0.026946053
232	0xbd3eb8e0	-0.04656303
233	0xbe16b8c3	-0.14718919
234	0x3da5840e	0.08081828
235	0x3decbd5a	0.115595534
236	0x3de06776	0.109572336
237	0x3d8efd2a	0.06981881
238	0xbddb6608	-0.1071282
239	0x3e059a81	0.1304722
240	0xbe13f663	-0.14449458
241	0xbce672c0	-0.028130889
242	0xbe23334c	-0.15937537
243	0x3d3cc09c	0.046082124
244	0xbdbde7f8	-0.0927276
245	0xbe1986f8	-0.14992893
246	0x3dc6c076	0.09704678
247	0x3c981fa8	0.018569782
248	0x3deadbbe	0.11467694
249	0x3d2baf24	0.041915074
250	0xbd37f39c	-0.04491006
251	0x3e066157	0.1312307
252	0x3c448400	0.011994362
253	0xbdf00830	-0.11720312
254	0xbdf6dfcb	-0.12054404
255	0xbe219c7f	-0.15782355

bias_ih_l0 f4 [108]
0	0x3de22bf2	0.11043538
1	0x3d90909a	0.070588306
2	0xbd70743c	-0.0587046
3	0xbdc0cd86	-0.094142005
4	0xbdc70df0	-0.09719455
5	0xbd39ac0c	-0.045330092
6	0x3c3f6ef0	0.011684164
7	0xbd828a50	-0.06374037
8	0xbb3bf040	-0.0028677136
9	0x3e21d1a7	0.15802632
10	0xbdc61968	-0.096728146
11	0xbdda6043	-0.10662892
12	0x3d1b25d0	0.037877858
13	0xbd3537b6	-0.044242583
14	0xbc44d610	-0.012013927
15	0x3de2a4be	0.11066578
16	0x3d88ff8a	0.06689365
17	0xbd048acc	-0.03235893
18	0xbdc08ee3	-0.094022535
19	0xbdea12f6	-0.11429398
20	0x3c12b8c0	0.008955181
21	0x3b30f5c0	0.0027001947
22	0xbe0aa306	-0.13538751
23	0xbdcf13c8	-0.10111195
24	0xbdb31c76	-0.08745663
25	0xbdf39f6e	-0.11895643
26	0x3d7e9bbc	0.06216024
27	0xbdb43b50	-0.088003755
28	0xbdd95ed0	-0.10613787
29	0xbdc72548	-0.09723908
30	0xbd19141c	-0.037372693
31	0xbdf8141b	-0.1211321
32	0x3ca053c8	0.0195712
33	0x3dd1830a	0.10230072
34	0xbe0c0450	-0.1367352
35	0xbe1bbbae	-0.15208313
36	0x3daf8972	0.085711375
37	0x3e0b1fc7	0.13586341
38	0x3dce4c12	0.10073103
39	0xbd75fbac	-0.060054466
40	0x3e0e6d21	0.13908817
41	0x3e091017	0.13385044
42	0x3dbeb54e	0.09311925
43	0x3c4a4e90	0.012347832
44	0xbd29810c	-0.041382834
45	0x3d03b03c	0.032150492
46	0xbdb31db6	-0.08745901
47	0x3d4eff9c	0.050536737
48	0xbded2626	-0.11579542
49	0xbe1291c8	-0.14313424
50	0xbdca0080	-0.098633766
51	0xbd27c624	-0.040960446
52	0xbdeb4d3b	-0.1148934
53	0xbe28a468	-0.16468966
54	0xbe1be1a4	-0.15222794
55	0xbdaf392e	-0.08555828
56	0x3e07d9c3	0.13266663
57	0x3d7a9b1c	0.06118308
58	0xbc2f8a70	-0.010714158
59	0xbcc75280	-0.024331331
60	0xbdaa0c43	-0.0830312
61	0xbe02015b	-0.1269583
62	0x3d80aec8	0.06283337
63	0xbd7a6a06	-0.061136268
64	0x3dd18a5a	0.102314666
65	0x3d816226	0.063175485
66	0x3d836086	0.06414895
67	0xbd8c0db0	-0.06838548
68	0x3d9aef98	0.0756523
69	0x3da8f2ea	0.08249457
70	0xbe24994e	-0.16074106
71	0xbd921126	-0.07132177
72	0x3d11fd94	0.03564222
73	0xbd8ec616	-0.06971376
74	0xbdffaa26	-0.12483625
75	0x3df53842	0.11973621
76	0xbdbbb26b	-0.0916489
77	0x3d5163c0	0.05112052
78	0x3e06f63d	0.1317987
79	0xbdda693b	-0.10664602
80	0x3e15bc39	0.14622582
81	0x3dceea3a	0.10103269
82	0xbe181778	-0.14852703
83	0xbd9b6a2e	-0.075886115
84	0x3dbac82e	0.091202125
85	0xbe05ba0f	-0.13059257
86	0x3cfbf518	0.030756518
87	0x3db8db0a	0.090261534
88	0x3db282e6	0.08716373
89	0xbdd87096	-0.10568349
90	0x3d9c1188	0.07620531
91	0xbdc5356e	-0.096293315
92	0xbde77e4b	-0.11303385
93	0x3db9890e	0.09059344
94	0x3d1c18a0	0.03810942
95	0xbdb7e978	-0.089800775
96	0x3da821d6	0.08209579
97	0x3d9f3bb6	0.07775061
98	0x3df0b79e	0.11753772
99	0xbdcc3ad0	-0.09972155
100	0x3dfbf366	0.12302284
101	0x3b42b440	0.0029709488
102	0xbdeb3b70	-0.11485946
103	0xbdbc34d6	-0.09189765
104	0x3d95cea2	0.07314803
105	0x3d9f450e	0.07776843
106	0x3d65607c	0.056000218
107	0xbe0baa13	-0.13639097

bias_hh_l0 f4 [108]
0	0xbd0d6114	-0.03451641
1	0x3e033a33	0.1281517
2	0xbd6a94bc	-0.05727075
3	0xbd9f3c66	-0.07775192
4	0x3a7d3300	0.00096587837
5	0xbe1a8a24	-0.15091759
6	0x3ca3e960	0.020008743
7	0xbd02512c	-0.031815693
8	0x3dbaf7aa	0.091292694
9	0x3dcc18fa	0.099657014
10	0x3ad4a200	0.0016222596
11	0x3da49960	0.080370665
12	0x3e075159	0.13214625
13	0xbe08e6ee	-0.13369343
14	0xbde446e6	-0.11146335
15	0x3d89d976	0.067309305
16	0xbdbcf05e	-0.09225534
17	0x3b86b7e0	0.004111275
18	0xbdfb5a8b	-0.12273129
19	0x3d03b0e4	0.032151118
20	0xbc3ad030	-0.011402175
21	0xbc7fba30	-0.015608355
22	0x3ddfd036	0.10928385
23	0x3dde2a5a	0.10847922
24	0xbe1da006	-0.15393075
25	0xbe0941c2	-0.13403991
26	0xbdf83c3e	-0.12120865
27	0xbddb289b	-0.10701104
28	0xbe2377f4	-0.15963727
29	0xbe12565a	-0.14290753
30	0xbe17cece	-0.14824983
31	0xbcb253b8	-0.021768436
32	0x3d8fe2ee	0.07025705
33	0xbdeeed7e	-0.11666392
34	0xbabc9980	-0.0014389008
35	0x3d8be186	0.068301246
36	0xbdf17b3b	-0.117910825
37	0x3d57f47c	0.052723393
38	0xbe02a143	-0.12756829
39	0xbcbae5e0	-0.022814691
40	0x3d13bc94	0.036068514
41	0x3d65e47c	0.056126103
42	0x3dde128a	0.1084338
43	0x3dedce12	0.116115704
44	0xbe27a7bc	-0.1637258
45	0x3d89f006	0.06735234
46	0xbbe69920	-0.007037297
47	0xbe23d69a	-0.15999833
48	0x3bd8f5e0	0.0066211075
49	0xbe18bec4	-0.14916521
50	0x3de099c6	0.1096683
51	0xbe0944ea	-0.13405195
52	0xbdc85893	-0.09782519
53	0xbcad9468	-0.02118893
54	0x3dbb8206	0.091556594
55	0xbdec5fde	-0.11541723
56	0xbd8f551b	-0.069986545
57	0xbdc81373	-0.09769335
58	0xbd83718b	-0.06418141
59	0x3d259094	0.040421084
60	0xbd9e1bf0	-0.077201724
61	0x3d158684	0.036505237
62	0x3e03c265	0.12867124
63	0x3dcee44a	0.101021364
64	0x3d8a9830	0.06767309
65	0xbe0711fe	-0.13190457
66	0x3cbf4298	0.023347184
67	0xbce6dc68	-0.02818127
68	0x3d880d88	0.06643206
69	0xbd59f7dc	-0.053214893
70	0xbd415db0	-0.047208488
71	0x3ddd1a56	0.10796039
72	0xbd7fd2dc	-0.06245695
73	0xbe02b7ee	-0.12765476
74	0x3e0da06d	0.13830729
75	0x3e05cafd	0.13065715
76	0xbda3ee78	-0.08004469
77	0x3c1f7110	0.009731546
78	0xbdd89763	-0.1057575
79	0xbe14ef78	-0.14544475
80	0x3dd61f4a	0.10455187
81	0x3b076dc0	0.0020664781
82	0xbd8d18de	-0.06889509
83	0xbe263bfe	-0.16233823
84	0x3e1c3839	0.15255822
85	0xbddeef43	-0.10885479
86	0x3e1eb7e3	0.15499835
87	0xbe0a785f	-0.1352248
88	0xbd055a5c	-0.032556877
89	0xbbc2e5e0	-0.0059478134
90	0xba1da700	-0.00060139596
91	0xbdde9ad3	-0.10869374
92	0xba5e3000	-0.00084757805
93	0xbe1ef307	-0.15522395
94	0xbd8a04f6	-0.067392275
95	0x3c88a538	0.016680345
96	0x3c9d3a68	0.01919289
97	0x3e1fd959	0.15610255
98	0x3e0629e3	0.13101916
99	0x3d307254	0.04307778
100	0x3e26fcc5	0.16307361
101	0x3ca7e658	0.020495579
102	0x3e0803ed	0.13282748
103	0x3e0d6571	0.13808228
104	0xbe183282	-0.14863017
105	0xbd764d7c	-0.06013249
106	0xbd4e2fcc	-0.05033855
107	0x3e04fc11	0.1298678

weight_ih_l1 f4 [108, 36]
0	0x3e10f387	0.14155398
1	0xbd907a13	-0.07054534
2	0x3cdbfd18	0.026854083
3	0x3e0750b5	0.13214381
4	0x3da1e348	0.079046786
5	0xbdd01636	-0.101604864
6	0xbd1c5da0	-0.038175225
7	0xba2ba400	-0.000654757
8	0x3df0299e	0.11726688
9	0x3e0d4b6b	0.13798301
10	0xbc334870	-0.010942563
11	0x3e260cf9	0.16215886
12	0x3e1d6e43	0.15374093
13	0x3dde0cba	0.10842271
14	0x3dc46016	0.095886394
15	0xbd11b094	-0.03556879
16	0x3e236f97	0.15960537
17	0x3d06415c	0.032777175
18	0x3cbbd278	0.022927508
19	0xbdcf4918	-0.101213634
20	0x3dd18a42	0.10231449
21	0xbcd33e00	-0.0257864
22	0xbe1bdd9a	-0.15221253
23	0xbd2c9d26	-0.042142056
24	0xbe23cb6b	-0.15995567
25	0x3e1f7393	0.15571432
26	0x3d73dc4c	0.059536263
27	0x3d8a79c0	0.06761503
28	0x3daffa62	0.085926786
29	0xbbb270e0	-0.0054455847
30	0xbc9ae300	-0.01890707
31	0xbe2775a8	-0.16353476
32	0xbe082e1f	-0.13298844
33	0x3e295a3b	0.16538326
34	0xbe1ee2fa	-0.15516272
35	0xbd8caad3	-0.0686852
36	0x3d9c8a0e	0.07643519
37	0x3e23cb6d	0.1599557
38	0x3e161775	0.14657386
39	0x3d7d0070	0.061767995
40	0x3dc05f7a	0.09393211
41	0xbe0dfbfc	-0.13865656
42	0x3e1f68cf	0.15567325
43	0x3d649cb4	0.055813506
44	0x3da1cd8a	0.079005316
45	0xbe28edcb	-0.16496961
46	0x3d522cac	0.051312134
47	0xbdac77b0	-0.08421266
48	0xbd0e7b54	-0.034785584
49	0xbdbffc46	-0.09374289
50	0x3dc7326a	0.097264126
51	0xbd61e596	-0.05515059
52	0xbdf38bc8	-0.118918955
53	0xbdd892b6	-0.10574858
54	0xbca87e58	-0.020568058
55	0x3daa7fea	0.08325179
56	0x3e00a38d	0.1256239
57	0xbce5a4d8	-0.028032705
58	0x3c025c70	0.007956609
59	0xbe1df2b0	-0.15424609
60	0xbe0c1d67	-0.13683091
61	0xbb41ef40	-0.0029592067
62	0xbde23498	-0.11045188
63	0x3d8e8ab6	0.06960051
64	0x3c2f5380	0.01070106
65	0x3e227439	0.15864648
66	0x3d084190	0.03326565
67	0x3d8ac976	0.06776707
68	0xbe18de32	-0.14928511
69	0x3ce2c798	0.027683064
70	0x3e2a4805	0.16629036
71	0xbe156ebb	-0.14593022
72	0xbe01f5a8	-0.12691367
73	0xbda0486e	-0.07826315
74	0x3de400ba	0.11132951
75	0xbd884943	-0.066545986
76	0xbcbebb20	-0.023282588
77	0x3c3c75f0	0.011502728
78	0x3dd72caa	0.10506566
79	0x3c192610	0.009347454
80	0xba8bc000	-0.0010662079
81	0x3b427b00	0.0029675364
82	0x3dbabd52	0.09118141
83	0xbd9b1b1b	-0.07573529
84	0x3d6f9adc	0.058497295
85	0x3d25ff94	0.04052694
86	0xbde8724e	-0.11349927
87	0xbdf1fc58	-0.11815709
88	0xbd4ef93c	-0.050530657
89	0x3db055ee	0.0861014
90	0xbde664b8	-0.11249679
91	0x3e100065	0.1406265
92	0x3dc37a76	0.09544842
93	0x3d86df4a	0.06585558
94	0x3db33f5e	0.08752321
95	0x3df0bc36	0.117546484
96	0x3e24b009	0.16082777
97	0x3ccf9a58	0.025342152
98	0x3db3b702	0.0877514
99	0x3e1de997	0.15421139
100	0xbe20f65a	-0.15718976
101	0xbde65dfe	-0.11248396
102	0x3d2138dc	0.039360866
103	0x3d0e5d34	0.034756854
104	0x3dffa032	0.12481727
105	0xbbb47a20	-0.0055077225
106	0xbd9eeb4b	-0.07759722
107	0x3d979530	0.07401502
108	0x3d7553ac	0.05989425
109	0xbc7b1390	-0.015324488
110	0xbe1dccd8	-0.15410173
111	0xbd1ce5a4	-0.03830494
112	0xbd369740	-0.044577837
113	0x3d40ad70	0.047040403
114	0xbd727d60	-0.0592016
115	0xbe1f56cf	-0.15560459
116	0xbdd9ad40	-0.10628748
117	0xbde79523	-0.113077424
118	0xbba83be0	-0.005134091
119	0xbdc93598	-0.09824675
120	0xbe2401ce	-0.16016313
121	0xbe196d90	-0.14983201
122	0xbc8be0d8	-0.017074987
123	0x3dff8dce	0.12478219
124	0xbe1ed59a	-0.1551117
125	0xbe15a904	-0.14615256
126	0xbe035642	-0.12825873
127	0x3e046cc3	0.12932114
128	0x3e1ce8ad	0.15323134
129	0x3e27e7c9	0.16397013
130	0x3dc15452	0.09439911
131	0x3c8d5ca0	0.017256081
132	0x3e1d8121	0.1538129
133	0xbd26f9f0	-0.040765703
134	0x3e13cae1	0.14432861
135	0x3d8dbe00	0.06921005
136	0x3da837f8	0.082138
137	0x3d921588	0.07133013
138	0xbe120bda	-0.14262334
139	0xbda8f378	-0.08249563
140	0xbd9b0643	-0.07569554
141	0x3d8e4bce	0.06948052
142	0x3d956190	0.07293999
143	0x3df0b822	0.117538705
144	0xbd5cb840	-0.053886652
145	0x3db502a6	0.08838396
146	0x3e0cb4e9	0.13740887
147	0xbd3ada46	-0.045618318
148	0x3c0f22c0	0.008736312
149	0xbe102e18	-0.14080083
150	0xbd47df26	-0.048796795
151	0xbdbbfc1b	-0.09178945
152	0xbe0e224e	-0.13880274
153	0x3dec3db2	0.11535205
154	0x3df4368a	0.11924465
155	0xbcff4988	-0.031162992
156	0x3e2a2fa5	0.16619737
157	0xbe1472d7	-0.14496933
158	0x3e046f59	0.12933101
159	0x3d940ed0	0.07229388
160	0x3d85b878	0.06529325
161	0xbd8a7e48	-0.067623675
162	0x3de2c482	0.11072637
163	0x3d7db6e0	0.06194198
164	0xbe10c61c	-0.14138073
165	0xbe0208fe	-0.12698743
166	0xbce02b48	-0.027364388
167	0x3d9949e8	0.074847996
168	0xbe1326fb	-0.14370339
169	0xbe268a32	-0.16263655
170	0xbe0fa56c	-0.14027947
171	0x3e05ad67	0.13054429
172	0xbe17afdf	-0.14813183
173	0x3dd5bb7a	0.10436149
174	0xbbd26280	-0.0064204335
175	0xbe12725e	-0.1430144
176	0x3d2aca80	0.041697025
177	0x3e1da511	0.15394999
178	0xbd8dc30e	-0.06921969
179	0x3e0317a3	0.12801985
180	0xbdf0f1ae	-0.11764847
181	0xbe13ef46	-0.14446744
182	0xbe1516da	-0.14559498
183	0xbd6b9a16	-0.057519995
184	0x3d4caacc	0.049967572
185	0xbe04b452	-0.12959412
186	0xbe2083e7	-0.15675317
187	0xbda57680	-0.08079243
188	0x3cf06148	0.029343262
189	0x3c576f90	0.013149157
190	0x3e0aee65	0.13567503
191	0x3c11bbc0	0.008894861
192	0xbe075f04	-0.1321984
193	0xbd9bb883	-0.07603552
194	0x3cf6c028	0.030120924
195	0x3d86d3fe	0.06583403
196	0xbd65a9d6	-0.05607017
197	0xbd3fea96	-0.046854578
198	0xbdce7fcb	-0.10082968
199	0xbe09061f	-0.13381241
200	0x3da1b63a	0.07896085
201	0x3e2722ff	0.16321944
202	0x3de50a46	0.111836
203	0xbc79b6f0	-0.01524137
204	0x3d2c10c0	0.04200816
205	0xbd710290	-0.058840334
206	0x3dd2270a	0.10261352
207	0x3e17df95	0.14831384
208	0x3e262bc5	0.16227634
209	0x3e0a4cc3	0.13505845
210	0xbd233afc	-0.039851174
211	0x3e0d8f09	0.13824095
212	0x3e11e305	0.14246757
213	0x3e162429	0.14662232
214	0xbda922db	-0.08258601
215	0x3b1d2fc0	0.002398476
216	0xbd5e6aa0	-0.054300904
217	0xbbef5b80	-0.007304609
218	0xbcf1e128	-0.029526308
219	0x3c8d81b8	0.017273769
220	0x3da6c2f2	0.081426516
221	0x3e2263ef	0.15858434
222	0x3e2a5aa1	0.16636135
223	0xbce00540	-0.027346253
224	0xbd37f900	-0.0449152
225	0xbe0d8bb6	-0.13822827
226	0xbdb29ba6	-0.08721094
227	0x3c4e92b0	0.012608215
228	0xbe268e88	-0.16265309
229	0xbe0de7c6	-0.13857946
230	0xbc757dd0	-0.014983609
231	0xbda144e6	-0.078744695
232	0x3d94c28e	0.07263671
233	0x3dabd45a	0.08390112
234	0xbe1075cf	-0.1410744
235	0x3e1cc145	0.15308101
236	0xbd7bdd10	-0.06149012
237	0xbd321a50	-0.043482125
238	0xbc855160	-0.016274154
239	0x3c85ccc0	0.016332984
240	0x3dfd029e	0.12354015
241	0x3de1d9c2	0.11027862
242	0xbde14ea6	-0.11001329
243	0xbe079114	-0.13238937
244	0x3d348d34	0.044079974
245	0x3dbd03be	0.092292294
246	0xbe0a16bc	-0.13485235
247	0xbdac541e	-0.084144816
248	0xbbd80b20	-0.006593123
249	0xbddf71f3	-0.10910406
250	0xbd80b140	-0.06283808
251	0x3dc5d3f6	0.09659569
252	0x3cd52e78	0.026023135
253	0x3d3576b4	0.044302657
254	0x3dd95976	0.106127664
255	0x3d6a0cc4	0.05714108

weight_hh_l1 f4 [108, 36]
0	0x3dc2157e	0.094767556
1	0xbe1aab96	-0.15104517
2	0xbe1dc6af	-0.15407823
3	0xbdd46a83	-0.10371878
4	0x3e05e069	0.13073887
5	0xbdc6ed0b	-0.09713181
6	0x3e23e475	0.16005118
7	0x3c6099d0	0.013708547
8	0xbd97b97e	-0.07408427
9	0xbda25c28	-0.07927734
10	0x3df973ea	0.12180312
11	0x3db7426a	0.08948214
12	0x3db2b202	0.087253585
13	0x3c1468b0	0.009058163
14	0x3d5b2bcc	0.053508565
15	0xbe014efc	-0.12627786
16	0xbdda5ad8	-0.10661858
17	0x3d8bd738	0.06828159
18	0xbe220296	-0.15821299
19	0xbd43a080	-0.047760487
20	0xbd62a9c6	-0.05533769
21	0xbe12567a	-0.142908
22	0xbdc2404b	-0.09484919
23	0x3c9249a0	0.017857373
24	0xbde8a2a3	-0.113591455
25	0x3dd523da	0.10407229
26	0x3cdcd240	0.026955724
27	0x3e241d39	0.16026773
28	0x3e038bd1	0.12846304
29	0x3d3f4244	0.046694055
30	0x3d8d632e	0.06903683
31	0x3e1f7c7b	0.1557483
32	0xbdfb5f48	-0.12274033
33	0xbdd3a078	-0.10333341
34	0x3e238519	0.15968741
35	0x3d955ca0	0.072930574
36	0x3e12b86d	0.14328165
37	0xbdfb4828	-0.12269622
38	0x3e16615f	0.14685582
39	0x3dd2f21a	0.103000835
40	0xbde1debb	-0.110288106
41	0xbd2259e4	-0.039636508
42	0x3e0b18b5	0.13583644
43	0x3c05d500	0.008168459
44	0xbe1fa896	-0.15591654
45	0x3d9902fa	0.07471271
46	0x3d8f2fba	0.06991525
47	0xbd8e3806	-0.069442794
48	0x3e26a5b9	0.16274156
49	0x3dd30eb2	0.10305537
50	0xbd88a25e	-0.06671594
51	0x3e13ddc5	0.14440067
52	0x3d5c50bc	0.05378793
53	0xbdd7f880	-0.105454445
54	0x3e190d5b	0.14946501
55	0xbcd3fba8	-0.025876835
56	0xbdf4453e	-0.119272694
57	0xbe0ffa3c	-0.140603
58	0x3dae8a12	0.085224286
59	0xbdd6f9f8	-0.104968965
60	0xba854480	-0.0010167509
61	0x3aa7e200	0.0012808442
62	0xbd3afdbc	-0.045652136
63	0x3dcdc78a	0.10047825
64	0x3d2d850c	0.04236321
65	0xbc8854a0	-0.016641915
66	0x3e13b0b1	0.14422871
67	0xbc660d40	-0.014041245
68	0xbde8e66b	-0.11372074
69	0x3e22786d	0.15866251
70	0x3e265267	0.16242371
71	0x3cb46118	0.022018954
72	0x3e053ab1	0.1301067
73	0x3e1602d9	0.14649524
74	0x3e12240d	0.14271565
75	0x3dd8f56a	0.10593684
76	0xbb4b47c0	-0.0031018108
77	0x3e1032c9	0.14081873
78	0x3d17a8d4	0.03702624
79	0x3d6ed630	0.058309734
80	0xbd42038c	-0.047366664
81	0xbd8b0f30	-0.06790006
82	0x3e1f4d21	0.15556766
83	0x3e08a425	0.13343866
84	0x3e19c6e5	0.15017278
85	0x3da8fc98	0.082513034
86	0xbdd615ee	-0.104534015
87	0xbdf56678	-0.11982435
88	0x3e2879fd	0.16452785
89	0xbd88acfb	-0.066736184
90	0x3d747db0	0.059690177
91	0xbd9aa91b	-0.075517856
92	0x3df95f32	0.1217636
93	0xbd9e603e	-0.077332005
94	0xbe03d08b	-0.12872522
95	0xbbb026a0	-0.005375698
96	0xbde9e000	-0.11419678
97	0xbe041067	-0.12896882
98	0x3d8cb806	0.06871037
99	0xbe24a754	-0.16079456
100	0x3e0acddd	0.13555093
101	0xbd9e0e5e	-0.07717584
102	0x3d7af7ec	0.061271593
103	0x3de5b32a	0.112158135
104	0xbdd04968	-0.10170251
105	0xbb3987c0	-0.0028309673
106	0x3d0257dc	0.03182207
107	0x3c300750	0.010743931
108	0xbc295350	-0.010334805
109	0x3e1a107b	0.1504535
110	0xbd3beec0	-0.045881987
111	0xbe17f19b	-0.14838259
112	0xbdace503	-0.08442118
113	0x3d53a71c	0.05167304
114	0xbe046cdc	-0.12932152
115	0x3dc51022	0.09622218
116	0x3e025d8d	0.12731
117	0xbdcb4ce0	-0.09926772
118	0x3ca5dde0	0.0202474
119	0xbda59d83	-0.080866836
120	0xbe1e0f0a	-0.15435424
121	0xbdaff81b	-0.08592244
122	0xbc5253d0	-0.012837365
123	0xbdec9b23	-0.115530275
124	0x3e282e99	0.16424026
125	0xbdb20706	-0.08692746
126	0xbdebe943	-0.115191005
127	0x3d03c720	0.032172322
128	0x3d705cf0	0.058682382
129	0x3dc39422	0.095497385
130	0x3d1ac5c0	0.037786245
131	0xbd9676ae	-0.07346855
132	0xbe1d4527	-0.15358411
133	0x3e0f5503	0.13997273
134	0x3dea109a	0.11428948
135	0xbd1b98cc	-0.037987515
136	0xbd882c48	-0.06649071
137	0x3b6880c0	0.0035477132
138	0xbc60b980	-0.013716102
139	0x3d87a022	0.0662234
140	0xbddddf60	-0.10833621
141	0xbdec243e	-0.1153035
142	0xbe022638	-0.12709892
143	0xbe0c469a	-0.13698807
144	0x3d3c29cc	0.045938298
145	0x3e206bc9	0.15666117
146	0x3d09864c	0.03357534
147	0xbe1ed564	-0.1551109
148	0x3de6b806	0.112655684
149	0x3e1edb3f	0.15513323
150	0xbd62c486	-0.0553632
151	0x3d172524	0.036900654
152	0xbd9a9fd3	-0.07550015
153	0x3d55f4f4	0.05223556
154	0x3d939f20	0.07208085
155	0x3e263163	0.16229777
156	0x3da92db2	0.08260669
157	0x3dbcbada	0.092153266
158	0xbe05f2df	-0.13080929
159	0x3dec4aba	0.115376905
160	0xbc6ce710	-0.0144593865
161	0xbd3b679c	-0.045753106
162	0x3e050351	0.12989546
163	0x3d936182	0.071963325
164	0xbd62e8f0	-0.055397928
165	0x3d79955c	0.060933456
166	0x3d4942b0	0.049135864
167	0xbd4d0010	-0.050048888
168	0x3e0cf4e1	0.13765289
169	0x3da12470	0.07868278
170	0x3d78b8ec	0.06072323
171	0x3d936ffe	0.07199095
172	0xbd9dd4c3	-0.07706597
173	0xbe155b28	-0.14585555
174	0x3d3e07dc	0.046394214
175	0xbd9c6ab3	-0.07637539
176	0xbdd34226	-0.10315351
177	0xbda1dd9b	-0.07903596
178	0x3d373fbc	0.044738516
179	0xbdd75cc6	-0.10515742
180	0xbd8e3efb	-0.06945606
181	0xbccaad58	-0.02474086
182	0x3d9469e6	0.07246761
183	0xbda4c820	-0.08045983
184	0x3dbb671e	0.091505274
185	0x3cb99948	0.022656098
186	0x3c97ae20	0.018515646
187	0x3d5b57c4	0.053550497
188	0xbdcf4c08	-0.10121924
189	0x3d024460	0.03180349
190	0xbc18d470	-0.009327993
191	0xbe03f02b	-0.12884586
192	0x3c5b81c0	0.013397634
193	0x3e1ebb0d	0.15501042
194	0x3dc715da	0.09720965
195	0x3c64da70	0.013968095
196	0x3e26b577	0.16280161
197	0x3e111f05	0.1417199
198	0x3e16a631	0.14711834
199	0xbcdb1b18	-0.026746318
200	0xbdc77f26	-0.097410485
201	0xbd86f093	-0.06588855
202	0x3c93ae38	0.01802741
203	0x3d04cd84	0.032422557
204	0xbc43f110	-0.011959329
205	0x3e0dedc5	0.13860233
206	0x3c8bcd58	0.017065689
207	0xbe2a4cf0	-0.16630912
208	0xbd9e028b	-0.07715329
209	0xbd637146	-0.055527948
210	0x3d8666b0	0.06562555
211	0x3cf0bd88	0.02938725
212	0xbde81dd3	-0.113338135
213	0x3dc68c4e	0.0969473
214	0x3da9237e	0.08258723
215	0x3d752c60	0.059856772
216	0xbe019648	-0.12654984
217	0x3d782c54	0.06058915
218	0x3dede90e	0.11616717
219	0xbd158080	-0.0364995
220	0x3d90e2d2	0.070745125
221	0xbd06b394	-0.032886103
222	0xbcbf0c20	-0.023321211
223	0x3e0ead27	0.1393324
224	0xbd98bba0	-0.07457662
225	0x3e168da1	0.14702465
226	0xbdd224e6	-0.10260944
227	0xbdd4a92e	-0.10383831
228	0x3d8bb8f2	0.06822385
229	0x3e0afb2d	0.13572378
230	0x3dcf5b9a	0.101248935
231	0xbe177cba	-0.14793673
232	0xbaf5fc80	-0.0018767267
233	0xbcae36e8	-0.021266416
234	0xbe0a4b83	-0.13505368
235	0x3d14d89c	0.036339387
236	0xbdafa5e6	-0.085765645
237	0x3daf3e26	0.08556776
238	0x3c658950	0.014009789
239	0xbdeefbeb	-0.11669143
240	0x3d382874	0.044960454
241	0x3d810dfe	0.06301497
242	0xbe093760	-0.1340003
243	0xbdb7b9fb	-0.0897102
244	0x3d43fe04	0.04784967
245	0x3e11806d	0.14209147
246	0xbd0e7c3c	-0.034786448
247	0xbcbe81e8	-0.023255304
248	0x3d0fb150	0.035081208
249	0xbda45f73	-0.08026018
250	0x3d6a5580	0.057210445
251	0x3da375f6	0.07981484
252	0xbe1190b4	-0.14215356
253	0xbd486056	-0.048919998
254	0x3db84852	0.08998169
255	0xbe247c14	-0.16062957

bias_ih_l1 f4 [108]
0	0xbd8f2d3e	-0.06991051
1	0x3dddf57e	0.108378395
2	0x3defeb12	0.11714758
3	0xbdca1d1e	-0.09868835
4	0x3db85fda	0.09002657
5	0xbdabfd33	-0.08397903
6	0x3d497c04	0.049190536
7	0xbde899bb	-0.11357447
8	0xbcb30188	-0.021851316
9	0x3da93ee0	0.082639456
10	0xb9de9600	-0.00042454898
11	0x3e22ee9f	0.15911339
12	0xbe133d54	-0.14378864
13	0x3bba6ee0	0.005689487
14	0x3c644640	0.0139327645
15	0xbe2710e4	-0.16315037
16	0x3e0d5919	0.1380352
17	0xbe049ebb	-0.12951176
18	0xbd601356	-0.05470594
19	0x3e0098e5	0.12558325
20	0x3cf2f608	0.029658332
21	0xbd1f0734	-0.03882523
22	0x3df786da	0.12086268
23	0xbbccf860	-0.0062551945
24	0x3c8f9508	0.017527118
25	0x3d97cd6a	0.074122265
26	0xbdfbd408	-0.12296301
27	0x3e21cf41	0.15801717
28	0x3d1221ec	0.03567688
29	0xbe29762c	-0.16548985
30	0xbdae89cb	-0.08522376
31	0x3dd8867a	0.10572524
32	0x3e130f09	0.14361204
33	0xbdb27380	-0.08713436
34	0x3d9d8fe0	0.076934576
35	0x3e2442ef	0.16041158
36	0x3db43272	0.08798684
37	0x3d570d3c	0.052502856
38	0xbb8350e0	-0.004007444
39	0xbe14e3a6	-0.14539966
40	0x3de2838a	0.11060245
41	0xbe0bbb93	-0.13645773
42	0x3e1d83ed	0.15382357
43	0xbe07d32f	-0.13264154
44	0xbcaf69c0	-0.02141273
45	0xbcd1f218	-0.025628135
46	0xbce73720	-0.028224528
47	0xbb012f00	-0.0019711852
48	0x3e021bbd	0.12705894
49	0x3d270fa4	0.0407864
50	0x3c9472b8	0.018121108
51	0x3e295d89	0.16539587
52	0xbd81b4b8	-0.063332975
53	0xbb11a540	-0.002222374
54	0xbe24c0c4	-0.16089159
55	0xbc2d4fb0	-0.010578081
56	0x3df0bc4a	0.11754663
57	0xbdb95cbe	-0.09050892
58	0x3cfe1da8	0.03102
59	0x3d489b6c	0.048976347
60	0x3e2078ff	0.15671156
61	0xbe26b09c	-0.16278309
62	0x3d83ef12	0.064420834
63	0x3dfeb1ea	0.12436278
64	0x3ddb0b56	0.106955215
65	0xbd1b7844	-0.03795649
66	0xbd827cbb	-0.06371447
67	0xbdcaccc0	-0.09902334
68	0xbe16a03e	-0.14709565
69	0x3e299c69	0.16563572
70	0xbd26f61c	-0.040762052
71	0x3e2a1b2f	0.16611932
72	0xbe04fd5c	-0.12987274
73	0x3e0f1ca3	0.13975768
74	0x3d6a4f10	0.057204306
75	0xbcba5060	-0.022743404
76	0xbe219b07	-0.15781794
77	0x3bbf48a0	0.005837515
78	0xbe18c956	-0.14920554
79	0xbd8f26eb	-0.06989845
80	0x3dae3a32	0.085071936
81	0xbd7044dc	-0.05865942
82	0x3d9951f6	0.07486336
83	0x3e183733	0.14864807
84	0x3dfec6e2	0.12440278
85	0xbe1a1be0	-0.15049696
86	0x3ccd0a80	0.02502942
87	0xbdef06a3	-0.11671188
88	0xbd867e2b	-0.065670334
89	0x3d1c1e74	0.03811498
90	0xbe15cfb4	-0.14630014
91	0xbd0e8f2c	-0.034804508
92	0x3b997280	0.004682839
93	0x3d8a3f4e	0.06750356
94	0xbda5d370	-0.08096969
95	0xbcba1b48	-0.022718087
96	0x3df2d72a	0.118574455
97	0x3ded2392	0.1157905
98	0x3d71c5f0	0.05902666
99	0x3dc7145a	0.09720679
100	0xbdc18d7e	-0.094508156
101	0xbdd2f68b	-0.103009306
102	0x3c31e070	0.010856733
103	0x3dc8857e	0.097910866
104	0xbdd1ab90	-0.10237801
105	0x3dd309da	0.103046134
106	0x3d7f2010	0.062286437
107	0x3da65b12	0.08122839

bias_hh_l1 f4 [108]
0	0xbdfee318	-0.124456584
1	0x3e0f83d5	0.14015134
2	0xbe25c88c	-0.16189784
3	0xbda535c6	-0.08066897
4	0x3d17dc30	0.03707522
5	0xbcd9a040	-0.026565671
6	0xbd6c00f6	-0.057618104
7	0xbe260993	-0.1621459
8	0xbe0fc4f4	-0.14039975
9	0xbe21e03f	-0.158082
10	0x3e1ca763	0.15298228
11	0x3ddca8ce	0.107743844
12	0x3b317740	0.0027079135
13	0x3e1c46cf	0.15261386
14	0xbd557a0c	-0.052118346
15	0x3dc6916e	0.09695707
16	0xbd28bfcc	-0.041198537
17	0xbd460a0c	-0.048349425
18	0x3d5eeda4	0.05442585
19	0xbdecf750	-0.115706086
20	0x3c692b90	0.0142315775
21	0x3d4ba870	0.04972118
22	0xbb8cfe20	-0.004302755
23	0x3d9ced40	0.07662439
24	0x3e25d4d1	0.16194464
25	0xbe0cfa68	-0.13767397
26	0x3db1661a	0.086620525
27	0xbd0ec23c	-0.034853205
28	0x3dcdda52	0.10051407
29	0x3e1b7857	0.15182625
30	0x3e21956d	0.15779658
31	0x3e0fb605	0.14034279
32	0x3e070123	0.13184027
33	0x3d065fbc	0.032806143
34	0x3e01e301	0.12684251
35	0x3e0b399d	0.13596196
36	0x3e0ead0b	0.13933198
37	0x3dc2e58e	0.0951644
38	0xbdd61650	-0.104534745
39	0xbc1c61c0	-0.00954479
40	0x3dc76fd6	0.09738128
41	0xbe16a316	-0.1471065
42	0x3e0e6653	0.13906221
43	0xbe09bb67	-0.13450395
44	0xbc515170	-0.012775764
45	0x3e26f999	0.16306151
46	0xbdde701e	-0.108612284
47	0x3e162125	0.14661081
48	0x3b8e5520	0.004343644
49	0x3c4fa080	0.0126725435
50	0xbdcacb78	-0.0990209
51	0xbd4ffffc	-0.050781235
52	0x3dcd9092	0.1003734
53	0x3cd3c328	0.025849894
54	0x3cacd9d8	0.02109997
55	0x3d1d1484	0.038349643
56	0xbe120e0f	-0.14263175
57	0xbd224c90	-0.039623797
58	0x3d284c24	0.04108824
59	0x3e00e081	0.12585641
60	0xbd72c55c	-0.059270248
61	0x3d9ec528	0.07752448
62	0x3d618844	0.055061594
63	0xbd879bcb	-0.06621512
64	0xbdec1c48	-0.11528832
65	0x3c88d5c0	0.016703486
66	0x3d7f55b0	0.062337577
67	0x3e0ed277	0.13947473
68	0xbdb07566	-0.08616142
69	0xbced0388	-0.028932348
70	0x3d94f4b2	0.072732344
71	0x3e04d04d	0.12970085
72	0xbc301200	-0.010746479
73	0x3c307370	0.01076971
74	0xbd2bb6c0	-0.04192233
75	0x3d41f12c	0.04734914
76	0x3dcd311e	0.10019134
77	0xbdef8033	-0.11694374
78	0xbdcec386	-0.10095887
79	0xbd63e026	-0.055633686
80	0xbd899d80	-0.06719494
81	0x3d0cc2d4	0.03436549
82	0xbcbfb6b8	-0.023402557
83	0xbdb4185b	-0.08793708
84	0x3e011e75	0.12609275
85	0xbcaee518	-0.021349475
86	0xbdecdd90	-0.11565697
87	0xbbbe0480	-0.0057988763
88	0xbcf91500	-0.030405521
89	0xbccd1158	-0.025032684
90	0xbe102ddf	-0.14079998
91	0xbc9a6fb8	-0.0188521
92	0xbd86c25b	-0.06580039
93	0x3da54548	0.08069855
94	0x3dc7811e	0.09741424
95	0xbc8d37a8	-0.017238453
96	0xbd58f720	-0.05297005
97	0xbd89e3f6	-0.06732933
98	0xbd81602b	-0.06317171
99	0x3da029ae	0.0782045
100	0x3c6f0870	0.014589414
101	0xbc10a750	-0.008828953
102	0xbbb1d120	-0.005426541
103	0x3e1f36bd	0.15548225
104	0x3dbdc14a	0.092653826
105	0xbd002700	-0.031287193
106	0x3d33faec	0.04394047
107	0x3d069fcc	0.032867238

weight_ih_l2 f4 [108, 36]
0	0x3e11e1c3	0.14246278
1	0xbd952da0	-0.07284093
2	0x3d9e7ea6	0.07739
3	0xbc828180	-0.015930891
4	0xbe1ca793	-0.152983
5	0x3e29097b	0.16507523
6	0x3d0dfe20	0.03466618
7	0xbde81120	-0.11331391
8	0xbd270cbc	-0.04078363
9	0xbe23b7ba	-0.15988055
10	0xbd85d1e8	-0.06534177
11	0x3dc603f2	0.09668721
12	0xbe04a32b	-0.12952869
13	0x3d4c05f0	0.04981035
14	0xbd72501c	-0.05915843
15	0xbd991e8b	-0.07476529
16	0x3d22e630	0.039770305
17	0xbdb4698b	-0.08809193
18	0x3aff0780	0.0019457191
19	0xbd6cf6fc	-0.05785273
20	0xbe05c4a8	-0.130633
21	0x3c819be0	0.015821397
22	0x3e265795	0.16244347
23	0x3d26b1cc	0.040696904
24	0xbcf7d7b8	-0.03025423
25	0x3d9edc28	0.07756835
26	0xbdbdaaae	-0.0926107
27	0xbdb5b0f6	-0.08871643
28	0xbd048af4	-0.03235908
29	0x3df0e64a	0.11762674
30	0x3e0e825f	0.1391692
31	0xbc5118c0	-0.0127622485
32	0x3d44dc54	0.048061684
33	0xbe0f35f7	-0.1398543
34	0x3dfb3b32	0.1226715
35	0x3cb379e0	0.0219087
36	0x3e03a831	0.12857129
37	0xbe1f6f0a	-0.15569702
38	0x3d236584	0.039891735
39	0x3e294945	0.16531856
40	0x3d100e60	0.03516996
41	0xbd0b43a4	-0.034000054
42	0x3dbf88f2	0.09352292
43	0x3c8daaa8	0.01729329
44	0x3e202689	0.156397
45	0x3df7f48a	0.12107189
46	0x3dade892	0.08491625
47	0x3cd61820	0.02613455
48	0xbdac90d8	-0.08426064
49	0xbe020697	-0.12697826
50	0x3d8f11be	0.06985806
51	0xbde0fe08	-0.109859526
52	0x3c8d90e8	0.01728101
53	0xbe061843	-0.13095193
54	0xbdb2be7e	-0.0872774
55	0xbe1b40c0	-0.15161419
56	0x3d5e45e4	0.05426587
57	0x3cd56958	0.026051208
58	0x3e243225	0.16034754
59	0x3e161453	0.1465619
60	0xbdcba526	-0.09943609
61	0xbd759f66	-0.059966467
62	0x3df291f6	0.11844246
63	0x3cc08ee0	0.023505628
64	0xbdb201ae	-0.086917266
65	0x3d00b544	0.03142287
66	0x3e096809	0.13418593
67	0xbd4cb326	-0.049975537
68	0xbdb117bb	-0.08647104
69	0xbdfa79a0	-0.122302294
70	0xbd80d433	-0.06290474
71	0xbdefa078	-0.11700529
72	0x3e00dc61	0.12584068
73	0x3dce14e2	0.10062577
74	0xbcd32be8	-0.025777772
75	0x3db074a2	0.08615996
76	0xbd62fb56	-0.055415474
77	0x3e18bedd	0.14916559
78	0xbc989d28	-0.018629625
79	0x3de72706	0.1128674
80	0x3d766610	0.060155928
81	0x3e04fb39	0.12986459
82	0xbd0deafc	-0.034647927
83	0xbdd0b398	-0.10190505
84	0x3d02cddc	0.031934604
85	0x3d5a3864	0.053276435
86	0x3e06254f	0.1310017
87	0x3dbc070e	0.09181033
88	0x3c751f30	0.014961049
89	0x3e07ea89	0.13273062
90	0xbe15a0d6	-0.14612135
91	0x3d4bc2f4	0.04974647
92	0xbd6e8e56	-0.05824121
93	0x3dce21f2	0.10065068
94	0x3c817a48	0.015805379
95	0xbe154eff	-0.14580916
96	0xbd690146	-0.05688598
97	0xbcbd57e8	-0.023113206
98	0xbd2d63c0	-0.042331457
99	0xbe1ea0de	-0.15491053
100	0xbe09eb33	-0.13468628
101	0xbe027c42	-0.12742713
102	0xbe25fede	-0.16210505
103	0x3dcd91fa	0.100376084
104	0xbdc4071e	-0.0957167
105	0x3e0871dd	0.13324685
106	0xbdfe0a68	-0.124043286
107	0x3dbb4fca	0.09146078
108	0xbe220023	-0.15820365
109	0xbd227550	-0.03966266
110	0x3d268ecc	0.040663525
111	0x3d04b4e4	0.032399073
112	0x3e1d2b8d	0.15348645
113	0xbda91b80	-0.08257198
114	0xbdbf8653	-0.09351792
115	0x3c1ec140	0.009689629
116	0xbd896438	-0.06708568
117	0x3d1036d4	0.03520854
118	0x3db6ae22	0.08919932
119	0x3d904850	0.070450425
120	0xbe031fee	-0.12805149
121	0xbe0f6e16	-0.14006838
122	0xbe149e4f	-0.14513515
123	0x3cbe80a8	0.023254707
124	0xbe07a68a	-0.13247123
125	0x3db7bcca	0.089715555
126	0xbe129997	-0.14316402
127	0x3e29a0dd	0.1656527
128	0xbe2a0198	-0.1660217
129	0x3e1db667	0.15401612
130	0x3bd49f80	0.0064887404
131	0x3d8438a8	0.06456119
132	0xbd3e7b7c	-0.046504483
133	0x3e0ec7b9	0.13943376
134	0x3db5802a	0.08862336
135	0xbdcd0040	-0.10009813
136	0xbe15565e	-0.14583728
137	0x3d4a6034	0.049408153
138	0xbdb433be	-0.087989315
139	0xbe1baab8	-0.15201843
140	0xbd2a3924	-0.0415584
141	0x3d669bb0	0.05630082
142	0xbda24abe	-0.07924412
143	0xbdb20173	-0.08691683
144	0xbe181a4c	-0.14853781
145	0xbd011b7c	-0.03152035
146	0x3daa5eba	0.08318849
147	0x3daaf466	0.083473966
148	0x3cf648d8	0.030064031
149	0xbc18cbb0	-0.009325907
150	0xbd08ab30	-0.033366382
151	0xbaa0bb80	-0.0012262911
152	0x3e07f659	0.13277568
153	0x3d28b0f0	0.041184366
154	0xbd0297a0	-0.031882882
155	0x3df3700a	0.11886604
156	0x3d29c05c	0.041443214
157	0x3d8c2b82	0.06844236
158	0x3e17a5c3	0.14809327
159	0x3d2ac230	0.041689098
160	0xbdc43020	-0.095794916
161	0x3d9b00f2	0.0756854
162	0xbd001b30	-0.031275928
163	0x3b37c240	0.0028039366
164	0x3d981c9e	0.07427333
165	0x3dc344f2	0.09534635
166	0x3e240975	0.16019233
167	0xbdc79e13	-0.09746947
168	0x3d82b55e	0.06382249
169	0xbd9a0640	-0.07520723
170	0xbcf60d38	-0.0300356
171	0xbd53d3ac	-0.051715538
172	0x3d26f84c	0.040764138
173	0x3de9b84a	0.114121035
174	0x3de412de	0.11136411
175	0xbe0b49af	-0.13602327
176	0x3d867716	0.065656826
177	0xbddb1548	-0.106974185
178	0x3d9ae008	0.07562262
179	0x3da17916	0.078844234
180	0xbca79dc0	-0.020460963
181	0xbd386a96	-0.045023523
182	0xbd2509d4	-0.040292576
183	0xbb09fec0	-0.0021056384
184	0xbd220d8c	-0.0395637
185	0x3d81c3c0	0.063361645
186	0x3dc99fb6	0.098449156
187	0x3dccab92	0.09993662
188	0xbd35e38c	-0.04440646
189	0x3d46de90	0.048552096
190	0x3c9f79a0	0.019467175
191	0x3dfef0da	0.124482825
192	0xbc8aff48	-0.01696743
193	0xbda4f550	-0.08054602
194	0xbe1a8d22	-0.150929
195	0xbe0feb2c	-0.14054555
196	0x3dff6fba	0.12472482
197	0x3cb8c4a8	0.02255471
198	0xbdafac4b	-0.08577784
199	0xbd852ed8	-0.06503075
200	0x3d7fd5e4	0.06245984
201	0x3dda735a	0.10666533
202	0x3e2a3645	0.16622265
203	0x3cd19fb8	0.025588855
204	0xbe102fc3	-0.1408072
205	0xbd8d3956	-0.068957016
206	0xbdc33830	-0.09532201
207	0x3da96ac8	0.0827232
208	0xbe25d5c6	-0.1619483
209	0x3d1c6d44	0.03819014
210	0x3e1c9037	0.15289389
211	0xbe1e2448	-0.15443528
212	0x3d91f49e	0.07126735
213	0xbdb1a180	-0.08673382
214	0xbe1b0683	-0.15139203
215	0xbde966be	-0.1139655
216	0xbce6a288	-0.028153673
217	0xbc8422c0	-0.016129851
218	0xbdc4c4a8	-0.09607822
219	0xbe0f5e7e	-0.1400089
220	0x3e08a9ed	0.13346072
221	0x3de852c2	0.1134391
222	0xbcf8ec28	-0.030386046
223	0x3dc5acf2	0.09652127
224	0x3e186741	0.14883138
225	0xbe27facb	-0.16404264
226	0x3dca83e6	0.09888439
227	0x3d3a4dec	0.04548447
228	0xbceb4b40	-0.028722405
229	0xbd9c0846	-0.076187655
230	0xbe116857	-0.14199959
231	0xbe18570c	-0.14876956
232	0x3de95efa	0.113950685
233	0x3de4293a	0.11140676
234	0xbceb3d98	-0.028715894
235	0x3df4d19e	0.11954044
236	0xbd5e4c3c	-0.05427192
237	0x3e2199e1	0.15781356
238	0x3e1882cd	0.14893647
239	0xbde65fc0	-0.112487316
240	0xbd9c5d10	-0.07634938
241	0xbd773020	-0.06034863
242	0xbe077e12	-0.13231686
243	0x3dbad4ba	0.091226056
244	0xbe0d8d1e	-0.13823363
245	0x3db35f3e	0.087584004
246	0xbde8ecd8	-0.11373299
247	0xbdfd7bc3	-0.12377121
248	0xbe12d224	-0.14337975
249	0xbcaa45b8	-0.020785198
250	0x3d8018c8	0.06254727
251	0xbe171aae	-0.14756271
252	0x3e1fcc89	0.15605368
253	0xbd9b5f50	-0.07586539
254	0xbe1555fa	-0.14583579
255	0xbe1b3332	-0.15156248
