KNet/KNet_TSP/KNet/model/decimation/model_VanillaRNN_partially_agnostic.pt (torch, 96876 bytes, 20 tensors)

weight_ih_l0 f4 [108, 18]
00000000: 2554 c4bc ba23 353e ec73 c53d 5840 82bb
00000010: 9f98 36bc 1faa b53d f82a 0fbd 4239 78bd
00000020: 0e8c e9bd c348 683a ef89 6ebd 64fc d43c
00000030: 7c05 e7bd 7def 293e 1b75 0dbd 7041 7bbd
00000040: e6f1 97ba 7900 453e 7adc c6ba b981 24bd
00000050: f89d a83d d6e7 593d cda0 6fbd 4417 063e
00000060: 62f3 ff3b 0f0a cc3d 3da4 bfbd f91a 013a
00000070: 6834 273e 88fa e2bb 8811 ce3d d38b d8bc
00000080: 88b6 193e 159b 013e e05e 073e b996 fe3d
00000090: 7edc 4ebd 4ef1 d4bd f87b cb3d 4a5a 87bd
000000a0: 762c d9bd d198 273d b287 1dbe 90e1 b0bd
000000b0: 1670 e5bc b315 c4ba ad3c 2abd 3b32 d6ba
000000c0: 260f e7bd bca5 f5bd 2c78 e43d fc21 bdbd
000000d0: 7c9b 32be 42bc 27be b946 2f3b 63d3 f1bd
000000e0: 0220 223d 7a07 cf3d f73e ecbc 2eaa b2bc
000000f0: aa40 10bd c6fc 64bd 3815 5cbd 8543 af39
00000100: 4014 f9bc c707 243d e60a aabc 85ea 7ebd
00000110: 6d3a af3d 45b5 2b3e 4698 e13d f3af 0f3e
00000120: e0d4 083c 87e3 3fbe 96d6 773c 3dd7 723d
00000130: d491 d63a 667f b13b 14b8 943d 1e96 4f3e
00000140: 3b1e a43d e251 373a 2245 dabd 236c 873d
00000150: adbd 603d 6fec a13d 5df0 e6bd 071c c73d
00000160: 829e 3cbd 3287 fcbd d21b 00be 8577 c1bd
00000170: 344f 3a3c 8894 173e bba3 1dbe 2e77 a5bd
00000180: bc2b fbbd 51c2 62bd 30f4 2d3d 1819 fe39
00000190: 4f79 b0bd 41c1 803d 969b 073e 38a9 aabd
000001a0: df36 2fbe 484d 8c3c f5d8 8bbc 2a2a f5bd
000001b0: 84bb 613e 95ff 20be 72e9 71bc 425f f13d
000001c0: 4f62 aa3d 8198 853c 34eb ff3d ac49 1c3d
000001d0: 5593 91bd afce a3b6 ebd4 07bd 2854 16bd
000001e0: 661e d5bd 8a00 f73d da8d 8ebd 3467 09be
000001f0: e6b9 3a3e cf5e 14be 5b14 9e3d a178 263e
00000200: 6fb6 d7bd f1ee c6bd 99ee bd3d 287a 57be
00000210: 9574 dabd b4df 9b3d 547c 9abd 8d7b 5fbc
00000220: c671 653d d370 3abe ee8d 143e 758f 05bd
00000230: 45ca b1bc 6d1c f33d 43fd a8bd e30c da3d
00000240: 86a6 0abc 0322 f9bc 012b c8bb 389e e33d
00000250: fd6d 263e 64eb 4c3d 050e 223d 97d8 dcbd
00000260: 529c de3c 1bac a8bb 5026 773e 6d01 aebd
00000270: 5ffd 00be 1c74 313d 5ab3 033c ea8a c0bc
00000280: 5722 a23c 6760 13bd 47c4 9a3d c432 9b3d
00000290: 61ab b6bd 4be7 a93d 02e4 2d3d c66a 93bd
000002a0: 916e d5bc 643d 81bd 5080 24bd bb8f f239
000002b0: 5e54 b03d 9422 553a 0219 fb3d 0752 be3d
000002c0: 0826 c2bc 8d50 4bbc 3c74 b5bd aca5 e5bc
000002d0: a92d ccbc e80f 653c fd83 10bd 0622 1c3e
000002e0: ca6f 603e f99c bd3d d7ce b73d 2ce0 813d
000002f0: e96b 19bd 4aa7 61bc 8518 9f3d b0f4 a13c
00000300: 30ca bf3d 094e 513e 5fbc 813d 7673 0a3e
00000310: faee dc3d ba6d 04bc 8e9b eb3b f720 b63d
00000320: f519 d9bc 1189 153a 9ad5 0e3e 2a6e 123e
00000330: 02e0 3e3e e2ba 47bd 299b ee3b f330 9c3b
00000340: 80ec 3d3d c69e 94bd 8a0c 88bd a21c 0e3c
00000350: 44a1 433e b0a5 823d 0b77 a73d d804 e53d
00000360: 986d 3c3e 09d1 c8bc b71b f9bc 1fd6 543d
00000370: e167 d53d 9caf 0d3d 7d6a 273e 056f babd
00000380: 6a12 d23c b3a0 1cbc db51 b33d 988e 3b39
00000390: 334d ecbb 9b0c b9bc f971 01be 754d 54bc
000003a0: 3afc 1e3e 70c8 bd3d dabd 663d 104e 123e
000003b0: 2aad 803d 3c57 b43d 8bcc b5bd 7da9 f9bb
000003c0: a8f3 253e de27 473e cd2e 3fbd 75e8 07bc
000003d0: ac6e de3c f12d 9dbd c84d c7bc 12d3 28bd
000003e0: 66a0 493e bd79 b23d 9da9 3ebc d42c 273d
000003f0: 21c5 0cbe c615 c23c 6fe7 b13d 19c1 393d
-0.023965904 0.1768941 0.09641251 -0.0039749555 -0.011144786 0.08870339 -0.034953088 -0.06060148
-0.114036664 0.000886094 -0.058237012 0.025999255 -0.11280343 0.16595264 -0.03453551 -0.061341703
-0.0011592477 0.19238462 -0.0015171908 -0.040162776 0.08233255 0.05319961 -0.05850296 0.13094813
0.007810996 0.09962856 -0.09357498 0.0004924979 0.16328585 -0.0069268383 0.100619376 -0.02643386
0.15011036 0.12656815 0.13219786 0.12431092 -0.050503246 -0.10397588 0.099357545 -0.06609018
-0.106041834 0.04091722 -0.15383795 -0.08636773 -0.028007548 -0.001496008 -0.04156177 -0.0016341874
-0.11282186 -0.11994502 0.111557335 -0.09234998 -0.17442125 -0.16380408 0.0026745035 -0.11807897
0.039581306 0.10108848 -0.028838618 -0.021809664 -0.03521792 -0.055905126 -0.053731173 0.00033428907
-0.030405164 0.04004648 -0.02075715 -0.062235374 0.08556066 0.16768368 0.11015372 0.14031963
0.008351535 -0.18739139 0.015126845 0.0592873 0.0016370364 0.0054167984 0.072616726 0.20272109
0.080135785 0.00069930975 -0.10657717 0.06612422 0.05486839 0.07906424 -0.112763144 0.09722143
-0.046049602 -0.12330474 -0.12510613 -0.09446625 0.011371423 0.14802754 -0.1539449 -0.08079372
-0.12264201 -0.055361096 0.042469203 0.00048465352 -0.08616888 0.0628686 0.13242945 -0.08333057
-0.17110775 0.017126694 -0.017071227 -0.11970933 0.22044188 -0.15722497 -0.01476513 0.11785747
0.08319532 0.016308071 0.12496033 0.038156196 -0.071081795 -4.8818397e-06 -0.03316204 -0.03670135
-0.10406189 0.1206065 -0.0696065 -0.13418275 0.18234977 -0.14489292 0.07718726 0.16256954
-0.10532843 -0.09713543 0.092740245 -0.21042693 -0.106667675 0.07611027 -0.07543245 -0.013640297
0.056016706 -0.18207102 0.14507267 -0.032607514 -0.021702895 0.11870656 -0.08251431 0.10646989
-0.008462554 -0.030411726 -0.006108642 0.11114162 0.16252895 0.050029173 0.03956415 -0.10783499
0.027174149 -0.0051474697 0.24135709 -0.08496366 -0.12596653 0.04332362 0.008038366 -0.02350374
0.019791765 -0.03598061 0.07556968 0.07578042 -0.08919407 0.08296069 0.042453773 -0.071981
-0.026053699 -0.063105375 -0.04016143 0.00046264924 0.08609842 0.0008130458 0.12260629 0.09292989
-0.023699775 -0.0124093415 -0.088600606 -0.0280331 -0.024924116 0.013980843 -0.035282124 0.15247354
0.21917644 0.09258456 0.089749984 0.063415855 -0.037456427 -0.013772795 0.077683486 0.019769996
0.09364736 0.20439924 0.06334757 0.13520607 0.10787769 -0.0080828015 0.0071901744 0.08893006
-0.026501635 0.00057043234 0.1394867 0.14299837 0.1864014 -0.04876221 0.00728168 0.0047665774
0.046368122 -0.07256846 -0.06643017 0.008673819 0.19104487 0.06379259 0.081770025 0.111825645
0.18401182 -0.024513738 -0.030408723 0.051962014 0.10420204 0.034591302 0.16349216 -0.091032065
0.025643546 -0.009559798 0.08755847 0.0001788683 -0.0072113513 -0.022589019 -0.12641133 -0.01295792
0.15525904 0.09266746 0.0563334 0.14287591 0.062830284 0.08805701 -0.08876904 -0.0076190815
0.16206229 0.19448802 -0.046675492 -0.008295168 0.027152382 -0.07674778 -0.024329081 -0.041216917
0.19690093 0.08714626 -0.011637119 0.040814236 -0.13747074 0.023692023 0.086867206 0.045350168

weight_hh_l0 f4 [108, 36]
00000000: f8ca 5d3d 31ef 5dbd 77ae 8c3d 0a63 21be
00000010: 9081 c2bc d277 a4bd 54cc 24be 3c11 103e
00000020: 2a42 00be 227b 0d3e c589 423e 4a9a cfbd
00000030: 6745 503c 8c1f 90bd db21 053e ac7a bc3d
00000040: ee2e 4ebe 712f 7abd 6ed1 0d3e 0ecb b53d
00000050: eb65 b4bc 95db 48ba ee8c fdbd 390c ff3d
00000060: cb33 933d 9888 d4bd a49c f0bd d396 853d
00000070: aac4 bcbd 9406 cdbb 8433 293e 3d78 023d
00000080: 9baf f0bd 6820 c33d 45c8 9dbd f951 3bbe
00000090: fcd8 b9bc 1cba 8b3d 7570 bdbd c434 e7bc
000000a0: ae44 f33d e541 b03b 9f97 0a3e feed dbbd
000000b0: 4590 63bd 5af9 173a 7523 3d3e d95b 31be
000000c0: 4390 113e eac0 63bd 7ee6 44bc 0231 7f3d
000000d0: 2c25 813d 5436 9c3c 8d0f fc3c 6620 8dbd
000000e0: f761 a2bd 4798 b73d 5833 1a3e c517 f83d
000000f0: e535 d6bd 38b7 03bd 1947 f3bc 30fc 113d
00000100: d663 a93d bafb ae3d 9d21 8fbc b9ad 183d
00000110: d8ef 26bc bacf 623c 943c 6ebd c5ff d63b
00000120: f9ca 1e3e ce72 a1bc 6b1d 533c a083 4a3e
00000130: bf9e 10be 4743 1bbe 7410 bebd 35c2 bbbd
00000140: 9a7b 12be 0667 d33b 6f47 5e3d 4729 b9bd
00000150: 5095 06be 8822 2bbc cea2 89bd d9a6 0dbd
00000160: 794a 833d af22 efbd 0c13 96bd 1856 9dbd
00000170: ec70 9b3d e691 8d3d fdc0 f83d b24a 1c3e
00000180: 72d0 d73d c5e6 11bd 7267 84bd 0f66 fb3d
00000190: c09e 5e3c 456e 943d a4f0 4d3c f001 2dbd
000001a0: 169c b5bd 1748 8ebd 3e20 49be f400 c3bd
000001b0: 60bd dcbd 3f6a cf3d 8c10 083e 68da 33be
000001c0: a4a9 09bd a8ed 0abe f7b4 d33d 8f80 1b3e
000001d0: 1e05 00be df2d cbbc f188 c2bc 9e82 083e
000001e0: d69e ebbb 1ef4 edbd 7b37 7f3b d38e ff3d
000001f0: 5416 2ebe a978 29be d9c0 673c 28a9 be3d
00000200: 4331 90bc fbf9 02be 40a3 0b3e 3acb 79bd
00000210: 9695 1fbe ab73 bebd 1de0 60bd a3f4 babd
00000220: ed12 24be 698d a13d e989 bfbd 63e6 36be
00000230: c470 34be 528a 0c3e ec06 c1bd bf86 1bbe
00000240: 3342 ffbd 484e 46bd 4c64 913d 49a7 0a3e
00000250: 7b6a 143e 0c1e babd 0377 adbd 5165 ca3d
00000260: 01f9 fd3d f40f cdbc c108 253d fd88 df3d
00000270: 09f0 503c f8c8 d63d 4808 8ebd 23fc 9b3d
00000280: 5821 0ebe 8cb9 0f3e 4a43 483d 892c ee3d
00000290: e213 313e 4e62 29be 2b35 07be d7f9 c03d
000002a0: 45b5 f73d 9c51 8bbd ebb7 8d3d 053d b83d
000002b0: 0216 13bd 4517 a9bd f348 dcbd 6d61 4c3d
000002c0: 5013 9dbb 9b61 62bd 9b35 c23d 3551 7dbd
000002d0: 87f6 a8bd 2b73 b3bd 1b65 2c3e 4bfa 313d
000002e0: b3e2 433e adba 2ebd 9f98 12bd 4268 203e
000002f0: f026 32bd ea3f a43d 4c84 41bc 296f 73bd
00000300: ebb4 1bbe c93b 4abd a472 f5bd ee11 8c3d
00000310: 56ff ccbd c5d2 083e 1722 bcbc 2e2e 26be
00000320: 9972 06be 4f7e 2a3e 03c6 bf3d ee0a 0abb
00000330: 2fa7 ca3d 7bf2 ba3d 3b45 063d 06ee 393e
00000340: 34ac be3d eb57 133e c9fb 9a3d 91b6 c83d
00000350: 992e eabd ee11 7bbc 89f1 b93d d0b4 b53d
00000360: 1418 d43d d996 44bd 84c2 06be a578 7e3a
00000370: ab38 5ebc 588f 033e 05e4 f2bc 8e68 26be
00000380: 2351 053c 2aad c1bd 71c2 0a3e bdff edbd
00000390: a919 e03c 8eda 7e3e cacb 23bd e20d 81bd
000003a0: 6e48 1abe 4420 6d3b f719 84bd 3665 32bd
000003b0: f059 88bc f579 313e 86b2 f4bd fcb2 8ebc
000003c0: f8fc e2bd 28c5 b43c 17e7 13be 7694 d13d
000003d0: c939 a63c 3055 7a3e a4c1 76bd 74a1 8fbd
000003e0: 4c34 05bc bb86 8ebd a83d 623e 7d2b 183d
000003f0: 915b 69bd 0551 20be 84ab bdbd 46a7 1b3e
0.054148644 -0.05418319 0.06869214 -0.15760437 -0.02374342 -0.080306664 -0.1609357 0.14069074
-0.1252524 0.13816503 0.18997867 -0.1013685 0.012711859 -0.07037267 0.13001196 0.09203085
-0.2013509 -0.0610804 0.13849422 0.0887662 -0.022021255 -0.0007662115 -0.12380396 0.12453503
0.07187613 -0.10377616 -0.11748627 0.06522908 -0.09217198 -0.0062568877 0.16523558 0.03185295
-0.11752244 0.095276654 -0.07704214 -0.18292989 -0.022686474 0.06822607 -0.09249965 -0.028223403
0.11878334 0.005378949 0.13534401 -0.10738753 -0.055557508 0.0005797349 0.18470557 -0.17320193
0.14215188 -0.0556039 -0.012017844 0.062302597 0.06305918 0.019068874 0.030769134 -0.06890945
-0.079288416 0.089645915 0.15058649 0.12113909 -0.10459498 -0.032157153 -0.029696988 0.035640895
0.08270995 0.08544107 -0.017472083 0.03727505 -0.010189019 0.013843471 -0.05816324 0.006561252
0.15507115 -0.019708063 0.012885432 0.19776773 -0.14123057 -0.15162383 -0.09280482 -0.091679014
-0.14304963 0.0064514903 0.054267343 -0.09041076 -0.13142896 -0.010445245 -0.06720506 -0.034582946
0.06410689 -0.11676537 -0.07327852 -0.07682437 0.075898975 0.069125935 0.121461846 0.15262869
0.10537805 -0.03562047 -0.06465043 0.122753255 0.013587654 0.07247595 0.01256958 -0.042238176
-0.08867662 -0.06947344 -0.19641206 -0.09521666 -0.10778308 0.10127687 0.13287562 -0.17563784
-0.033609048 -0.13567221 0.10337251 0.1518576 -0.12501952 -0.024802146 -0.02374694 0.13331077
-0.0071905656 -0.11618827 0.003894298 0.124784134 -0.17000705 -0.16549934 0.0141451 0.09309608
-0.017601615 -0.12790672 0.13636494 -0.060984828 -0.15584406 -0.09299406 -0.05490123 -0.09128692
-0.16022845 0.078883 -0.09352476 -0.17861323 -0.17621142 0.1372464 -0.09425148 -0.1518812
-0.124637984 -0.0484145 0.07099208 0.13540377 0.14493744 -0.09087762 -0.08469965 0.09882606
0.12401009 -0.025032021 0.04029155 0.109148 0.012752541 0.104875505 -0.06935173 0.07616451
-0.13879907 0.14035624 0.048892297 0.11629588 0.17292741 -0.16541407 -0.13203876 0.09422653
0.12095121 -0.06802675 0.06919845 0.089960136 -0.03590966 -0.082563914 -0.107561015 0.0498976
-0.004793562 -0.055268865 0.09482881 -0.061845023 -0.08250146 -0.08762201 0.16835444 0.04345159
0.19129448 -0.042658497 -0.035790082 0.15664771 -0.043494165 0.08020003 -0.011811327 -0.059432182
-0.15205733 -0.04937342 -0.119847566 0.06839357 -0.10009639 0.13361652 -0.022965474 -0.16228554
-0.13129653 0.16649745 0.093639396 -0.0021063644 0.09895169 0.09128281 0.032780867 0.18157205
0.09310189 0.14389007 0.075675555 0.09800447 -0.11434669 -0.015324099 0.09079272 0.08872378
0.10356155 -0.047995422 -0.1316014 0.00097073085 -0.013563315 0.1284765 -0.029649744 -0.16250822
0.00813702 -0.094568565 0.13550736 -0.11621044 0.027355986 0.2488806 -0.03998927 -0.06301476
-0.15066692 0.0036182562 -0.06450265 -0.043553554 -0.016644448 0.17331679 -0.11948113 -0.01741933
-0.11083406 0.022066668 -0.14443623 0.10233395 0.020291226 0.24446559 -0.060243264 -0.070132166
-0.008130144 -0.069592915 0.22093832 0.03715085 -0.05697209 -0.15655906 -0.0926123 0.15200529

bias_ih_l0 f4 [108]
00000000: 84aa 353e c0c0 833d ac1f 95bd f0ff d13c
00000010: e32f f73d cfac 9b3d 430a de3d 85e1 72bd
00000020: ddf3 413e 0253 c1bd e032 05bd 745f b5bb
00000030: 125b 993d 0bca 843d df11 f23d 4859 373e
00000040: 8a9b b5bd 1fab e8bd 0402 ecbc 02d8 41bd
00000050: e7d2 913d aba6 15be c83e 3ebe 003b 363e
00000060: 7dc4 b63d c212 3b3e 7ed5 58bc 2b1b f33d
00000070: 04b0 a33d 58ce 54be e173 45be 33ab 24bd
00000080: e6e3 a03c 549f 55bc 5059 ebbd 8054 59be
00000090: 1e98 52be 7938 bebc 36ca aabd 9b13 593d
000000a0: 4fe3 ca3d ca58 fcbd d86d 8abc 25b9 67be
000000b0: 9494 953d 74be 2bbe 8fb9 92bd 1299 85bc
000000c0: 429c 203e 8d2f 8fbc ba26 bb3d 5121 3abe
000000d0: 528d 31be 7b41 04bd 4b65 55bd 97f5 973b
000000e0: f151 b13d f87d 2bbd 23df 3dbe b5f9 be3d
000000f0: 4970 fcbd 3a68 dabd 2571 d3bd 213c 52bd
00000100: aa7b 6f3d f1c7 4abd 3788 123e fcdd 7c3d
00000110: 4eb5 f6bc fbb1 35be 204a 13be a27d dd3c
00000120: bc5d 4d3c b5e6 873d bf90 4fbd dc28 923d
00000130: 9608 533b 14c4 273e 1e70 163e 016a 8fbd
00000140: 4f38 26be a1b9 f93d f269 ef3d 606a f93d
00000150: 96a4 23bd f25b 18bd a326 a9bc 4e54 32be
00000160: b9fd f0bd 26ed aa3d f746 1c3e 7060 193e
00000170: 6b2b c33d b2e3 ce3d 2e65 d03c 0c47 a73b
00000180: 4e19 85bd 2df4 4e3e 15ca ed3d 77d9 f3bd
00000190: 19a9 bebd 851e d13d 5d26 f7bd ad97 9abd
000001a0: 261e 07be d9b0 593d 5583 6a3d 7b0e 7fbd
0.17740828 0.064332485 -0.072814316 0.025634736 0.120696805 0.0760132 0.10841801 -0.059297103
0.18940683 -0.094396606 -0.03251922 -0.0055350605 0.074880734 0.06483849 0.11819815 0.17905152
-0.08867557 -0.11360764 -0.028809555 -0.04732514 0.071203046 -0.1461436 -0.18578637 0.17795944
0.08924196 0.18268874 -0.013234494 0.11870416 0.07992557 -0.20781839 -0.19282486 -0.04020233
0.01963992 -0.013038475 -0.114916444 -0.2122364 -0.2056584 -0.023220288 -0.0833935 0.052997213
0.09906637 -0.12321623 -0.01689808 -0.22629221 0.0730373 -0.16771871 -0.07164299 -0.016308341
0.15684608 -0.017478729 0.09138246 -0.18176772 -0.17339066 -0.03228901 -0.052098554 0.004637431
0.08658207 -0.04186818 -0.18542151 0.093249716 -0.12326104 -0.10664411 -0.10324315 -0.051326875
0.058467545 -0.049507085 0.14309774 0.06173514 -0.03011575 -0.17743675 -0.14383745 0.027037445
0.012534555 0.06635801 -0.05067515 0.071366996 0.0032201163 0.16383392 0.14691207 -0.070026405
-0.16232418 0.12193609 0.11690129 0.121784925 -0.039951883 -0.03719706 -0.020648306 -0.17414972
-0.11767144 0.08346014 0.15261446 0.14978194 0.09529766 0.10102023 0.025438871 0.005104905
-0.06498967 0.20210333 0.1161081 -0.119067125 -0.093095966 0.10210899 -0.12067864 -0.07548461
-0.13195094 0.05314717 0.057254154 -0.06226967

bias_hh_l0 f4 [108]
00000000: a8d3 343e 632e 003d fb08 983d 4e2a 03bd
00000010: 25e8 a23d adaa fa3d d030 163c e0d0 e13d
00000020: 1627 debd 3592 6fbd 1acf 1a3b 691d 283e
00000030: 2693 f3b9 44dc 0d3d 72c0 c63d c751 583d
00000040: 1472 013c dd69 933d 804f c13c 4c22 e03c
00000050: cb2e 433e 597d cabd 3b7b 11bd 3441 cb3c
00000060: 039e 9ebd 7e1c debd a724 843d a73a 7b3d
00000070: 3459 d83d 1be0 47be da39 923d 6061 e53d
00000080: 8537 b43c 24f7 f5bc 0d8f 04be 1cf2 05bd
00000090: ef49 47ba b95f 0fbe 18a5 ce3d 9bb9 c8bd
000000a0: 1bdd 79bb 912e dc3d 2485 0ebd 6878 fbbd
000000b0: 1db2 8abd 8bda 86bd d94c ecbd 9398 79bd
000000c0: f1c4 11bc ed06 bd3d 117d 13be 6de9 35be
000000d0: 36da 8ebd 7c3f 2abe 2bfb 9e3d 84a7 0abe
000000e0: f72c 45be 7b3b 71be 8564 5d3d e067 b73b
000000f0: 6f65 25be 3487 01be eeaf 36be ca16 cebd
00000100: 2b17 58bd ec99 67bd 8302 443e d2d7 3cbe
00000110: 4cd8 afbd c03c a93d 1bc0 e03d 68d6 de3d
00000120: daf6 f33d f518 e83b 5460 a6bc effd 57bc
00000130: a2cd 1cbe a4a6 cbbd 748a 143c 4513 94bb
00000140: 91f7 1bbe 28d0 7ebd 789f b0bd 77e7 3fbe
00000150: 7e5e c13c 8438 893b f78e e43d 6385 2dbd
00000160: 56b7 7a3d c43b dd3d 772b 103e e84f ae3d
00000170: 25b8 c33d 969f 8b3c cf18 2bbe aa0b 30be
00000180: 7ee0 e43c dd8c 37bd 48ef 5f3d a1b5 8e3d
00000190: de29 96bd 1a04 19be c8be 073e 54b7 503d
000001a0: c580 06be 9a5a 003e e17a 353e 0cdb 343e
0.17658865 0.031294238 0.07423588 -0.032022767 0.07954434 0.12239585 0.009166911 0.11026168
-0.10847299 -0.058489043 0.0023621977 0.16417469 -0.00046458206 0.03463389 0.09704675 0.052812364
0.0079007335 0.07197926 0.023597479 0.027360104 0.19060819 -0.098871894 -0.035517912 0.024811365
-0.07744982 -0.10845278 0.064523034 0.061335232 0.10563889 -0.19519083 0.071399406 0.112002134
0.02199913 -0.030025072 -0.12945195 -0.032701597 -0.00076022645 -0.14001359 0.10090083 -0.098010264
-0.0038126174 0.10751069 -0.03479494 -0.12278825 -0.06772254 -0.065846525 -0.11538095 -0.06093652
-0.008897052 0.092298366 -0.14403178 -0.17764826 -0.06975214 -0.1662578 0.0776275 -0.13540465
-0.19255434 -0.23557846 0.05405094 0.0055970997 -0.16151975 -0.12649232 -0.1784055 -0.100629404
-0.05275647 -0.056543276 0.19141583 -0.18441704 -0.08586177 0.0826354 0.10974141 0.108807385
0.119123176 0.0070830532 -0.020309605 -0.013183101 -0.15312818 -0.099438936 0.009066213 -0.0045188987
-0.15231158 -0.062210232 -0.08624166 -0.1874064 0.023604628 0.0041876454 0.11160081 -0.042363536
0.06121 0.10802415 0.1407908 0.08511335 0.09556607 0.01704387 -0.16708682 -0.1719195
0.027939077 -0.044812072 0.054671556 0.06968237 -0.07332204 -0.14942971 0.13256371 0.050956085
-0.13135059 0.12534562 0.17722656 0.17661685

weight_ih_l1 f4 [108, 36]
00000000: 614b 11be d2bc c0bd c4de debd 929f a23c
00000010: 975a fd3d 2db4 9d3d e0c8 a9bd 5bff 46be
00000020: f426 fc3c f8c8 eebd 06a2 423d 9dbb 0b3e
00000030: 2423 d43d 43ad d2bd 883f 24bb b94e 5ebd
00000040: 1b88 ce3d 7d0a 343e 64ba f6bc d961 233d
00000050: 7e4c d23d 46b4 00bc a210 033d a881 7fbe
00000060: 8bd8 4cbb 73d0 febd 81bb 8b3d e729 b73d
00000070: e7d7 aabd eff4 1b3e aa09 e6bc 95f8 8dbc
00000080: 1109 fcbd 3f02 3fbd f057 5ebd 5979 b9bc
00000090: 9062 cd3d 4d63 d2bd 207e 603d 12a6 e33d
000000a0: 47ab ee3d 27c5 ddbc 20a3 47bd 7ec1 b1bd
000000b0: f6a5 433d fa20 85bd f485 373d 3415 0e3e
000000c0: f4d9 8ebd 55f2 973d 37f7 373d 54bf eabd
000000d0: 17bb 0ebd c09e 48be 0134 f73c 5965 c53d
000000e0: e690 113e f5e0 d1bc 9a76 dabd 0b1d 9e3e
000000f0: d59d 2fbd f2aa ecbd 55ba 863e d0b7 f33d
00000100: fe6a 20be df40 9ebd 3573 00be 698a 093d
00000110: 731e 7d3d 23b9 d2bd 188b 133c 06ab 5a3e
00000120: 1b69 283e d33e 0dbe 6be6 b8bd d8ab cfbd
00000130: 18f0 ad3d 3ec7 ef3d 7136 83bd 6f08 353d
00000140: b736 c33d 0649 023e a7bb 313e 3ea8 0dbe
00000150: c56e e83d d1b5 e83a 4326 12be 6674 0b3e
00000160: f7b3 5fbd 611d babd 2cc9 23be 73f3 8d3b
00000170: 7fc8 cdbd 1d03 013d c2e0 8d3c c310 913d
00000180: 505c 9ebc 585c a43d b346 ff3d c92f 333d
00000190: c256 cb3d 7288 bbbd 8717 163d 84ef 88bd
000001a0: 92f7 8cbd af5f e3bc e3e9 40bd 3bc4 bdbd
000001b0: 62ba 02bd 870f 1ebe 852c 1b3e 71c7 6fbb
000001c0: 8b41 093d e588 debd 88ec 04be ddf1 c63d
000001d0: c5b8 0bbe 8611 f6bc da23 ff3d 4e94 22bd
000001e0: 4085 033d 0a6d 6abd 8df3 6dbd 25fa 56bd
000001f0: 3748 f4bd 21fd d43c 517d 2a3c 8196 73bd
00000200: db94 ff3d 9503 323b f74e 69be 0a89 0e3e
00000210: 8abf c6bd e4da 2cbc a742 853e f21b 4e3c
00000220: 96aa c33d 1ce4 e13c d0ba babc 0102 e13d
00000230: c602 133e a292 17be c189 243e 086d 143e
00000240: 35bb cc3d 7c43 cfbd 47d3 793d cc81 953d
00000250: 811b 0a3d ff88 20be ac34 333d e3ee 64bc
00000260: 974c 12be a6a5 febc 7aa2 26be 6bf3 d53d
00000270: 1722 c93d 4e24 84bd 15d6 183c bbe7 19be
00000280: 1e69 303e a448 f13d 0ab3 963d 34da 29be
00000290: 4ead 423e f9b7 16be 6e56 49be 03cb 88bd
000002a0: a3ef 283e 2e36 aabd 64cd 2fbe 2bf6 1a3e
000002b0: 92d3 373e b9c3 8bbd 8eed 343d c38f 473e
000002c0: 42ce d03a a79e 1cbe 0269 12be fd3d d6bd
000002d0: 49f7 903d e2e1 123d 1ee6 d8bd 5d80 243e
000002e0: 7ff0 18be f1c1 f63d 3e5f 0cbd 052e 3fbe
000002f0: 4869 7b3d afa6 c53d 45da 42be 1e36 00be
00000300: 3204 573d 671d 56bd 6e47 1cbe 429d 13be
00000310: 2191 ccbd d3ec 5b3e 04f1 1a3e 6d95 5e3b
00000320: 2850 383d fa4b 873d 2982 0cbd 3f8e 19be
00000330: 015c 0bbd 87a7 13bd e5ff 1e3d 9675 593c
00000340: 3e34 73bd 231e ba3d 8cf0 abbd c528 4b3d
00000350: d633 babd 22d8 d93d 385d cfbc 4731 eabd
00000360: f642 11be 85f9 083e 345f c63d 72ff e1bd
00000370: 9789 a83d 4784 373d 64c0 c8bc 6768 56be
00000380: e5d8 323d 0a04 d73d 70ee dbbd 313a 85bd
00000390: 3116 26be a92b 823c affd 9cbd 960f f0bd
000003a0: 8f7c afbd ea24 e43c d96b 873e fa05 d63d
000003b0: 47dd 40bd 3e75 7d3c 78b4 003e 7fdc 63be
000003c0: 5226 74bc c879 a53c 5711 31be c363 f5bc
000003d0: 3cbb 20be b0f0 633e 57cc 043e d23f 91bd
000003e0: 4c55 d73d 3a73 4d3e 517c 9bbd 1fa6 30be
000003f0: 8084 5bbd 05b0 b4bd ae8c 573d 87ca 213e
-0.14188911 -0.094110146 -0.10882333 0.01985148 0.12370794 0.077003814 -0.08290267 -0.19433348
0.030780293 -0.116594255 0.0475178 0.13645788 0.10358265 -0.10286953 -0.0025062282 -0.054274295
0.10084554 0.17582126 -0.030118175 0.039888237 0.10268496 -0.007855481 0.031998284 -0.24951804
-0.0031257 -0.12442102 0.06822873 0.08943539 -0.08341961 0.15230154 -0.02808078 -0.017330447
-0.12306417 -0.046633 -0.054283082 -0.02264087 0.10028565 -0.10272846 0.054807782 0.1111566
0.11653762 -0.027071549 -0.048739552 -0.08679484 0.047765695 -0.065004304 0.044805482 0.13875276
-0.06975165 0.07419268 0.044913497 -0.11462274 -0.03484639 -0.19591808 0.030176165 0.09638471
0.1421543 -0.025619963 -0.10667153 0.30881533 -0.04287513 -0.11556043 0.26314035 0.11900294
-0.15665814 -0.07727217 -0.12543948 0.033579264 0.061796617 -0.10289218 0.0090053305 0.21354303
0.16446345 -0.13793497 -0.09028324 -0.101401985 0.0849306 0.11707924 -0.06406868 0.044197496
0.095319204 0.12723169 0.1735674 -0.1383371 0.113492526 0.0017754381 -0.14272408 0.13618621
-0.054614987 -0.09087635 -0.1599471 0.004332 -0.10048007 0.03149711 0.017319087 0.07083275
-0.019331127 0.08025426 0.12464657 0.043746743 0.09928657 -0.09156884 0.03664353 -0.06686309
-0.06883158 -0.027755586 -0.04709805 -0.092659436 -0.03191603 -0.1543561 0.15153702 -0.0036587382
0.033509772 -0.10865954 -0.12980855 0.097141005 -0.13644703 -0.030037653 0.1245801 -0.039692216
0.0321095 -0.057232894 -0.058093596 -0.05248465 -0.119278364 0.025999608 0.010405854 -0.059469704
0.12479564 0.002716278 -0.22784029 0.13919464 -0.09704502 -0.0105502345 0.26027414 0.012579905
0.09554021 0.027574591 -0.022794157 0.1098671 0.14356527 -0.1480203 0.16068174 0.14494717
0.099966444 -0.101202935 0.060992505 0.073001474 0.033717636 -0.1567726 0.043751404 -0.013972971
-0.14287029 -0.031084847 -0.16272917 0.10446819 0.09820955 -0.06452237 0.009328385 -0.15029804
0.17227599 0.11781433 0.07358368 -0.16587144 0.19011423 -0.14718617 -0.19661877 -0.066793464
0.16497664 -0.08311115 -0.17168194 0.15132968 0.17951801 -0.068244405 0.044171862 0.19488434
0.001593061 -0.15294896 -0.1429787 -0.10461042 0.07078416 0.03585995 -0.10590766 0.16064592
-0.14935492 0.1204871 -0.034270518 -0.18669899 0.0613797 0.09650933 -0.19028576 -0.12520644
0.052494235 -0.052274134 -0.15261623 -0.14415458 -0.09988619 0.2147706 0.15131003 0.0033963576
0.044998318 0.06606288 -0.034303818 -0.14995669 -0.03402329 -0.03604844 0.03881826 0.013272664
-0.059375994 0.090877794 -0.0839549 0.049599428 -0.09091918 0.10636927 -0.025313005 -0.1143518
-0.141857 0.13376434 0.09686127 -0.110350505 0.08229368 0.044803884 -0.024505801 -0.20938264
0.043663878 0.10498817 -0.10738838 -0.0650524 -0.16219403 0.01588996 -0.07665574 -0.11721723
-0.085686795 0.027849633 0.2644947 0.10450359 -0.047086027 0.015469847 0.12568843 -0.22252081
-0.014901714 0.020199671 -0.17291771 -0.029954797 -0.15696424 0.22259784 0.12968574 -0.07092251
0.10514316 0.20063487 -0.07592071 -0.1725087 -0.05359316 -0.088226356 0.052624397 0.15799914

weight_hh_l1 f4 [108, 36]
00000000: 19e1 2b3e e2e9 d13d 0dea ea3d b5ff 66ba
00000010: 5b25 c5bd 5436 25be a2e2 e7bd 075e 14be
00000020: 4b11 c5bd aa0c bf3d deb0 c53d a38e 2b3e
00000030: f5e9 cabc fa17 883c 5704 653d e85d 1fbc
00000040: b5eb e83b 638f 49bd bc37 363c e471 d23d
00000050: b42e 1fbe dbf6 793d ca1f 3a3d 446c 9c3d
00000060: 3852 223e d8bd dfbc ad9b 7dbd 3451 10be
00000070: c811 b43d 2991 02bd 92a2 a1bd fc01 a83d
00000080: d83e d4bd 9312 693c e102 393e fdf2 2d3d
00000090: 7578 3abe 75c9 e03d 3ef6 2cbe fab4 8abd
000000a0: 86b9 8a3c d301 353d fce6 723d 50b9 28bd
000000b0: 0966 113d 7939 e63d 446a 93bb 3ae0 0dbe
000000c0: 61b5 2b3d 74dc f83c b7f5 5d3c 5bd8 f8bd
000000d0: b16e 58bd e64e d7bd ad11 933d 65c5 9f3b
000000e0: 726e 07bd 5a42 ca3d cf1e 793d 5dc6 19be
000000f0: f658 debd 2d3f fabc fc00 be3c f8a9 0a3e
00000100: cab3 f3bc d06e c7bc 290e 13bd 0207 a9bd
00000110: 0cb2 793d 4e1a 53bd 8b08 113e 7d43 ca3d
00000120: c600 a1bd 52c4 16bd b11e bc3d db4f 77bd
00000130: c61f 3f3d a440 513e 7729 9a3d 0eaf f73d
00000140: b5a7 643d a4f1 69bd 4536 71bd ba9e dbbd
00000150: b8e8 263c ce37 453d 2ba4 4c3d bfad 133c
00000160: 8903 ba3d 6d57 0abe 2be8 273e a786 5b3e
00000170: ad7e 15be 7094 17be d646 f13d 0cca 683d
00000180: 90d6 0fbe 71e6 a53d 6d92 c33d 5299 e43d
00000190: 861b e5bd a1b5 71be f1e2 05be 120b cabd
000001a0: 7ea7 f0b9 7d8d ddbc 4ba9 4fbe a3c5 e83d
000001b0: 22a1 02be 9d4a 333e 8d1b 9ebd a288 cbbd
000001c0: 9132 38bd e15b 073e 4f7b 1dbd 4aed 133e
000001d0: e386 89bd c8e5 13be f79a 0d3c 2841 d43d
000001e0: 1d4c de3c 9fde fd3c 6a1e 0c3d 1ab0 1cbe
000001f0: 63e7 bc3d 83a1 d4bd 3a2f ba3c 7a0a 273e
00000200: ba40 373e fb5e 893d 72a8 dc3d 35ca 55bd
00000210: 3af7 1b3d 3ff2 93bd f46e a5bd 5293 aebd
00000220: 10e6 8bbd faeb 9ebc 9110 46be 7248 cfbd
00000230: ce06 833c 262f 2b3c 6e15 fbbc 32e1 0cbd
00000240: 0ff5 bebc afde 3e3d 1bce 3d3d 8bbd ccbd
00000250: 1bbb a53c 10cc 243e d2fe 953d 3daf 3cbe
00000260: 800e af3d fef4 0f3e ca0b be3d fca9 e13d
00000270: 64f0 153d fc7c b4bd 4b24 c03d 3435 c43d
00000280: 33ed 3a3c ffc6 413e eee6 4e3d 6ab4 1abe
00000290: 6fad a9bd 85fa 08be bc83 dbbd bb9e f1bc
000002a0: 1ff6 b4bd e199 90bb 8516 22bd 4161 fbbd
000002b0: 17bc 0ebe 1581 8f3c 5370 243e a494 273e
000002c0: 6711 8fbd 9f3f ccbc 59bc 25be cc0a 473d
000002d0: a3ae 2ebe 05ec 203e f53d 313e a5c3 113e
000002e0: a997 ab3c a253 c93d e881 003e b78f 2cbe
000002f0: 21d2 143e 656c 92bd ab37 203e de9e 91bc
00000300: bb6e 87bd 4109 fd3d 93ea 1d3e 476e bb3d
00000310: bc73 39be e9e8 e63d 06d2 983d f825 97bd
00000320: d913 733d 46e7 c93c 84a4 933d 45ce 1d3d
00000330: 2f5e 1cbd 8f6a d53d 7c25 303d e599 17bd
00000340: 9fcf ccbd 8473 023d d641 0cbe 923a c9bc
00000350: efa9 c83d bfca cabd 503d 163e 80fe bd3d
00000360: f5cd 833d 5d5f 43bc 67b1 f0bd 8b2f 25be
00000370: 5040 363e edb2 563b 79d5 50be 8ff4 23be
00000380: a7c9 5b3e befe 8fbc f094 c4bd a98d f2bc
00000390: 6795 b0bc 40df 083e 997f 68bd b0d9 033e
000003a0: e6f3 1cbe c1c8 0ebe 273a 2b3e c5cf 113e
000003b0: 3f32 193e e45e 89bd a986 ee3c 15d7 2bbd
000003c0: 990e 9b3d a0d4 883d 0da9 26be 12d1 8dbc
000003d0: d324 b1bd ed97 cc3d adb8 9b3d 9e3b 963d
000003e0: cd65 11be dfdb bd3d 8afc 10be 001a b93d
000003f0: 1fa8 95bd 9621 463c 3c97 a2bd d73f 09bc
0.16785087 0.10249688 0.11470423 -0.0008811907 -0.096262656 -0.16134006 -0.11322524 -0.14488994
-0.09622439 0.09328587 0.09652875 0.1675363 -0.024769763 0.016612995 0.055912342 -0.009726979
0.0071081766 -0.04920901 0.011121687 0.10275629 -0.1554516 0.061026435 0.045440473 0.076378375
0.15851676 -0.027312204 -0.061916042 -0.14093477 0.08792454 -0.031876717 -0.07892336 0.082035035
-0.10363549 0.01422562 0.18067504 0.04246806 -0.18210013 0.10975925 -0.16890809 -0.067728
0.016934168 0.044191193 0.059302315 -0.041192353 0.0354977 0.11241431 -0.004498752 -0.13855067
0.041921023 0.030378558 0.0135473525 -0.121506415 -0.05283994 -0.105130956 0.07181106 0.004875826
-0.033064313 0.09875937 0.060820397 -0.15017076 -0.10856812 -0.030547703 0.023193829 0.135414
-0.029748816 -0.024344832 -0.035902176 -0.0825329 0.060960814 -0.051538758 0.14163415 0.098761536
-0.07861476 -0.03680832 0.091855414 -0.06037889 0.04666116 0.20434815 0.0752744 0.12093936
0.055824 -0.057115212 -0.058889646 -0.10723634 0.01018732 0.048148923 0.04996125 0.009013592
0.090827055 -0.13509913 0.16397159 0.21438085 -0.14599104 -0.14802718 0.11781089 0.056833312
-0.14046693 0.08100594 0.09549413 0.11162056 -0.1118689 -0.23604442 -0.13074853 -0.09865393
-0.0004590116 -0.027045006 -0.20279424 0.11365821 -0.1275678 0.17508931 -0.07720099 -0.0993817
-0.0449701 0.13218643 -0.038447674 0.14445987 -0.06715181 -0.14443123 0.0086429035 0.1036399
0.027135903 0.030989943 0.034208693 -0.15301552 0.09223821 -0.103823684 0.022727598 0.1631259
0.17895785 0.06707569 0.10774316 -0.052194793 0.03807757 -0.07223939 -0.08077803 -0.08524193
-0.0683099 -0.019399632 -0.19342257 -0.1012124 0.015994456 0.010448253 -0.030649867 -0.03439445
-0.023310212 0.046599086 0.046339136 -0.0999709 0.02023082 0.16093469 0.07323994 -0.18426223
0.085476875 0.14058301 0.09279592 0.1101875 0.036606207 -0.088129014 0.09381922 0.0958046
0.011409092 0.18923567 0.0505132 -0.15107885 -0.08285033 -0.13376816 -0.10718486 -0.029494634
-0.088360064 -0.004412875 -0.039572258 -0.12274409 -0.13938938 0.017517606 0.16058473 0.16365296
-0.06985741 -0.02493268 -0.1618513 0.04859428 -0.17058806 0.15715034 0.17308791 0.14234789
0.02094634 0.09830405 0.12549555 -0.16851698 0.14533283 -0.07149581 0.15646236 -0.01777595
-0.06612917 0.12355281 0.15421514 0.09151893 -0.18110555 0.11274893 0.07461934 -0.07380289
0.0593451 0.024646413 0.07209113 0.038526792 -0.038175758 0.10420715 0.043004498 -0.037012
-0.10000538 0.031848446 -0.1369699 -0.024564061 0.09798037 -0.09901952 0.14671826 0.09277058
0.064357676 -0.011924592 -0.11752587 -0.16131417 0.17797971 0.0032760457 -0.20393933 -0.1601126
0.21463643 -0.017577525 -0.0959872 -0.029608564 -0.021555616 0.13366413 -0.05676231 0.1287601
-0.15327415 -0.13943769 0.16721402 0.14239414 0.14960574 -0.06707552 0.029116945 -0.041953165
0.07571144 0.0668118 -0.16275425 -0.017311607 -0.08649602 0.09989915 0.076035835 0.0733559
-0.1419899 0.09270453 -0.14158836 0.09038162 -0.07307457 0.012092968 -0.07939002 -0.008377037

bias_ih_l1 f4 [108]
00000000: b9b6 62bd 3f47 0d3a 8f0e 06be a5cf 8ebd
00000010: 47bd 95bd b9d2 b2bd 8716 0dbd d555 283e
00000020: 18f9 8d3c 0130 18bd 2fe3 8e3d dea9 d9bd
00000030: 5987 ebbd 1038 2a3e 8bb8 ca3d 7db8 643d
00000040: a9cc 31be 7fe2 f2bc 51ae 093e 8e69 203e
00000050: 25c5 153d 8c23 163e 43f9 5e3c c149 0fbd
00000060: 40aa 35be c0e5 b8bd 2c4a 8abc cdc8 813c
00000070: e7c5 143d b075 ff3d c72b 823b cbc6 123e
00000080: 0d18 debd 26ac 263e 09b7 f33d 4c90 8a3d
00000090: 2721 a43c 3260 af3c 052f 42be 306a bdbd
000000a0: 2163 31bd 4fff 5d3d f760 17be d68e 94bd
000000b0: 8606 3fbe eb17 c93c 17a9 aa3d c726 66bc
000000c0: ec4d 1339 0c2f 17be 26a6 52be c7cb 6ebd
000000d0: d551 edbd 5bea f3bd 9268 f5bc b856 8dbe
000000e0: c8ee 64be 2f25 8a3d 5fb7 b5bb e2ee 2ebe
000000f0: 1ab0 7dbd c099 c03d b015 79be 2e5d 11be
00000100: e085 81be 083a b3bd 5aa8 fcbd 9f32 eebd
00000110: 8b55 4abe 2bf6 8fbe bd06 8f3d 7c81 5f3c
00000120: d40d e0bc 541e 94bd f604 0e3e 03b6 943d
00000130: 3eb6 ad3d ebfd 253c 974f 07be bfa2 d43d
00000140: 56d9 2b3e c90e 20be 8269 1b3d 2816 0fbd
00000150: fa41 033e c5d5 0bbd 2e25 15be a82d 03be
00000160: 046a fe3d 001d a9bd 9631 b23d 734d 3d3e
00000170: fd39 25bd 0c36 37bd 4ef4 1abe 4a14 b53d
00000180: fb7f 2b3e 3a44 17be 915b efbd 8d75 6e3d
00000190: 8790 9abd f875 633c 1c6e 673d f770 22be
000001a0: 46ec aabc 7a7b 50bd a5d5 f2bd 3fc9 903d
-0.05535004 0.00053893396 -0.13091491 -0.06973199 -0.073114924 -0.087315984 -0.034445312 0.16438992
0.017330691 -0.037155155 0.069769256 -0.10628103 -0.11500425 0.16622949 0.0989848 0.055840004
-0.17363228 -0.029649017 0.13445403 0.15665266 0.036564965 0.14661998 0.013609233 -0.034982447
-0.17740726 -0.09028196 -0.016881071 0.01584282 0.036321547 0.12473619 0.003972504 0.14333646
-0.10844431 0.16276607 0.119001456 0.06765804 0.02003534 0.021408174 -0.18963249 -0.09248769
-0.043307427 0.05419856 -0.14783083 -0.07253806 -0.18654832 0.024547538 0.083330326 -0.014047331
0.0001404804 -0.1476404 -0.20571193 -0.058299806 -0.11587874 -0.11909934 -0.02995709 -0.27605224
-0.22356713 0.067453735 -0.005545541 -0.17083314 -0.06193552 0.094043255 -0.2432468 -0.14195701
-0.2529745 -0.08751303 -0.12336798 -0.11630749 -0.19759195 -0.281175 0.06983707 0.013641711
-0.027350344 -0.07232347 0.1386908 0.072612785 0.084820256 0.01013134 -0.13213955 0.10382604
0.16782126 -0.1563064 0.037942417 -0.03493324 0.12818137 -0.034139413 -0.14564964 -0.12810385
0.124225646 -0.082574844 0.08700864 0.18486576 -0.040338505 -0.044729277 -0.15132257 0.088417605
0.1674804 -0.1477212 -0.11687387 0.058217574 -0.07547098 0.013883106 0.056501493 -0.15863405
-0.020864617 -0.050899006 -0.11857156 0.07069635

bias_hh_l1 f4 [108]
00000000: 39de 00be 56f3 10be a4b5 93bd 46dd 763c
00000010: 5b67 4abe 8c68 57bd 5686 f9bd b7ad 1b3d
00000020: bfbc c4bd 36ba 2e3d 36fe ee3c 81a1 d73c
00000030: 7a3c f0bd d71c a23c 67ee 013e 8bfa cebd
00000040: 1ff7 d4bc 6ae6 113e 1aeb d93d 0a9f f8bc
00000050: 5675 c9bc 119d 26bc fc94 963c fa45 5fbd
00000060: 7bf5 b23d 7908 5a3c d740 db3c 70f9 df3c
00000070: f4e4 ffbd 1f73 84bc 4dfa 6d3d 49da d0bd
00000080: 013d c0bc 01d2 643d 4e2f 2b3e d974 1dbc
00000090: e0e6 80be 4617 9abe 94d6 e0bc 21fe 17be
000000a0: f2ad 08be 934d 113b 7ba6 53be abb1 533c
000000b0: 2b27 15be a8f9 2abd 5c7e 49be dd64 e9bd
000000c0: ea76 fabd d44e 8abc dc01 0dbe 1593 50be
000000d0: 2504 e3bd 9858 8cbe 5028 35bd 9b7f 56bd
000000e0: 2349 763c 7206 f73c d5cc 60bc e3f4 1fbd
000000f0: cf31 fdbd f9d0 05be cf8a 54be d366 0dbe
00000100: 60b6 48be 7b05 64bd 24c9 263d ed8c a0bd
00000110: d230 ff3c d864 8dbd 22b8 0bbe 7263 e5bb
00000120: 5d94 0bbd f138 4e3d 7169 e23d 5eb0 e93d
00000130: 7887 e7bc fc27 1fbe d163 07bd d468 b6bc
00000140: 27df ff3d c455 fa3c 360e ecbd b2da 2d3e
00000150: 340d 35be a459 453c a91c 1b3d a539 a7bd
00000160: 681f c63d 7528 babd fae2 17be 1e4b c9bd
00000170: adc8 edbd d4ad 033e a7dd 1abe 7e45 e9bd
00000180: 56ec 37bd ad3f abbd a9a1 e13d 9621 c93d
00000190: 8cc0 153e 3e93 4b3d 63cc 043e 625a 2ebe
000001a0: 21d3 013e 7a74 463c a9ca fe3d ee69 78bd
-0.12584771 -0.14155325 -0.072123796 0.015067404 -0.1976599 -0.052589938 -0.12183826 0.038007464
-0.09606313 0.042658053 0.029173952 0.026322128 -0.11730285 0.019789143 0.126886 -0.10106381
-0.025996743 0.14248052 0.10640545 -0.030349273 -0.024592083 -0.0101692835 0.018381588 -0.054510094
0.08738228 0.013307684 0.026764316 0.02734062 -0.12494841 -0.016168175 0.058100034 -0.101978846
-0.023466589 0.055864338 0.16717264 -0.009610378 -0.25176144 -0.3009588 -0.027446069 -0.14843036
-0.13347605 0.0022171482 -0.20668976 0.012920777 -0.14565723 -0.041741997 -0.19677109 -0.11396191
-0.12229712 -0.016883291 -0.1377024 -0.20368607 -0.11084775 -0.27411342 -0.044227898 -0.052367788
0.015032086 0.03015444 -0.013720711 -0.0390519 -0.12363016 -0.13067998 -0.20756076 -0.13808756
-0.1960082 -0.05566929 0.040719166 -0.078393795 0.031151209 -0.06904 -0.1364446 -0.00700038
-0.034077037 0.050347272 0.110552676 0.114105925 -0.028262839 -0.15542597 -0.033054177 -0.022266783
0.12493735 0.030558474 -0.11526148 0.16977957 -0.17680818 0.012045298 0.03786913 -0.08165292
0.09673959 -0.09089748 -0.14832678 -0.098287806 -0.116105415 0.12859279 -0.15123616 -0.11390208
-0.044903122 -0.083617546 0.11017162 0.09820859 0.14624232 0.049700968 0.12968592 -0.17026666
0.12678196 0.012112731 0.12440998 -0.060647897

weight_ih_l2 f4 [108, 36]
00000000: 78ec 59be 0bbe 9b3c ef24 313e ae3a c8bd
00000010: d352 aabd 3f1c 5cbe d066 20be 8c43 5d3e
00000020: 3165 833d 1009 9ebd 115c 5fbe 1b0d 1f3d
00000030: 99ae c2bd 6cea 47be f6ca 6e3c dd6a 27bc
00000040: 0f78 613d 6ea3 663d 78c4 d43d 5e73 663e
00000050: f94b 4d3d efd5 323e 1201 1dbe b5cf dc3d
00000060: 90d1 d73d 95f6 22bd 61ca 61be acbb 1a3d
00000070: dd6a 72bd 67dd 40bd 513d cc3c c7ec 6fbd
00000080: 4235 1bbd 69e2 4abe c08a 05be 46fe bd3d
00000090: 567c 263e 38bf c7bd 7731 083e fdcd 91bc
000000a0: 93a3 01bc c580 0e3d 599a 0d3c 2099 aa3d
000000b0: 578b f7bd 4969 74bd c838 22bd 77ff 8f3d
000000c0: 48b6 83bd 64de 013e e297 083e d705 30be
000000d0: 00d3 81bd 032f 2b3e 135b 07be 46e7 f33c
000000e0: 1444 2e3d f1e0 d43d 6eca afbd 75ff b63b
000000f0: 63f9 113d ab09 b6bd 90b1 45bd 65bc 1abe
00000100: 94cb ab3c 1ed6 5ebe edcc e0bd e4d4 583d
00000110: f93c 5d3d 1982 06be 9a2f 31be d5aa 99bd
00000120: 3dc6 9bbc 7abd 3c3d 3a57 e4bd e34b 56be
00000130: 5151 723d a015 84bd 59c3 943d 31e3 2b3e
00000140: 50ef 1c3d 763c 6b3d 2ef4 a2bd 5f82 e23d
00000150: a23c 153e 57cc cfbc 0931 623e fd62 1e3e
00000160: 691c a1bd 82f9 3cbe ec2e 953e 15e3 8f3e
00000170: 124f c3bc e380 1bbe 5301 1c3e b171 39bd
00000180: e9b8 36be 1267 b43d caf5 e3bd 6ada 12be
00000190: 015d 2b3d 7f05 b0bc ab81 7b3d fade 9abc
000001a0: 4392 0cbe 9a49 f4bc 9c0e 7dbd bf52 02bd
000001b0: c9e7 9cbd 35bb 233d 2b37 1f3e 6043 1abe
000001c0: eb82 ff3d 07af 4d3d aacc 98bd a9f1 823d
000001d0: faf4 f3bc 4542 1dbe 8e4b 723c 0ef2 193e
000001e0: 43c2 57bd 1274 21bd 4db5 123e 7e70 183e
000001f0: 40ed 37bd 4c9d 0fbe 5e00 5f3e ac66 debb
00000200: 3ec7 04bc 897c b9bd 79e7 21be 9130 e83d
00000210: 3ec8 acbd fb86 a93c c6a0 29be ec62 b13d
00000220: 71f4 503d 8e14 c63d 3a9c 2ebe e678 cfbc
00000230: b566 dcbc 9e6d 703c ed87 7e3c 9efc 5c3c
00000240: f9d8 a4bd fa1e 773e cb9a cbbb a363 813d
00000250: 4270 2d3d b096 d7bd ef80 43bd a2fe 493e
00000260: fde2 373d 3d2b 113c 167a acbd 5664 e3bd
00000270: 2c45 1bbe df11 103e f50a 783d 1c5c 1a3e
00000280: 0fce 133d ae32 e03d 2e3b 543e 4800 603e
00000290: 2fb3 26bd c862 963d c96d f7bd 28ae 8d3d
000002a0: 2c81 6cbc f9e2 633e eff2 b2bc 826a 053e
000002b0: 9821 ce3d e5c1 eb3d 7058 2dbe 8c2e 0cbd
000002c0: 0bcc fd3d 2456 4cbe c4ee d43d df2c 9fbd
000002d0: b7d8 87be d61a 363e 30b7 dcbd 1cd8 00be
000002e0: f395 823c 89f3 eabd 41c7 01be 54c3 873e
000002f0: 140c 9fbc 43c1 b83d ad39 723d e9b8 183d
00000300: 66d0 033e 9db2 61bd 3c9b afbd 52fe 9fbd
00000310: ea4e d73d 682f 24be 08ca a93e a849 933e
00000320: 8ba8 5d3e 11f5 113e 387f 9abd 219c 8dbd
00000330: 5b0d dbbd 0cd9 a6bd 5c3b 2ebd 66c6 f3bc
00000340: 345d a63d 998d 103e 2e38 b33c 046d ff3d
00000350: 14ee c63c 25a4 51be f6ab 15be 776c 4b3d
00000360: 7a14 1a3d c99b dc3d 5b1f 023e c28a c1bd
00000370: 51a1 553d aca0 06bc 48b3 00be b450 863d
00000380: 5e13 35bd deb1 28be acb0 8cbd 261b d93c
00000390: 0243 04be b0d6 e9bd 9ccb c13d 682f 8f3d
000003a0: 45ee cb3d e067 26be ca07 073e c0b3 bd3d
000003b0: d29a 6a3d 6490 313e ef6c 14be 6872 013e
000003c0: e827 5dbd e03c 1dbe 7dbf ff3d fd47 bd3d
000003d0: 0374 c73c 6053 a43d ecd1 dc3c fec2 32be
000003e0: d147 ae3d c34e c03d 5576 12be 1a55 4e3e
000003f0: 7185 b8bc f0a1 353e ce14 f0bd 49be c23d
-0.21281612 0.019011518 0.17299245 -0.09776817 -0.08316579 -0.2149515 -0.1566422 0.21607798
0.06415785 -0.07716572 -0.21812464 0.038830858 -0.09505958 -0.19523019 0.014574757 -0.010218349
0.055046137 0.056308202 0.10389036 0.22504947 0.05012128 0.17464422 -0.1533244 0.107818045
0.10538018 -0.03978594 -0.22049858 0.037776634 -0.059183944 -0.047086146 0.024931582 -0.058575418
-0.037892587 -0.19812931 -0.1304121 0.092770144 0.16258368 -0.09753269 0.1330012 -0.017798418
-0.007912534 0.034790773 0.008642756 0.083299875 -0.12087124 -0.05967072 -0.039604932 0.07031148
-0.06431252 0.12682492 0.13339189 -0.17189728 -0.06339073 0.16717152 -0.13218336 0.029773366
0.042545393 0.10394467 -0.08583532 0.005584652 0.035638224 -0.08888563 -0.04826504 -0.1511093
0.020971097 -0.21761367 -0.109765865 0.052937403 0.054013226 -0.13135566 -0.17303315 -0.07503287
-0.019015426 0.046079136 -0.1114945 -0.20927386 0.05915958 -0.06449437 0.07263822 0.16785885
0.038314164 0.057430707 -0.0795673 0.110600226 0.14573911 -0.025365992 0.22089018 0.15467449
-0.07866747 -0.18454555 0.2913736 0.28102937 -0.023841415 -0.15185885 0.1523488 -0.04527444
-0.17843975 0.088087216 -0.11130865 -0.14341131 0.041836742 -0.021486996 0.061402958 -0.018905152
-0.1372767 -0.029820252 -0.06178151 -0.031817194 -0.07661397 0.039973456 0.15548389 -0.15064764
0.124761425 0.050215747 -0.074609116 0.06393749 -0.0297799 -0.15357311 0.014788521 0.15033743
-0.052675497 -0.039417334 0.14326973 0.14886662 -0.044903994 -0.14024848 0.21777484 -0.006787142
-0.008104144 -0.09056956 -0.15810956 0.11337388 -0.08436631 0.020694247 -0.16565236 0.08661446
0.051014367 0.09671889 -0.17051783 -0.025326204 -0.026904443 0.014674572 0.015535337 0.013487963
-0.08049197 0.2413291 -0.006213521 0.06317832 0.042343386 -0.10526788 -0.047730383 0.19726041
0.044894207 0.0088604065 -0.084217235 -0.11103122 -0.15163106 0.14069317 0.060557324 0.150742
0.036085185 0.109471664 0.207257 0.21875107 -0.040698227 0.0734306 -0.12081487 0.06917983
-0.014435094 0.22254552 -0.021844355 0.13028911 0.10065001 0.11511592 -0.16928267 -0.034224078
0.12392434 -0.19954735 0.103971034 -0.0777223 -0.26532528 0.17783675 -0.10777128 -0.12582439
0.015940642 -0.11472232 -0.12673666 0.2651621 -0.019414939 0.09021237 0.059137035 0.03728572
0.12872466 -0.05510198 -0.085745305 -0.078121796 0.105130985 -0.16033709 0.3316195 0.28767133
0.21646325 0.14253642 -0.07543796 -0.06914545 -0.10695907 -0.08146867 -0.04253708 -0.02975769
0.08123246 0.14116515 0.021877375 0.12471965 0.024283446 -0.20472772 -0.14616379 0.049663987
0.037617184 0.10771901 0.12707274 -0.09450294 0.052155796 -0.008217018 -0.1256839 0.06558362
-0.044207923 -0.16474101 -0.06869635 0.026502203 -0.12916186 -0.114179015 0.094626635 0.06991464
0.09957556 -0.16250563 0.13186565 0.092628 0.057276554 0.17340237 -0.1449468 0.12641299
-0.053993136 -0.15355253 0.12487695 0.09242246 0.02434731 0.08023715 0.026955567 -0.17457196
0.08509792 0.093900226 -0.14302953 0.20149651 -0.022524567 0.17737556 -0.11722718 0.0950895

weight_hh_l2 f4 [108, 36]
00000000: bd23 f7bd 5d7f c93c 36d3 efbd 8ef3 ddbb
00000010: bfd1 2a3e 0447 7fbd 0800 37be cd5c 353c
00000020: cd55 ba3d 7869 45be d7b3 febd a768 c338
00000030: e61c 93bd 8dbf 873d 93bc 50be 4605 ea3d
00000040: ab42 d73d 64d6 fe3d ac8c 16bd 29a6 bcbb
00000050: 4e57 293e 3873 b5bd a425 193e b827 a4bb
00000060: 9a46 dd3d 3a40 d2bd b7b8 6dbd 03d1 efbd
00000070: 8bb4 a33d 1c49 923d 28aa 1fbc 601d 2c3e
00000080: c157 9cbc 027d bfbd 8ccc d9bc ba81 afbd
00000090: 0df3 4f3e 5847 543e a202 b7bd 53d0 b83d
000000a0: 8247 20be c728 54bc 3aad a7bd 35eb ae3d
000000b0: ebd6 13bd 69e7 be3d c94f 2ebe b651 153c
000000c0: d3b6 b53d 1586 9bbd 0072 0c3e 0d9e f0bd
000000d0: cbc5 0cbd 9f98 193d a8b2 213e a3c7 b7bd
000000e0: 6f02 023e 5513 1dbe 53f6 513d b0da 1c3d
000000f0: 7405 253d d5df 733d 55dd cdbd 46c2 2abb
00000100: 6a90 fbbd 76e7 2dbd 4dfa d7bd 94d4 2f3e
00000110: 75d9 cc3d 007c 11be 0b8e 923d 0f9d 7abd
00000120: 456e 863d dcba c03a e260 4ebd ab76 1b3e
00000130: 3a5d 533d ce92 89bd 2269 3abd 7386 06be
00000140: 1981 ffbd e586 8ebd 5581 46be 0161 2d3d
00000150: e4c2 c93d f9de febc b7df 1a3e 8ac2 9abd
00000160: 309f d13d 9d25 073e c780 49bd e392 923d
00000170: ad38 06be f796 ba3d 56fe c43d 19b1 ff3c
00000180: af74 11be d446 d2bd f751 003e a5e3 8b3c
00000190: 36d5 8d3d 85d7 e33d 7e77 dabc ec52 c4bc
000001a0: c5ea 56bc d673 a53d 66ec ac3d 40f6 603c
000001b0: 902c e33d b9f5 89bd 8b27 be3d f84b 1c3e
000001c0: baec 29bc 18ec 0f3e 39d5 7c3b 1535 0f3d
000001d0: b086 bbbc aa30 f7bd 2e52 5bbb 3328 ed3d
000001e0: aad5 613e 987b 73bd 0fea 823d af75 b53d
000001f0: 9fb5 ff3d eba2 bdbd 03c3 44be 3be3 bfbd
00000200: ff2f 11be b5ec f43d 50b3 263e 2db3 9e3c
00000210: cb9c d93c a91c 0dbe 6473 213e f4b6 cdbc
00000220: b26f 833d a78c 81bd 0b4a 9a3d c80f 0e3e
00000230: e064 973d 3d0e 57bd 1102 9cbd ebb0 fa3d
00000240: 0a87 10bd 2f42 1a3c 2f1e e53d b2d7 283e
00000250: add6 8ebc 0b11 813d 1698 d0bd 0cb3 963d
00000260: 04fb a23d 982a 38be 14c0 d3bc b95b 3c3e
00000270: 494b 1abc 0678 9f3d e5b9 be3b eff7 07be
00000280: 3482 13be 823b 8e3d ba91 8c3d b567 d33c
00000290: 273e bdbc 55ac e13d 6ad1 c3bd 3a68 cd3d
000002a0: 0310 00be f506 c03c b9ad 93bc 839e f63d
000002b0: 351d 983d 4e42 1a3e 4baf cc3d 4103 f0bb
000002c0: fea5 903c 93cb 4cbc 2e3d 2dbd 5b95 553e
000002d0: f3b5 123e 1b9e d63d 6aaf a1bd a4d2 9abd
000002e0: 6419 b13d 455d 9cbd d7f4 993d 281c 00be
000002f0: a59b 023d d162 c13d 4bb5 c53c 9281 cdbd
00000300: c801 2fbe 066a cabc 35a4 703d a5e7 06be
00000310: 27d9 083e c35f 083e 313c dcbc 0deb 0f3e
00000320: 0c66 3fbd dcd4 90bd 57d9 c9bd 8215 01be
00000330: a1fc 9fbd 3254 70be 6b84 183c 9575 0f3e
00000340: 51c3 473c 3104 fcbd 3b43 0e3e 0471 5ebd
00000350: aab5 27bc 747d 9bbd 683e 4f3e ef5c 1c3e
00000360: c434 e6b7 22fc e6bd fed7 a1bd b97c e7bb
00000370: 3555 0f3e dec1 19be bc5e a7bd bbd6 84bb
00000380: 112d 07bd 3be5 653d 0721 f83d 14fb d43d
00000390: 0612 363e cdb7 c43d 2d60 9f3c c2c4 a9bd
000003a0: 02e8 1f3e bfdd 7b3d 2304 ff3c 6eec 5abd
000003b0: 2e7d 973c b576 fd3d 5f5f 69bd 7100 edbd
000003c0: 1b09 0dbe 639b a0bd 67cc 7abd 46ec cc3d
000003d0: 50fc 30bc a89f abbd 72c8 17bd 3ebc 023e
000003e0: a8b9 b53d 0800 0a3e cdbc ad3d bda3 b5bd
000003f0: 57c9 d2bd a891 113d 0eb1 eb3d e97f e5bc
-0.120673634 0.024596864 -0.11710207 -0.0067734187 0.16681574 -0.062323585 -0.17871106 0.011069489
0.090983965 -0.19278514 -0.124366455 9.3178176e-05 -0.07183246 0.06628332 -0.20384435 0.11426787
0.10510763 0.124432355 -0.03675525 -0.0057571125 0.1653721 -0.08859867 0.14955765 -0.0050096177
0.10804482 -0.102661565 -0.058037486 -0.11709788 0.0799342 0.07142851 -0.009745158 0.1680808
-0.019084813 -0.09350015 -0.026586793 -0.08569665 0.2030756 0.2073034 -0.08936049 0.0902411
-0.15652278 -0.012949175 -0.08187337 0.08540956 -0.036093634 0.09321482 -0.17022623 0.00911372
0.088727616 -0.075939335 0.13715363 -0.11748896 -0.034368318 0.037499066 0.15790808 -0.089736246
0.12696241 -0.15339406 0.051260304 0.038294494 0.040288404 0.059539635 -0.10051981 -0.0026055737
-0.12283404 -0.042457066 -0.10545788 0.17170936 0.10002414 -0.14207458 0.07155999 -0.06118494
0.06564001 0.0014704126 -0.050385363 0.15181987 0.05160258 -0.06717454 -0.04551042 -0.13137226
-0.12475795 -0.06959323 -0.19385274 0.04232884 0.098516256 -0.031112181 0.15124403 -0.07556637
0.10235441 0.13197942 -0.049195077 0.07156923 -0.13107558 0.091108255 0.09618823 0.031212376
-0.14204668 -0.10267416 0.12531267 0.017076323 0.069254324 0.111250915 -0.026668306 -0.023965321
-0.013117497 0.080787346 0.08443527 0.013730586 0.11092484 -0.06736321 0.09284886 0.15263355
-0.010371381 0.14054906 0.003857924 0.034962732 -0.022891372 -0.12069829 -0.003346573 0.11579933
0.22054163 -0.05944404 0.063922994 0.08860337 0.12485813 -0.0925959 -0.19215016 -0.09369513
-0.14178465 0.11959211 0.1627934 0.019372547 0.026564023 -0.13780464 0.15766674 -0.025111653
0.064177886 -0.063256554 0.07533654 0.13873208 0.07392287 -0.052503813 -0.07617582 0.12240776
-0.035285033 0.009415193 0.11187398 0.16488531 -0.01743635 0.06302079 -0.10185258 0.07358369
0.07958034 -0.17984998 -0.025848426 0.18394364 -0.009417363 0.077865645 0.0058205 -0.13278173
-0.14405137 0.06944944 0.06863733 0.025806287 -0.023100926 0.11019198 -0.09561427 0.10029645
-0.12506108 0.023440817 -0.018027173 0.120419525 0.07427446 0.15064356 0.09994372 -0.0073246066
0.017657276 -0.012499708 -0.042294674 0.20857756 0.1432722 0.10479375 -0.07894786 -0.07559708
0.08647421 -0.07634977 0.075174026 -0.12510741 0.031886715 0.09442676 0.024134299 -0.10034479
-0.17090523 -0.024708759 0.05875035 -0.13174303 0.13364087 0.1331778 -0.02688417 0.14054509
-0.04672818 -0.0707185 -0.098559074 -0.12605861 -0.07811857 -0.23469618 0.009308915 0.14009698
0.012192563 -0.12305487 0.13892834 -0.054307 -0.010236183 -0.07592288 0.2023865 0.15269826
-2.7442708e-05 -0.11278559 -0.07902525 -0.0070644286 0.13997348 -0.1501536 -0.08172366 -0.004053918
-0.033001963 0.056126814 0.121156745 0.10399452 0.17780313 0.0960537 0.01945504 -0.08289482
0.15615848 0.06149077 0.031129902 -0.053448133 0.018492308 0.12376157 -0.05697572 -0.1157235
-0.13773005 -0.07842138 -0.06123009 0.10006003 -0.0108023435 -0.083800614 -0.037056394 0.12767121
0.08873302 0.13476574 0.084832765 -0.08869121 -0.10292309 0.0355393 0.1150838 -0.028015094
