KNet/KNet_TSP/KNet/model/decimation/model_VanillaRNN_fully_agnostic.pt (torch, 96559 bytes, 19 tensors)

weight_ih_l0 f4 [108, 18]
0	0xbbd9981a	-0.0066404464
1	0xbe31a470	-0.17347884
2	0xbdf98142	-0.12182857
3	0x3d0d2944	0.034463182
4	0xbc37c66e	-0.011216743
5	0x3daf1acd	0.08550034
6	0x3bd46918	0.0064822547
7	0xbd8729c1	-0.06599761
8	0x3dd4b5bf	0.10386228
9	0x3c94c108	0.01815845
10	0xbc1c8b3f	-0.009554683
11	0xbc9dc1b0	-0.019257396
12	0x3d6cb155	0.057786305
13	0xbe021ca5	-0.1270624
14	0x3e37c8af	0.17947648
15	0x3e3b68f2	0.18301752
16	0x3e2c11e9	0.16803707
17	0x3e422189	0.18958105
18	0x3e3e1832	0.18563917
19	0x3e11db76	0.14243874
20	0xbbc170b8	-0.0059033297
21	0x3b905fcb	0.0044059507
22	0x3d6d6644	0.057958856
23	0xbda32860	-0.07966685
24	0x3d9b5835	0.075851835
25	0x3e796930	0.24356532
26	0x3dcb8850	0.09938109
27	0x3c9fe7d8	0.019519731
28	0xbd6c69cc	-0.057718083
29	0xbd377167	-0.044785883
30	0x3e27c360	0.16383123
31	0x3e133bf4	0.14378339
32	0xbdd66662	-0.10468747
33	0x3c8921e5	0.016739795
34	0x3e1db53b	0.15401165
35	0x3e328a5e	0.17435595
36	0xbdbdb1c1	-0.092624195
37	0x3dcfce7d	0.101468064
38	0xbd7113e5	-0.058856864
39	0x3c201a11	0.00977184
40	0x3dd99fe8	0.10626203
41	0x3dbe8476	0.09302609
42	0x3d457906	0.04821112
43	0x3d68075f	0.056647655
44	0xbe283131	-0.16425015
45	0xbda7f3dc	-0.08200809
46	0xbdf9b1a6	-0.12192087
47	0xbd640318	-0.055667013
48	0xbdbce309	-0.09222991
49	0xbdd6a605	-0.104808845
50	0xbe030cf7	-0.12797914
51	0xbd3f121e	-0.046648137
52	0xbdd66382	-0.10468198
53	0x3d823345	0.06357435
54	0x3b267d12	0.0025404138
55	0xbde26ebf	-0.110562794
56	0x3ded8c97	0.11599081
57	0x3c423d77	0.011855475
58	0x3e0e349f	0.13887261
59	0xbdf339c0	-0.11876249
60	0xbe277cfa	-0.16356269
61	0x3dd8f118	0.1059286
62	0xbd2cc742	-0.042182215
63	0xbdbca0e4	-0.09210375
64	0xbc1ad6de	-0.009450642
65	0x3df2da97	0.11858099
66	0xbddf7f44	-0.10912946
67	0xbe0d944b	-0.138261
68	0x3e270bf1	0.16313149
69	0x3d8da84d	0.069168665
70	0x3c7d6668	0.01546631
71	0x3e27485a	0.16336194
72	0x3dfe6682	0.124218956
73	0xbd8a3eeb	-0.06750282
74	0x3cac88a7	0.021061255
75	0xbd2adf08	-0.041716605
76	0xbd90fc68	-0.07079393
77	0x3e1b8231	0.15186383
78	0x3d9613d3	0.07328
79	0x3d11e6e2	0.035620578
80	0x3ae51d5e	0.0017480066
81	0x3d9076d8	0.07053918
82	0x3d37574e	0.044760995
83	0x3e5771b9	0.21039476
84	0x3e1249a5	0.14285906
85	0x3c95dcce	0.018293764
86	0x3e20b6c7	0.15694724
87	0x3e396272	0.1810396
88	0x3d926146	0.0714746
89	0xbde3793b	-0.11107107
90	0x3c9ec7d5	0.019382397
91	0x3e2d3f07	0.16918574
92	0x3d3f6ac6	0.046732686
93	0xbd0c0175	-0.034181077
94	0xbdd73a0f	-0.10509121
95	0x3d5aa010	0.053375304
96	0x3e46d3b3	0.19416694
97	0xbdc93ebe	-0.0982642
98	0xbdb9b244	-0.090672046
99	0x3db31366	0.08743934
100	0x3de0da37	0.10979121
101	0x3e235931	0.15951993
102	0x3e014b2d	0.12626334
103	0xbd4becf6	-0.04978653
104	0x3e47a26e	0.19495556
105	0x3d5a7052	0.053329773
106	0x3df537a8	0.11973506
107	0xbca70117	-0.020386262
108	0xbd1cd163	-0.038285624
109	0xbd8d721c	-0.0690653
110	0xbdd770bb	-0.105195485
111	0xbc372703	-0.011178735
112	0x394f01ef	0.00019741779
113	0xbd802ce4	-0.06258562
114	0xbdd12fc7	-0.10214191
115	0xbdbf235c	-0.09332916
116	0x3cd7f3bc	0.026361339
117	0x3dca4a0c	0.098774046
118	0x3dd27194	0.102755696
119	0x3e00771a	0.12545434
120	0x3c9fdbca	0.019513983
121	0xbe33bc48	-0.17552292
122	0x3d8d3fd6	0.06896941
123	0xbdcfaad6	-0.10140006
124	0xbd3ba169	-0.04580823
125	0x3d024918	0.03180799
126	0x3dbbc74f	0.091688745
127	0xbd523c48	-0.05132702
128	0x3e0f3cb4	0.13988
129	0x3e623522	0.22090581
130	0x3db15008	0.08657843
131	0x3d854637	0.06507533
132	0x3d7c0a9f	0.061533567
133	0x3d88da34	0.06682244
134	0x3e58138f	0.21101211
135	0x3e28e15c	0.16492218
136	0xbdbe4d55	-0.09292094
137	0x3dde0738	0.108412206
138	0xbd8ab1f8	-0.06772226
139	0x3e515788	0.20443547
140	0x3cae73b0	0.021295398
141	0x3e6b5425	0.22981317
142	0x3e5bbb36	0.21458134
143	0xbcb43c93	-0.02200154
144	0x3dd971e7	0.10617428
145	0x3e74a931	0.23892666
146	0x3e3701a9	0.17871727
147	0xbd71c724	-0.059027806
148	0x3e1fc53b	0.15602581
149	0x3de17cf8	0.11010164
150	0x3dc884f6	0.09790985
151	0xbcb05997	-0.021527095
152	0x3a754b70	0.00093572494
153	0x3e06ab95	0.13151391
154	0xbcc59bb5	-0.024122098
155	0x3e82d16e	0.25550407
156	0x3d42466a	0.047430433
157	0x3e4aa5ee	0.1978986
158	0x3cdb9e50	0.026808888
159	0x3e6d2d41	0.23161794
160	0x3e6e51d8	0.23273408
161	0x3d7e14ec	0.06203167
162	0x3e30ea72	0.17276934
163	0x3d795485	0.06087162
164	0x3df7410b	0.12072953
165	0x3d6752f7	0.056475606
166	0x3e2e3c32	0.1701515
167	0xbcd5611c	-0.026047282
168	0x3e56f5f6	0.20992264
169	0x3daf0556	0.085459396
170	0x3c8ea4a7	0.017412497
171	0x3d308ec8	0.043104917
172	0x3e4407cd	0.19143601
173	0xbd02c9f3	-0.031930875
174	0x3dd007cb	0.101577364
175	0x3e1ae172	0.15125063
176	0xbd12cb0d	-0.035838176
177	0x3e6cf552	0.23140457
178	0x3e840d41	0.25791362
179	0xbd5ef221	-0.05443013
180	0x3d3a5a60	0.045496345
181	0x3e1e044c	0.15431327
182	0x3e235be6	0.15953025
183	0x3e290d58	0.16508996
184	0x3ce8940b	0.028390905
185	0x3e25d005	0.16192634
186	0x3e5ec780	0.2175579
187	0x3da67e90	0.08129609
188	0x3dafdd08	0.0858708
189	0x3c2a0d78	0.010379188
190	0x3da85f3b	0.08221289
191	0x3d8a7d80	0.067622185
192	0xbdb57681	-0.088604935
193	0x3ba4b928	0.005026955
194	0xbda2bd3d	-0.079462506
195	0x3de6a27e	0.11261462
196	0x3e371471	0.17878892
197	0xbd6c9e68	-0.057768255
198	0x3dba562b	0.090984665
199	0x3db7385e	0.08946298
200	0x3e793f67	0.24340592
201	0x3e633365	0.22187574
202	0x3e6a4092	0.22876194
203	0x3e3b49c2	0.18289855
204	0xbd9e6635	-0.07734338
205	0x3d12cd21	0.035840157
206	0x3e4e0760	0.20120001
207	0x3d4e4ee0	0.05036819
208	0x3e294e69	0.16533817
209	0x3e659cfd	0.22423168
210	0x3cd84a79	0.026402699
211	0x3c52c402	0.012864115
212	0x3d8c26f0	0.06843364
213	0x3d94af87	0.07260042
214	0xbd5269cd	-0.05137043
215	0x3e521fb6	0.2051991
216	0x3ccdaafa	0.025105942
217	0x3dab6b48	0.08370072
218	0xbdf57659	-0.11985464
219	0xbe613b54	-0.21995288
220	0xbbfa418b	-0.007637208
221	0x3d4e1033	0.050308418
222	0xbe7403cc	-0.23829573
223	0xbdf5b02d	-0.119964935
224	0x3daac68b	0.0833865
225	0x3d3dd94a	0.0463498
226	0xbe38d00a	-0.1804811
227	0x3bc6ece2	0.006070719
228	0x3cfd9aa1	0.030957522
229	0x3e14701b	0.1449589
230	0xbe2dcf7e	-0.16973683
231	0x3bf933d0	0.0076050535
232	0xbe4bcd5e	-0.1990256
233	0xbd064a59	-0.032785747
234	0x3b36e7cd	0.002790916
235	0xbddadd95	-0.10686795
236	0x3d00aaec	0.031413004
237	0xbe2dc622	-0.16970113
238	0xbd1c0da1	-0.038098935
239	0xbdc47cbd	-0.095941044
240	0xbd7dff15	-0.062010843
241	0xbe5e02fd	-0.21680827
242	0xbd9c5bac	-0.076346725
243	0x3d95b121	0.07309175
244	0xbd6a71c0	-0.057237387
245	0xbe12c8d2	-0.1433442
246	0xbdbac5eb	-0.09119781
247	0x3d724dcb	0.05915622
248	0x3dc5e8cd	0.09663544
249	0xbe3a850b	-0.18214814
250	0xbe3cc7cc	-0.18435591
251	0x3c34c010	0.011032119
252	0xbcb9751d	-0.022638852
253	0xbd44b1b4	-0.048021033
254	0x3e69fbfa	0.22850028
255	0x3af783ce	0.0018883885

weight_hh_l0 f4 [108, 36]
0	0xbde6af86	-0.11263947
1	0x3b4e1ed3	0.0031451478
2	0xbe13a981	-0.1442013
3	0xbe2d3496	-0.16914591
4	0xbe06454c	-0.13112372
5	0xbe2f2378	-0.17103374
6	0xbda16e4f	-0.07882368
7	0x3e485006	0.19561777
8	0x3d046e2f	0.03233164
9	0x3e3c366b	0.18380134
10	0x3cd4f633	0.025996303
11	0xbe0905bd	-0.13381095
12	0x3e126d57	0.14299522
13	0x3dd477ca	0.103744105
14	0x3e460573	0.19338016
15	0xbe03d3f3	-0.12873821
16	0x3ab9fd73	0.0014189914
17	0xbbbbd87b	-0.0057325936
18	0xbdc88258	-0.09790486
19	0xbdc84824	-0.09779385
20	0x3e39178f	0.18075393
21	0xbc152dc4	-0.00910515
22	0x3dad26b9	0.084546514
23	0xbe35ea6e	-0.17765209
24	0xbd0cc8d9	-0.03437123
25	0xbdf25aea	-0.11833747
26	0x3e19dfa9	0.15026726
27	0x3cc4d47b	0.0240271
28	0x3d310bf2	0.043224283
29	0x3e620d21	0.22075321
30	0xbe6ea8d9	-0.23306598
31	0x3e92c91b	0.28669056
32	0x3cd7cbb3	0.026342249
33	0x3c465d85	0.012107258
34	0xbdc379dc	-0.09544727
35	0xbcd1500d	-0.025550866
36	0x3d3da94a	0.046304025
37	0x3d5ae7b6	0.053443633
38	0xbd28d1ac	-0.041215584
39	0xbce89456	-0.028391045
40	0xbd10b9ef	-0.03533357
41	0xbdeb5a5a	-0.114918426
42	0x3bc5191e	0.006014957
43	0xbde06485	-0.109566726
44	0x3c4e66b3	0.012597728
45	0x3e48c339	0.19605722
46	0xbd0a663e	-0.033788912
47	0xbe685dde	-0.22692057
48	0x3bd8eaf5	0.006619806
49	0xbb24f672	-0.0025171307
50	0x3e7025f0	0.23451972
51	0x3e44f768	0.19235003
52	0xbd535c9a	-0.051601984
53	0x3c34057c	0.010987636
54	0x3d2b3ae2	0.041804202
55	0xbd66e9dd	-0.056375373
56	0xbe57d47f	-0.21077155
57	0xbd06b78d	-0.03288989
58	0xbe0e9c95	-0.13926919
59	0x3d370afc	0.04468821
60	0xbe5ebd22	-0.21751836
61	0xbe5e0954	-0.21683246
62	0x3e60ef3f	0.21966265
63	0x3e38b44e	0.18037531
64	0x3e09f9b7	0.13474165
65	0x3e161ace	0.14658663
66	0xbe6dbd94	-0.2321685
67	0x3ca46f01	0.020072462
68	0x3e736ea1	0.2377267
69	0xbdfefdb6	-0.12450735
70	0xbc903c8f	-0.017607002
71	0xbe1875ac	-0.14888638
72	0x3d043ba6	0.032283448
73	0xbc76fcd9	-0.015074932
74	0x3dbcf2e4	0.09226015
75	0xbd0613ee	-0.03273385
76	0x3d6f5f9f	0.0584408
77	0x3ded5291	0.11588014
78	0x3e3641c6	0.17798528
79	0x3c0d4eb3	0.00862472
80	0xbe4b61d5	-0.19861539
81	0xbe3741cb	-0.17896192
82	0x3e31c96b	0.17361991
83	0x3e1f40c1	0.15552045
84	0x3dcf2211	0.101139195
85	0x3e2f4e24	0.17119652
86	0xbdc6f12b	-0.09713968
87	0xbe1f507b	-0.15558045
88	0x3daee5d4	0.0853993
89	0xbd7bbcc4	-0.061459318
90	0xbd5a34be	-0.053272955
91	0xbd05e18a	-0.032685794
92	0x3d5ba6a7	0.05362573
93	0xbde2a3e8	-0.11066419
94	0x3d2d0dac	0.042249367
95	0x3d419849	0.04726437
96	0x3e23434b	0.15943639
97	0x3e2e8aa3	0.17045073
98	0xbe4c9dde	-0.19982097
99	0x3cdeadf8	0.027182564
100	0x3dadd674	0.08488169
101	0x3becca57	0.007226269
102	0xbc1a6572	-0.0094236005
103	0xbdfc0278	-0.123051584
104	0x3ba417fe	0.005007743
105	0x3e39b756	0.18136343
106	0x3d37fa01	0.044916157
107	0xbc84d775	-0.01621602
108	0xbd182f52	-0.037154503
109	0x3e3b0321	0.18262912
110	0x3db93c84	0.090447456
111	0x3ded0230	0.11572683
112	0x3d4fcccc	0.05073242
113	0x3da7755e	0.08176683
114	0xbda3062c	-0.079601616
115	0x3e3a8300	0.18214035
116	0x3dc8e0c2	0.09808494
117	0xbdb3b484	-0.08774665
118	0xbd3d5863	-0.04622687
119	0x3db3b1b6	0.0877413
120	0xbd26ea2d	-0.04075067
121	0x3e233c08	0.15940869
122	0x3ddb33e5	0.107032575
123	0x3d5c5ce6	0.053799532
124	0xbda17219	-0.078830905
125	0x3d811247	0.06302314
126	0x3cb7ce8e	0.02243736
127	0x3d54a174	0.051911786
128	0xbc66e583	-0.014092806
129	0xbdc0b15c	-0.094088286
130	0xbdc1d511	-0.09464467
131	0x3df4f141	0.11960078
132	0xbde4da62	-0.11174466
133	0xbe1ca470	-0.15297103
134	0x3d657c26	0.0560266
135	0x3e2a7cef	0.16649221
136	0x3c1a1389	0.009404072
137	0x3dcd1f56	0.100157425
138	0xbd523580	-0.051320553
139	0xbca65c9a	-0.020307828
140	0xbe122b87	-0.14274417
141	0x3ce7edc1	0.028311612
142	0xbb73577c	-0.0037131002
143	0x3dd4115e	0.10354875
144	0xbd3ae6fd	-0.045630444
145	0x3d822dec	0.06356415
146	0x3d017876	0.03160902
147	0x3dd36b24	0.1032317
148	0x3d352d62	0.044232734
149	0xbcdc568a	-0.026896734
150	0x3db25fd5	0.08709685
151	0x3c6f97a8	0.01462356
152	0xbcc4cb7a	-0.024022806
153	0xbd0921d9	-0.033479545
154	0xbd57b51c	-0.052662954
155	0xbce5fc88	-0.028074518
156	0x3cbb0c1d	0.022832925
157	0xbe33a197	-0.1754211
158	0x3e1face2	0.15593293
159	0x3daa4a40	0.08314943
160	0xbe427530	-0.18990016
161	0x3e21de5d	0.15807481
162	0xbdbcb579	-0.09214301
163	0x3e28b93f	0.16476916
164	0xbd3ac345	-0.04559638
165	0xbda59e2a	-0.08086808
166	0xbc8dbe75	-0.017302731
167	0xbd0aec93	-0.03391702
168	0xbdde5e77	-0.108578615
169	0xbe3468ef	-0.17618154
170	0x3d0343e9	0.032047186
171	0x3b733e45	0.0037115973
172	0xbdd57e9a	-0.10424538
173	0x3e576c6e	0.21037456
174	0xbd43d7f4	-0.04781337
175	0xbc1559c8	-0.009115644
176	0xbd5ed185	-0.054399032
177	0x3dc11a4f	0.09428846
178	0xbe391007	-0.1807252
179	0x3dd86f17	0.10568064
180	0x3d96044d	0.07325039
181	0xbdcda1b9	-0.10040612
182	0xbe042d6b	-0.1290795
183	0x3dd4854d	0.103769876
184	0xbddef3c4	-0.10886338
185	0xbda60327	-0.0810607
186	0x3dd8a34f	0.10578024
187	0xbe386b57	-0.18009697
188	0x3e431948	0.19052613
189	0x3e637433	0.22212295
190	0xbe4310b2	-0.19049338
191	0xbda6343b	-0.08115431
192	0xbd90ead0	-0.07076037
193	0xbe451672	-0.19246843
194	0xbbc90812	-0.0061349953
195	0xbd61f97c	-0.055169567
196	0xbe38e28c	-0.18055171
197	0xbda4ac65	-0.08040694
198	0x3dcb0692	0.099133626
199	0x3e174954	0.14774066
200	0x3da71030	0.081573844
201	0x3e5cf40a	0.21577469
202	0x3da5416b	0.08069118
203	0xbe4bc1f3	-0.19898205
204	0xbdd1efe2	-0.10250832
205	0x3d0e9bc2	0.03481651
206	0xbc9625cb	-0.018328568
207	0x3bf3991a	0.0074340226
208	0xbdc97f0f	-0.09838688
209	0x3d3bbd2c	0.045834705
210	0x3d960553	0.07325234
211	0xbdf13697	-0.1177799
212	0x3dbfec04	0.09371188
213	0xbdcbaebf	-0.099454395
214	0x3b56f7a1	0.0032801407
215	0x3d05f25e	0.032701842
216	0x3e418386	0.18897828
217	0x3e052cde	0.13005397
218	0x3dc0c6e4	0.094129354
219	0xbd984c63	-0.074364446
220	0x3dddf165	0.10837058
221	0x3d991401	0.074745186
222	0xbc8d5317	-0.017251534
223	0x3c12faf6	0.008970967
224	0xbd0ab75a	-0.033866264
225	0xbd637314	-0.05552967
226	0xbddd9a25	-0.10820416
227	0xbd5696a7	-0.052389767
228	0x3df36229	0.11883957
229	0xbe1eb0ef	-0.15497182
230	0xbe003d33	-0.12523346
231	0xbb1d7d1f	-0.0024030877
232	0x3dbfc6bf	0.0936408
233	0xbd825e83	-0.06365683
234	0x3b34cbb9	0.0027587248
235	0x3e01b4ba	0.12666598
236	0x3d47b412	0.048755713
237	0x3e3fed05	0.1874276
238	0xbdccdf63	-0.10003545
239	0xbe163fb4	-0.14672738
240	0x3e16911c	0.14703792
241	0xbd3f7077	-0.046738114
242	0x3d2b2ac6	0.04178884
243	0xbd7b9244	-0.061418787
244	0x3e1fb395	0.15595849
245	0xbdcebed0	-0.10094988
246	0xbdb96ef6	-0.09054367
247	0xbdabb13b	-0.083834134
248	0x3c8de440	0.017320752
249	0xbdf6ceb5	-0.12051145
250	0xbd365050	-0.044510186
251	0x3b2e9797	0.0026640648
252	0x3c50745e	0.012723057
253	0x3dd31ff5	0.1030883
254	0x3ccf9db5	0.025343755
255	0xbdc84a91	-0.097798474

bias_ih_l0 f4 [108]
0	0xbdeea56b	-0.11652645
1	0x3d225bda	0.039638378
2	0xbe57e336	-0.21082768
3	0x3d2c3d3f	0.042050596
4	0x3e47abab	0.1949908
5	0x3e50c6dd	0.2038836
6	0x3c1682fa	0.009186501
7	0x3e0268b8	0.1273526
8	0x3d39459a	0.045232393
9	0x3e3708c6	0.1787444
10	0x3d005173	0.031327676
11	0xbd772288	-0.060335666
12	0xbd4021d1	-0.04690725
13	0xbd9a3fd1	-0.07531703
14	0x3cc45a4b	0.023968836
15	0xbe56daeb	-0.20981948
16	0xbd56d001	-0.05244446
17	0xbd4cc277	-0.049990144
18	0x3dc721de	0.097232565
19	0x3cda4fe2	0.02664942
20	0xbe0d3f05	-0.13793571
21	0x3dea683d	0.11445663
22	0xbdb91974	-0.09038058
23	0xbe64e292	-0.22352055
24	0x3e7e89bc	0.24857229
25	0x3da73961	0.08165241
26	0xbba80968	-0.0051280744
27	0xbd23f35f	-0.04002702
28	0x3c6e5c97	0.014548442
29	0xbbe5c17d	-0.007011591
30	0x3c941408	0.018075958
31	0xbd8b7010	-0.068084836
32	0xbdda13bc	-0.10648295
33	0xbe263085	-0.16229446
34	0x3deb0817	0.114761524
35	0x3de76f9c	0.11300585
36	0xbe122188	-0.14270604
37	0xbe28d633	-0.1648796
38	0xbe6fe8ed	-0.23428698
39	0xbd818962	-0.06325032
40	0x3e466e13	0.19377927
41	0xbe326564	-0.1742149
42	0x3dd34d9e	0.10317539
43	0xbe10b201	-0.14130403
44	0x3cdd3fb7	0.02700792
45	0xbe47a95f	-0.19498204
46	0xbe14a340	-0.145154
47	0xbde0f665	-0.10984496
48	0xbe0c4f1c	-0.13702053
49	0xbd856727	-0.065138154
50	0xbd9cc5be	-0.07654904
51	0xbe7a9ce4	-0.24473912
52	0xbe7ec3e7	-0.24879418
53	0xbe4acfd4	-0.19805843
54	0x3e1830b7	0.14862333
55	0x3d50fe3d	0.05102371
56	0xbcc5bede	-0.024138864
57	0xbdbe872d	-0.093031265
58	0x3c5c1ba5	0.013434325
59	0xbd2ecbfe	-0.04267501
60	0x3cf1e955	0.029530207
61	0xbe87e65c	-0.26542938
62	0xbe282eaa	-0.16424051
63	0xbdf4ad43	-0.119471096
64	0xbe616730	-0.22012019
65	0xbd103514	-0.03520687
66	0xbc8afca9	-0.01696618
67	0xbe110ddf	-0.14165448
68	0x3e0b7a0c	0.13620776
69	0x3d5479dd	0.05187403
70	0x3dc7f655	0.09763781
71	0x3e15ab86	0.14616212
72	0xbdd17395	-0.10227124
73	0x3e1471f6	0.14496598
74	0x3d09b2af	0.03361767
75	0xbe5fec3c	-0.2186746
76	0xbde3805a	-0.111084655
77	0xbe2c0412	-0.16798428
78	0xbe0e92da	-0.13923207
79	0xbd89a209	-0.06720359
80	0x3e60cfc8	0.21954262
81	0x3df9ae62	0.12191464
82	0xbe66eff4	-0.22552472
83	0xbe6b00a2	-0.2294946
84	0x3ddfe92c	0.10933146
85	0x3d5c9935	0.053857047
86	0x3e4d2ffc	0.20037836
87	0x3e35e93a	0.1776475
88	0xbe2ec922	-0.17068914
89	0x3de1ba72	0.1102189
90	0x3dd400b2	0.10351695
91	0xbd3d0ebc	-0.04615663
92	0xbcd8b0cd	-0.026451493
93	0x3d4ff365	0.05076923
94	0xbe81bb8d	-0.25338402
95	0xbde28028	-0.110596
96	0x3c08f0d7	0.008358202
97	0xbd90740a	-0.07053383
98	0xbd053be8	-0.032527834
99	0x3e4ba556	0.1988729
100	0x3dd3c0e6	0.10339527
101	0x3dc9d3fa	0.098548844
102	0xbe0fd1dc	-0.14044899
103	0xbd85f37a	-0.0654058
104	0xbded17a7	-0.11576777
105	0xbe856094	-0.26050246
106	0xbdb7806e	-0.08960043
107	0xbc6d83a1	-0.014496715

bias_hh_l0 f4 [108]
0	0x3d910247	0.070805125
1	0x3d2cb9c2	0.04216934
2	0x3ded4830	0.11586034
3	0x3ddec0d1	0.108766206
4	0x3c8a62c9	0.016892808
5	0x3d9f45d5	0.07776991
6	0x3d8da325	0.06915883
7	0x3dc151ac	0.09439406
8	0x3dfe67d1	0.12422145
9	0x3d01ea0c	0.031717345
10	0xbdcb4031	-0.09924353
11	0xbd15121d	-0.036394227
12	0x3b084bbf	0.0020797101
13	0xbdaab799	-0.083358
14	0x3dede368	0.1161564
15	0xbdcbbdd2	-0.09948315
16	0x3c07bf68	0.008285381
17	0xbdb92a27	-0.09041243
18	0xbd8f084a	-0.06984003
19	0x3dcd388d	0.10020552
20	0xbc884489	-0.016634243
21	0xbd389922	-0.045067914
22	0x3caa9500	0.020823002
23	0x3c9d7ccb	0.019224545
24	0xbc6d5d72	-0.014487611
25	0xbdc91c38	-0.098198354
26	0x3d869efc	0.065732926
27	0x3e380ac9	0.17972864
28	0x3d5e6638	0.054296702
29	0xbdf10f66	-0.11770515
30	0xbe2f6005	-0.17126472
31	0x3e3789d3	0.1792367
32	0xbd9ff06a	-0.07809527
33	0xbcee2c6b	-0.029073915
34	0x3d68a3db	0.05679689
35	0xbdb27b19	-0.08714885
36	0x3cce7ffc	0.025207512
37	0xbde73db6	-0.11291067
38	0xbdb12347	-0.08649307
39	0xbe959016	-0.2921149
40	0xbcef94a7	-0.029245688
41	0x3cd47758	0.025935814
42	0x3e067806	0.13131723
43	0x3d92c29b	0.07166024
44	0xbe6d7943	-0.23190789
45	0xbe30a617	-0.17250858
46	0xbe09a8e5	-0.13443334
47	0x3db6b1ae	0.089206085
48	0xbe1c5253	-0.15265779
49	0x3d84d29f	0.06485485
50	0x3d55587c	0.05208634
51	0xbe82a864	-0.25519097
52	0xbb8d89a4	-0.0043193866
53	0xbd96dbb2	-0.07366122
54	0x3e4cd710	0.20003915
55	0x3dd84966	0.10560875
56	0x3bb0f0d0	0.005399801
57	0x3cc9ef06	0.024650108
58	0xb9530031	-0.000201226
59	0x3d91e96b	0.07124599
60	0xbdca5e59	-0.09881277
61	0x3c8bd390	0.017068654
62	0xbe5ed7ca	-0.21762004
63	0xbd88640d	-0.06659708
64	0xbdf4b310	-0.11948216
65	0x3cf971b3	0.030449724
66	0xbe1c7b15	-0.15281327
67	0xbe52b287	-0.20575915
68	0xbda8522b	-0.08218797
69	0xbe29e88c	-0.16592616
70	0xbd7af802	-0.061271675
71	0xbe030919	-0.12796439
72	0xbe0483d9	-0.12940921
73	0x3e624665	0.22097166
74	0xbdc3ef4a	-0.09567125
75	0xbd16470f	-0.03668886
76	0xbdd5e7d5	-0.10444609
77	0xbdd539d1	-0.10411418
78	0xbe70c973	-0.23514347
79	0x3e234032	0.15942457
80	0x3e7c09da	0.24613133
81	0x3d6e30b7	0.058151927
82	0x3c37504c	0.011188578
83	0x3c92b7ee	0.01790997
84	0x3ddc5952	0.10759224
85	0x3d307973	0.043084573
86	0x3e13e480	0.14442635
87	0x3e1cce58	0.15313089
88	0xbe30839e	-0.17237708
89	0x3e2ef045	0.17083843
90	0x3d036eeb	0.0320882
91	0xbccb063f	-0.024783252
92	0x3e2ae139	0.16687478
93	0x3e51084d	0.20413323
94	0xbe2bc781	-0.16775323
95	0xbc09201e	-0.008369474
96	0xbddeda51	-0.10881484
97	0xbe4b2efc	-0.19842142
98	0x3e2715a2	0.16316846
99	0x3e18238a	0.14857307
100	0x3b8c1480	0.0042749047
101	0x3dc147e8	0.09437543
102	0xbe5f7179	-0.2182063
103	0x3e478b89	0.19486822
104	0xbd86f90e	-0.06590472
105	0x3c0efd24	0.008727346
106	0xbdb85a00	-0.09001541
107	0xbcefda16	-0.029278796

weight_ih_l1 f4 [108, 36]
0	0xbbdc2219	-0.006717932
1	0x3da89446	0.08231406
2	0xbe001943	-0.12509637
3	0xbde93103	-0.11386301
4	0xbe4678ed	-0.19382067
5	0xbdfa82f2	-0.12232007
6	0xbd55e31d	-0.052218545
7	0xbcfa9e0b	-0.030592939
8	0x3d9e19d6	0.077197716
9	0xbd1cfd35	-0.038327415
10	0xbcc3d3c3	-0.023904687
11	0xbd5aad94	-0.053388193
12	0xbb3458e7	-0.002751881
13	0xbdb36da6	-0.08761148
14	0x3e2205c2	0.15822509
15	0xbd341f37	-0.04397508
16	0xbe182327	-0.1485716
17	0x3e19e0f6	0.15027222
18	0xbb1852eb	-0.0023242782
19	0x3d931be1	0.07183052
20	0xbda86e4b	-0.08224162
21	0x3e55c197	0.2087463
22	0xbd3aedb8	-0.045636863
23	0x3d761767	0.060080912
24	0xbdb39bec	-0.08769974
25	0xbe82dba0	-0.25558186
26	0x3e8353d2	0.25649887
27	0x3e07d748	0.13265717
28	0x3e28bc40	0.16478062
29	0x3e7e2389	0.24818243
30	0xbe01a4d0	-0.12660527
31	0x3e24710e	0.16058752
32	0x3e33b7cc	0.17550582
33	0xbd70fdd7	-0.05883583
34	0x3d03800f	0.032104548
35	0xbda38fad	-0.07986388
36	0x3e5c9a79	0.21543302
37	0x3e8151a5	0.25257602
38	0xbe63a57a	-0.22231093
39	0xbe61b7b2	-0.2204273
40	0xbe670de1	-0.22563888
41	0x3cdb9d21	0.026808323
42	0xbe2d9ebb	-0.16955082
43	0x3e059f09	0.13048948
44	0x3e3a4469	0.18190159
45	0x3d217ff9	0.039428685
46	0x3d37e3a1	0.04489482
47	0xbbca250b	-0.0061689666
48	0xbda80d8e	-0.0820571
49	0xbe57ef9f	-0.21087502
50	0x3e65508a	0.22394004
51	0x3d298376	0.041385137
52	0xbd370651	-0.04468376
53	0xbd030179	-0.031983826
54	0x3d76f78c	0.060294673
55	0xbd84ae4d	-0.06478558
56	0x3d6635f1	0.056203786
57	0x3e56042e	0.20900032
58	0xbe3870bf	-0.18011759
59	0xbd9aa764	-0.075514585
60	0xbbc3429b	-0.0059588677
61	0xbe579c1a	-0.21055642
62	0x3e4ebc27	0.20188962
63	0xbd167f08	-0.03674224
64	0xbdb2fb3f	-0.08739328
65	0x3d200b37	0.039073195
66	0xbe60028c	-0.21875972
67	0xbacd2b0f	-0.0015653091
68	0x3e1e1f64	0.15441662
69	0xbe400736	-0.18752751
70	0xbe199872	-0.1499956
71	0xbd69c524	-0.057072774
72	0x3dc61807	0.096725516
73	0xbc80709e	-0.0156787
74	0xbdd09d9d	-0.10186312
75	0xb9974d7a	-0.0002885869
76	0x3bc874a0	0.0061174184
77	0x3cda151f	0.0266214
78	0xbe6aec46	-0.22941694
79	0xbe39bfa7	-0.18139516
80	0x3d8ab6bf	0.06773137
81	0x3dfa4f8c	0.122222036
82	0x3e0a4e3e	0.1350641
83	0xbdd619a2	-0.10454108
84	0xbce1f4ad	-0.02758249
85	0xbddb6911	-0.10713399
86	0xbc00e1ab	-0.007866303
87	0x3ca32596	0.019915383
88	0xbd389a5a	-0.045069076
89	0x3dc9e32b	0.09857782
90	0xbd2b6801	-0.041847233
91	0xbe388188	-0.18018162
92	0x3d1d0969	0.038339052
93	0x3dd568a2	0.10420348
94	0x3d4af41c	0.049549207
95	0x3cbeb27c	0.023278467
96	0x3cd5f0df	0.026115833
97	0xbcec06b3	-0.028811788
98	0xbd32b65d	-0.043630946
99	0xbda91a7d	-0.08257005
100	0xbd103a8e	-0.035212092
101	0x3e267136	0.16254124
102	0xbe2d34fd	-0.16914745
103	0x3b254eb1	0.0025223906
104	0xbceb5f46	-0.028731953
105	0xbcacb550	-0.02108255
106	0xbe0ee9f1	-0.13956429
107	0x3e2dcaeb	0.16971938
108	0xbd173a59	-0.03692088
109	0x3e413f66	0.18871841
110	0x3db152a1	0.08658338
111	0xbe2c46e6	-0.1682392
112	0xbe014f17	-0.12627827
113	0xbe42a664	-0.19008785
114	0xbe141817	-0.14462315
115	0x3d72d599	0.059285734
116	0x3dd0740e	0.10178386
117	0x3e4c2cfa	0.19939032
118	0xbde6d0dd	-0.11270306
119	0xbd6425b0	-0.055700004
120	0xbd3a3eb0	-0.04546994
121	0xbdad5f8a	-0.08465488
122	0x3bcab659	0.0061862883
123	0xbc28fe71	-0.01031457
124	0xbdeed706	-0.11662106
125	0x3e4084f5	0.18800719
126	0xbdddfa4f	-0.10838758
127	0x3d4f2a9d	0.05057775
128	0x3d187b1d	0.037226785
129	0xbcf9c3a8	-0.030488804
130	0xbe0c7ede	-0.13720271
131	0xbe19af0a	-0.15008178
132	0xbe358074	-0.17724782
133	0xbe869d4c	-0.26291883
134	0x3e2f1408	0.17097485
135	0x3e370dd8	0.17876375
136	0x3c2ab81b	0.010419871
137	0x3d05a337	0.032626357
138	0x3d72f9af	0.059320148
139	0xbd252452	-0.04031784
140	0x3e35a037	0.17736898
141	0xbc4db52e	-0.012555404
142	0x3dcba8d8	0.09944314
143	0xbdd39e5f	-0.10332941
144	0x3d73b356	0.0594972
145	0xbc668b4c	-0.014071297
146	0x3cf7a036	0.030227762
147	0xbe3323b0	-0.17494082
148	0x3d874823	0.06605556
149	0x3d9b5fe9	0.07586653
150	0xbe4e441b	-0.20143168
151	0xbe47b22c	-0.19501561
152	0xbd84b341	-0.064795025
153	0x3e451cd8	0.19249284
154	0x3d8352ed	0.06412301
155	0xbdd8b8bb	-0.105821095
156	0xbdc08280	-0.09399891
157	0xbc86bfe7	-0.016448928
158	0x3d5ce265	0.053926844
159	0x3e6a6732	0.22890928
160	0xbe19e5d8	-0.15029085
161	0x3c13b53e	0.0090153795
162	0xbe29e8f3	-0.1659277
163	0x3df8911d	0.12137053
164	0x3dab9a83	0.0837908
165	0x3dbb357b	0.0914106
166	0xbdcf7cbe	-0.101312146
167	0x3d7edb04	0.06222059
168	0xbe54efff	-0.20794676
169	0xbe662635	-0.22475512
170	0x3e70a169	0.23499073
171	0xbcbba197	-0.0229042
172	0x3e674419	0.22584571
173	0x3e24d4ba	0.16096774
174	0xbc08eb82	-0.008356931
175	0xbd858a3e	-0.06520508
176	0xbc25e4dd	-0.010125366
177	0xbdd53c88	-0.10411936
178	0xbe14a56a	-0.14516225
179	0xbd15db93	-0.036586355
180	0xbbc1f305	-0.0059188628
181	0xbc210501	-0.009827853
182	0xbe2482c6	-0.16065511
183	0x3da1df71	0.07903946
184	0xbd709040	-0.058731318
185	0x3d841051	0.064484246
186	0x3d21af6a	0.03947393
187	0x3d50d7dd	0.050987113
188	0xbcb0a294	-0.021561898
189	0x3e1bd98d	0.15219708
190	0x3d4222ce	0.047396474
191	0xbe66839d	-0.22511144
192	0x3de75b22	0.11296679
193	0xbe29558a	-0.16536537
194	0xbd8859b6	-0.06657736
195	0x3b452f04	0.0030087838
196	0x3d7902b8	0.06079361
197	0x3d55ad97	0.0521675
198	0xbdbe8383	-0.093024276
199	0x3dee13f9	0.11624903
200	0x3dc6cef4	0.09707442
201	0xbc40975b	-0.011754836
202	0x3d5a08e4	0.053231135
203	0x3d03756e	0.03209441
204	0xbe327b97	-0.17429958
205	0xbe341b6d	-0.17588587
206	0xbcba5f4e	-0.022750523
207	0xbd2d6924	-0.042336598
208	0x3e539f26	0.20666179
209	0x3e709eba	0.2349805
210	0x3d1a8bc0	0.037730932
211	0x3d679c1c	0.056545362
212	0xbdbc5dc1	-0.0919757
213	0xbd5f013e	-0.054444544
214	0xbda12577	-0.07868474
215	0xbde3e97a	-0.111285165
216	0x3dd98071	0.106202014
217	0xbd5791e9	-0.052629385
218	0xbc003d76	-0.007827153
219	0xbe4500ab	-0.19238536
220	0xbe07972e	-0.13241264
221	0x3d54d8a5	0.05196442
222	0xbe6f9aa2	-0.23398831
223	0xbde971d8	-0.11398667
224	0x3debccf4	0.11513701
225	0xba56dac4	-0.0008196051
226	0x3e0f4d3a	0.13994303
227	0xbdccb22b	-0.0999492
228	0x3deb361a	0.114849284
229	0x3ba245ef	0.0049521844
230	0x3e27f00a	0.16400161
231	0xbd88c24b	-0.066776834
232	0xbe06ec2f	-0.13176034
233	0xbd857984	-0.06517318
234	0x3d60b250	0.054857552
235	0xbdfeac9a	-0.12435265
236	0x3d6acedb	0.05732618
237	0xbe14ae5b	-0.14519636
238	0x3e23c2bf	0.15992258
239	0x3e214044	0.15747172
240	0x3dcc805d	0.09985421
241	0xbcb49e88	-0.02204825
242	0x3c4260b8	0.01186388
243	0x3cc95ec2	0.024581317
244	0x3c84e11f	0.016220627
245	0x3e1846cb	0.14870755
246	0xbe478ba8	-0.19486868
247	0xbcfd84ff	-0.030947207
248	0x3e06ca83	0.1316319
249	0xbe125fa1	-0.14294292
250	0xbe12a71a	-0.14321557
251	0x3df4f5aa	0.11960919
252	0xbe0da134	-0.13831025
253	0x3e1a4802	0.15066531
254	0x3df6b89e	0.12046932
255	0xbd658fed	-0.05604546

weight_hh_l1 f4 [108, 36]
0	0xbd30b3d7	-0.04314026
1	0x3e7bbf74	0.24584752
2	0x3e8007a2	0.25005823
3	0x3dc4c9a1	0.0960877
4	0xbdf961ac	-0.121768326
5	0x3e45629e	0.192759
6	0xb9b8dea5	-0.00035261098
7	0x3caaba68	0.020840839
8	0xbe335ae2	-0.17515138
9	0xbe4dbeae	-0.2009227
10	0x3e3b2ae8	0.18278086
11	0x3d903185	0.07040695
12	0x3d0f14e8	0.034932047
13	0x3e226181	0.15857507
14	0x3e47a8cc	0.19497985
15	0xbe3a1ad6	-0.181743
16	0xbd4aad37	-0.049481597
17	0x3debbfd3	0.11511197
18	0xbe2f4ffd	-0.17120357
19	0x3de397c8	0.11112934
20	0x3e3f6284	0.18689924
21	0xbdccdd45	-0.10003141
22	0x3d8fb60c	0.070171446
23	0x3d0b83c7	0.03406122
24	0x3c9cb4ea	0.019129235
25	0xbe0f819a	-0.14014283
26	0xbd9836e7	-0.07432347
27	0x3e347ac3	0.17624955
28	0xbe3eec82	-0.18644908
29	0xbe5f6c08	-0.21818554
30	0x3d66dbad	0.056361843
31	0x3cd7d9a9	0.026348906
32	0x3e050999	0.12991942
33	0xbc8bfd80	-0.017088652
34	0xbc472942	-0.012155833
35	0x3e2d4662	0.1692138
36	0x3e156168	0.14587939
37	0xbd2c2c1b	-0.04203425
38	0xbd0bd440	-0.034137964
39	0x3e782412	0.2423251
40	0xbda034d7	-0.078225784
41	0x3d4a9676	0.049459897
42	0xbd86be33	-0.06579246
43	0x3e2a84db	0.16652243
44	0xbe32c05f	-0.17456196
45	0xbe57bf9e	-0.2106919
46	0x3e4bddf1	0.19908883
47	0x3cd7452d	0.026278103
48	0x3d1c8b9c	0.03821908
49	0x3ddf9fc0	0.10919142
50	0x3ce72852	0.028217468
51	0xbcd342c0	-0.025788665
52	0x3de13af7	0.10997575
53	0xbd9e81dd	-0.07739613
54	0xbd53f747	-0.051749494
55	0x3c67aabe	0.014139829
56	0xbcee9127	-0.029121948
57	0xbe1ab148	-0.1510669
58	0x3d94f0d2	0.07272495
59	0xbe7046b0	-0.23464465
60	0xbe44eea5	-0.1923166
61	0xbbf719fc	-0.0075409394
62	0xbda79cd9	-0.08184213
63	0x3d824d6f	0.063624255
64	0xbd73aaed	-0.05948918
65	0xbe55f999	-0.20895995
66	0xbdb413ab	-0.08792814
67	0x3d639f20	0.055571675
68	0x3d940e22	0.07229258
69	0x3e434a7f	0.19071387
70	0x3d6569f6	0.056009255
71	0x3d9d7cac	0.07689795
72	0x3dc70c5b	0.097191535
73	0x3dd153fa	0.102210954
74	0x3dcbacb1	0.09945048
75	0x3e240e63	0.16021113
76	0xbdf1fec1	-0.118161686
77	0x3c9f4ad5	0.019444862
78	0xbd9270a8	-0.07150394
79	0x3ddd635f	0.10809969
80	0xbe29f686	-0.16597947
81	0x3bce6212	0.006298312
82	0xbc9ea520	-0.019365847
83	0x3dd3d9e3	0.10344293
84	0x3e246a45	0.16056164
85	0x3e89a09b	0.26880345
86	0x3d59b5e1	0.05315197
87	0xbd9ad248	-0.07559639
88	0xbe277f85	-0.16357239
89	0x3e08c28e	0.13355467
90	0xbe0ea64c	-0.13930625
91	0x3e85a857	0.26104996
92	0x3dbc08d0	0.09181368
93	0x3da38c38	0.07985729
94	0x3d81124e	0.063023195
95	0x3c957a61	0.018246831
96	0xbe2a2816	-0.16616854
97	0xbdab5c65	-0.08367232
98	0xbe2e83f2	-0.1704252
99	0x3e18a2af	0.14905809
100	0xbd6e1be1	-0.058132056
101	0xbe3edf3a	-0.18639842
102	0xbc036294	-0.008019108
103	0xbd421116	-0.047379576
104	0x3d0784f4	0.03308578
105	0x3cabf6cf	0.020991711
106	0xbe790d5c	-0.24321502
107	0x3de1273e	0.10993813
108	0x3e30343c	0.17207426
109	0x3dca8822	0.098892465
110	0xbc55fa43	-0.013060155
111	0x3ba0ed71	0.0049111177
112	0x3d705337	0.05867311
113	0xbc4ec991	-0.012621299
114	0xbdcde895	-0.10054127
115	0x3e432f81	0.1906109
116	0xbe62f60e	-0.22164175
117	0x3d9364a1	0.07196928
118	0x3d6a8628	0.057256848
119	0xba17db71	-0.0005792892
120	0x3c28d5c2	0.01030487
121	0x3e5c40af	0.2150905
122	0x3dc76910	0.09736836
123	0xbe2f605a	-0.17126599
124	0xbb403ee7	-0.0029334368
125	0x3e19b99c	0.1501221
126	0xbd9e3c3c	-0.077263325
127	0x3e645991	0.22299792
128	0x3d070e48	0.032972604
129	0xbca32da3	-0.019919222
130	0x3dc1f0bf	0.09469747
131	0xbe189377	-0.14900003
132	0xbe444885	-0.19168289
133	0x3c0257e0	0.007955521
134	0x3bb85b65	0.0056261295
135	0xbdc0424f	-0.09387647
136	0xbdb6aa78	-0.08919233
137	0xbb5105cb	-0.0031894322
138	0x3dda441a	0.106575206
139	0xbe50c949	-0.20389284
140	0x3e40424b	0.18775289
141	0xbd750715	-0.059821207
142	0x3e0e3c3c	0.13890165
143	0x3e44fe6d	0.1923768
144	0x3bb59673	0.0055416166
145	0x3d81062b	0.063000046
146	0x3de2579d	0.11051867
147	0x3d84f65d	0.064923026
148	0x3da5441d	0.08069632
149	0x3e60b525	0.21944101
150	0xbdc4bb60	-0.096060514
151	0x3e1ec746	0.15505704
152	0xbe5d87f5	-0.21633895
153	0xbddd1ce8	-0.10796529
154	0x3e66c0f9	0.2253455
155	0xbe21bbb7	-0.15794264
156	0x3e6b8996	0.23001704
157	0x3d8bf700	0.06834221
158	0xbd9d65bb	-0.07685419
159	0xbe2dda41	-0.16977789
160	0x3df87813	0.12132277
161	0xbbbe9bd5	-0.0058169165
162	0xbdaf8790	-0.08570778
163	0x3dfaf36d	0.12253461
164	0x3defad44	0.1170297
165	0xba5a6773	-0.0008331455
166	0x3e7fd459	0.24983348
167	0x3b4d8d6f	0.0031364819
168	0xbe48a1be	-0.1959295
169	0xbde0f017	-0.109832935
170	0xbe4f46a8	-0.20241797
171	0x3e416746	0.18887052
172	0x3d3b1a99	0.045679662
173	0xbd099ce0	-0.033596873
174	0x3d5cfd97	0.05395278
175	0xbe21fcff	-0.15819167
176	0x3e003c11	0.12522914
177	0x3e5eed73	0.21770267
178	0xbc80d5b0	-0.015726894
179	0x3e402ebe	0.1876783
180	0xbdc3ce22	-0.09560801
181	0xbd4c657c	-0.04990147
182	0x3d8e69a0	0.0695374
183	0x3cf078aa	0.029354412
184	0xbe4ffe18	-0.20311773
185	0x3e11291c	0.14175838
186	0x3d6eafa5	0.058272976
187	0x3e41e73c	0.18935865
188	0xbe1b807b	-0.1518573
189	0xbe19c275	-0.15015586
190	0xbb990c1e	-0.004670634
191	0xbd744ed2	-0.05964548
192	0x3e0383f4	0.12843305
193	0x3e306ac0	0.17228222
194	0x3cf291c4	0.029610522
195	0xbe0bd1bf	-0.1365423
196	0x3e2c8224	0.1684652
197	0x3daf5b7d	0.08562372
198	0xbe857d8f	-0.26072356
199	0x3e067059	0.13128795
200	0xbc87349a	-0.016504575
201	0x3d96e0df	0.073671095
202	0x3dd7a6c0	0.10529852
203	0xbe32386d	-0.17404337
204	0xbe5261e3	-0.20545153
205	0xbd9a20f4	-0.075258166
206	0xbe8bff2e	-0.27343124
207	0x3dfaf531	0.12253798
208	0xbe07b567	-0.13252793
209	0xbcbe3ab7	-0.023221357
210	0x3d4aab7b	0.049479943
211	0xbe08b502	-0.13350299
212	0x3d2877a2	0.041129716
213	0x3d492a69	0.04911271
214	0xbddf404d	-0.10900936
215	0x3e05111f	0.12994812
216	0x3d8a61ec	0.06756958
217	0x3d864cc8	0.065576136
218	0x3d8a9042	0.06765796
219	0xbe087ce4	-0.13328892
220	0x3d3611da	0.04445062
221	0xbdc5ed16	-0.09664361
222	0xbe62217a	-0.22083083
223	0x3d076b62	0.033061393
224	0x3d764ec3	0.060133707
225	0xbe572090	-0.21008515
226	0x3ae63d43	0.0017565865
227	0xbe320394	-0.17384177
228	0xbca4b430	-0.020105451
229	0xbca03a2f	-0.019558994
230	0xbd4f8952	-0.05066807
231	0xbe425ff2	-0.18981913
232	0x3cf2e459	0.0296499
233	0x3db2f49d	0.087380625
234	0xbe3f94d4	-0.18709117
235	0xbcd3807a	-0.025818098
236	0xbd3bc9ad	-0.04584663
237	0x3e08736b	0.13325278
238	0xbd621d79	-0.05520389
239	0xbe0fcacf	-0.14042209
240	0xbda4ef0e	-0.080534086
241	0xbe46d57b	-0.19417374
242	0xbc4835c5	-0.012219851
243	0x3d531dae	0.051541977
244	0xbe2bbf4e	-0.16772196
245	0x3ceb94ce	0.028757479
246	0xbc632b27	-0.013865269
247	0xbe098a5a	-0.13431683
248	0xbcb2b729	-0.021815853
249	0x3da709dc	0.081561774
250	0xbd81ce16	-0.06338136
251	0xbcdfb4ef	-0.027307956
252	0x3bf9e015	0.0076255896
253	0xbd95f277	-0.07321637
254	0x3ca7a1c4	0.020462878
255	0xbe22e818	-0.15908849

bias_ih_l1 f4 [108]
0	0xbaee995f	-0.0018203667
1	0xbd94369c	-0.072369784
2	0xbde1cf5f	-0.11025881
3	0x3e278c29	0.1636206
4	0xbd8d77d1	-0.06907619
5	0x3c9edde6	0.019392919
6	0x3e04afac	0.12957639
7	0xbd5cf281	-0.053942207
8	0x3e466bd3	0.19377069
9	0x3dedd871	0.116135485
10	0xbd371339	-0.044696067
11	0x3cf9b43e	0.030481454
12	0xbcb43df2	-0.022002194
13	0xbda075da	-0.078349784
14	0xbdf769d6	-0.120807335
15	0x3cb4151d	0.021982724
16	0x3e2978a9	0.16549934
17	0xbc324562	-0.0108808
18	0x3bec765a	0.007216257
19	0x3def953c	0.11698386
20	0xbe31ef49	-0.17376436
21	0xbdd372aa	-0.10324605
22	0x3d8716ee	0.0659617
23	0x3d05a960	0.03263223
24	0x3d86e49c	0.065865725
25	0xbdcd2776	-0.10017292
26	0xbe0b847b	-0.13624756
27	0xbda39167	-0.07986718
28	0xbe1107b9	-0.14163102
29	0x3d3c1480	0.045917988
30	0xbd6e402a	-0.05816666
31	0xbd2d5767	-0.04231968
32	0xbce1230b	-0.02748253
33	0x3d47e643	0.04880358
34	0xbd1ca5e6	-0.03824415
35	0xbdcdf5a6	-0.10056619
36	0xbe1a18a4	-0.15048462
37	0xbe70847c	-0.23488039
38	0xbe6f5f16	-0.23376116
39	0xbe81bda0	-0.25339985
40	0xbc412fea	-0.011791209
41	0xbe6cba83	-0.23118024
42	0xbe4c223e	-0.19934937
43	0xbd8e7bb9	-0.06957192
44	0xbd1b9a0c	-0.037988707
45	0xbdb78f93	-0.089629315
46	0xbe74ff03	-0.23925404
47	0xbe2d8636	-0.16945729
48	0xbe64dff0	-0.2235105
49	0xbcd98000	-0.026550293
50	0xbe8fc051	-0.28076413
51	0xbd53bfc3	-0.05169655
52	0xbd2b761c	-0.041860685
53	0xbe3a42f7	-0.18189608
54	0xbe12ef68	-0.14349139
55	0x3d857794	0.06516948
56	0xbd12d4ee	-0.035847597
57	0xbe2a3e12	-0.1662524
58	0xbe589a93	-0.21152715
59	0xbcd6e394	-0.026231565
60	0x3daaede1	0.08346153
61	0xbd95374e	-0.07285939
62	0xbd8a9db2	-0.06768359
63	0x3e030fc6	0.12798986
64	0xbda1728f	-0.078831784
65	0xbe8f12b8	-0.2794397
66	0xbe3a0f78	-0.18169963
67	0xbda8e316	-0.08246438
68	0x3e0e4a55	0.13895543
69	0xbd8a596c	-0.06755337
70	0x3cf5e8aa	0.03001817
71	0x3d8575dc	0.065166205
72	0x3e07d094	0.1326316
73	0x3e83ae4f	0.25718924
74	0xbcebc96c	-0.028782569
75	0x3e57d566	0.21077499
76	0xbe3aed32	-0.18254545
77	0xbd84b657	-0.06480091
78	0xbe76c9b2	-0.24100378
79	0x3de85484	0.11344245
80	0xbe7580f8	-0.23974979
81	0xbe845641	-0.25847057
82	0x3dc3b91d	0.09556792
83	0xbcdfe724	-0.027331896
84	0x3e492846	0.1964427
85	0xbe19ba37	-0.15012442
86	0x3e67afb0	0.22625613
87	0xbe0a1e3c	-0.13488096
88	0xbe1a7694	-0.15084296
89	0x3cd06400	0.025438309
90	0xbe865529	-0.26236847
91	0x3e42ea33	0.19034652
92	0x3defd5fc	0.11710736
93	0x3de00341	0.10938121
94	0x3e2aac29	0.16667236
95	0xbe1c06a0	-0.15236902
96	0xbbfed599	-0.0077769277
97	0xbd2e76dd	-0.042593826
98	0xbe4f7af5	-0.20261748
99	0x3e68394e	0.2267811
100	0xbce8f7ee	-0.028438535
101	0xbe7467a1	-0.23867656
102	0x3de8d459	0.11368627
103	0xbe44992e	-0.19199058
104	0xbd8bfaee	-0.068349704
105	0x3db1466b	0.08656009
106	0x3de8419b	0.11340638
107	0x3d1521f8	0.03640935

bias_hh_l1 f4 [108]
0	0x3e7cfd60	0.2470603
1	0x3e72b827	0.23703061
2	0x3d9b149e	0.07572292
3	0x3e013d21	0.12620975
4	0x3dab9d41	0.08379603
5	0x3dedefe2	0.1161802
6	0xbe23fd45	-0.16014583
7	0xbc4df31d	-0.01257017
8	0x3e4648c9	0.19363703
9	0xbdc342a2	-0.095341936
10	0x3da47604	0.08030322
11	0xbd5162e1	-0.05111969
12	0x3e3fbfc4	0.18725497
13	0xbc8dc762	-0.017306987
14	0x3bd0b858	0.0063696317
15	0x3c7489f1	0.014925466
16	0xbc6a8384	-0.014313582
17	0xbcd434c1	-0.025904061
18	0x3e56370c	0.20919436
19	0xbe0d5016	-0.13800082
20	0xbd172be3	-0.036907088
21	0x3d92d558	0.07169598
22	0xbc68df89	-0.014213451
23	0x3e46d3d8	0.1941675
24	0xbd84f3fc	-0.06491849
25	0xbda2be1f	-0.07946419
26	0xbe0f92a7	-0.14020787
27	0x3c900f50	0.017585427
28	0xbe000735	-0.1250275
29	0x3e4d0651	0.20021941
30	0xbd6864b1	-0.05673665
31	0xbaccd605	-0.0015627748
32	0x3d89b7ed	0.06724534
33	0xbdec7ae4	-0.11546877
34	0x3cdbda02	0.026837353
35	0xbc426c1f	-0.011866598
36	0x3ccd7980	0.02508235
37	0xbcca6acb	-0.024709126
38	0xbe1fb0ca	-0.15594783
39	0xbc5f3832	-0.013624238
40	0xbcdcb5ff	-0.026942251
41	0xbd293564	-0.041310683
42	0xbc7564d6	-0.014977654
43	0xbe495466	-0.19661102
44	0xbe9f7f81	-0.31151965
45	0xbdb72181	-0.08941937
46	0xbd6d1dc8	-0.05788973
47	0xbe485e12	-0.19567135
48	0xbda735dd	-0.081645705
49	0x3d83e786	0.06440644
50	0xbe1aa3bd	-0.15101524
51	0xbe195803	-0.1497498
52	0xbdd2d611	-0.10294736
53	0xbe1a0930	-0.15042567
54	0xbe4e6f47	-0.20159636
55	0xbe795aa2	-0.2435098
56	0x3dbd1b3a	0.09233709
57	0xbd81bba9	-0.063346215
58	0xbce91e40	-0.028456807
59	0xbe3e83e0	-0.18604994
60	0xbe7cf26d	-0.24701853
61	0xbe2d0cad	-0.16899367
62	0xbe9826a3	-0.29716977
63	0x3db7d3ba	0.089759305
64	0xbe0de53d	-0.13856979
65	0xbd6a4ec0	-0.057204008
66	0xbdff89b5	-0.124774374
67	0xbda9ebb7	-0.08296912
68	0x3e2a6918	0.16641653
69	0x3cfe1fcc	0.031021021
70	0xbd9ddbef	-0.07707965
71	0xbc4a9752	-0.012365179
72	0x3e66d306	0.22541437
73	0x3d78ec0a	0.06077198
74	0xbd00ac27	-0.031414177
75	0x3de2d5a8	0.11075908
76	0xbdcc881f	-0.099869005
77	0x3d0fe30e	0.035128646
78	0x3c55fcc8	0.013060756
79	0x3cc6034b	0.024171492
80	0xbe80739b	-0.250882
81	0x3d8a189f	0.06742977
82	0x3cdbf9ac	0.026852451
83	0xbe6f1f11	-0.23351695
84	0x3d83e8f3	0.06440916
85	0xbdcf174b	-0.10111865
86	0x3e84e83c	0.2595843
87	0xbe6d4049	-0.23169054
88	0x3cd8f665	0.026484678
89	0x3da59b8b	0.08086308
90	0xbe01ef82	-0.12689021
91	0x3d214812	0.039375372
92	0xbdcfcbdf	-0.10146307
93	0x3dcfa11a	0.101381496
94	0xbd3d93b7	-0.04628345
95	0xbe434d96	-0.19072565
96	0xbdfff3d8	-0.124976814
97	0xbde4e465	-0.11176375
98	0x3d58274a	0.052771844
99	0xbd886f78	-0.06661886
100	0xbe230ec1	-0.15923597
101	0xbe4a7af8	-0.19773471
102	0xbd667f58	-0.05627379
103	0x3d31c6a3	0.043402325
104	0xbcd06483	-0.025438553
105	0x3cd5ae41	0.026084067
106	0xbd96be2c	-0.07360491
107	0x3c444f81	0.011981846

weight_ih_l2 f4 [108, 36]
0	0x3b95a166	0.0045663593
1	0x3e44ef8e	0.19232008
2	0x3e2524d0	0.16127324
3	0x3d12554c	0.035725877
4	0xbc471013	-0.0121498285
5	0x3df183f1	0.11792744
6	0xbde27136	-0.110567495
7	0x3bdf4588	0.0068137087
8	0xbe947bf0	-0.29000807
9	0xbe7675ae	-0.24068329
10	0xbc98d562	-0.018656436
11	0xbe29ecd2	-0.16594246
12	0x3e41555e	0.18880221
13	0xbdc85613	-0.09782042
14	0x3e5fba91	0.21848513
15	0xbe7ef25c	-0.2489714
16	0x3e2837f4	0.16427594
17	0x3d3fa6b0	0.046789825
18	0xbcc6425a	-0.02420156
19	0x3d5a25fa	0.053258874
20	0x3ce822f3	0.028336978
21	0x3e51d8d1	0.20492865
22	0x3db43b72	0.08800401
23	0xbd546ef5	-0.05186363
24	0xbe067b41	-0.13132955
25	0xbe5fa048	-0.21838486
26	0xbe4799ce	-0.19492266
27	0x3df790ae	0.12088142
28	0x3d9ed3fd	0.07755277
29	0xbe055250	-0.13019681
30	0x3d6c9e8a	0.057768382
31	0xbd8b3577	-0.06797307
32	0x3dd73726	0.105085656
33	0x3e3b587f	0.18295477
34	0xbe126c7e	-0.14299199
35	0x3e1a9ab5	0.15098079
36	0xb9dd3228	-0.00042189774
37	0x3d2baabd	0.041910876
38	0x3e524080	0.20532417
39	0x3d381487	0.04494145
40	0xbe0613ff	-0.13093565
41	0x3dda2b98	0.10652846
42	0xbd3d52ec	-0.04622166
43	0x3dfe5dac	0.1242021
44	0xbe7643ba	-0.24049273
45	0xbdffc14d	-0.12488041
46	0x3d9c9943	0.0764642
47	0x3ce9cfcf	0.028541474
48	0xbd540791	-0.05176503
49	0x3e0d4c15	0.13798554
50	0x3e881ebd	0.2658595
51	0xbd7ebb9b	-0.062190633
52	0x3dcc18ec	0.09965691
53	0xbd7e271f	-0.062049028
54	0xbd396ab1	-0.045267764
55	0xbd4c4cc5	-0.0498779
56	0xbe1c9c9c	-0.15294117
57	0x3e83a0a7	0.25708506
58	0x3e44638f	0.19178604
59	0xbd800895	-0.06251637
60	0xbe80012b	-0.2500089
61	0xbd1be164	-0.038056746
62	0xbc6b77d5	-0.014371832
63	0x3e16642f	0.14686655
64	0xbe86a16f	-0.2629504
65	0x3d5016d4	0.05080302
66	0x3e712792	0.23550251
67	0xbe65ee97	-0.22454296
68	0x3d296913	0.041359972
69	0x3e71e8e3	0.23623995
70	0x3e41e7f7	0.18936144
71	0xbd890206	-0.06689839
72	0xbdbde38a	-0.09271915
73	0xbd7ec4fa	-0.06219957
74	0xbe563f19	-0.20922507
75	0xbda2263d	-0.079174496
76	0x3e499a2a	0.19687715
77	0xbd3f1395	-0.046649534
78	0xbd4cb926	-0.04998126
79	0xbdd7ea37	-0.1054272
80	0x3e30d4ad	0.1726863
81	0x3e190ead	0.14947005
82	0xbd9e7fae	-0.07739197
83	0xbd36a103	-0.044587146
84	0xbe42f29a	-0.19037858
85	0x3da51195	0.08059994
86	0x3d4ab6e2	0.049490817
87	0x3e54388c	0.20724696
88	0xbdb6f0d5	-0.08932654
89	0x3d5353c0	0.051593542
90	0xb9999156	-0.00029290718
91	0xbcb69425	-0.022287438
92	0xbd41ab92	-0.047282763
93	0xbc9b5ea7	-0.018966032
94	0x3d7f0701	0.06226254
95	0x3e1f8bfa	0.1558074
96	0x3d8d20a3	0.068909906
97	0xbd30a801	-0.04312897
98	0xbcdb7185	-0.026787529
99	0x3ea23043	0.31677446
100	0x3d2d1286	0.042253993
101	0x3e3e462c	0.18581456
102	0x3d4be4a6	0.049778603
103	0xbc8f3265	-0.017480085
104	0x3d9531b4	0.07284871
105	0xbd6e29ae	-0.058145218
106	0x3e44f7de	0.19235179
107	0x3b8e8961	0.004349873
108	0xbaa26589	-0.0012389879
109	0x3e162680	0.14663124
110	0xbda431ec	-0.08017334
111	0x3dfed63a	0.12443204
112	0xbdbc6028	-0.09198028
113	0x3dfc8f5a	0.1233203
114	0x3d5d1eef	0.05398458
115	0x3df29b06	0.118459746
116	0xbda55fdc	-0.08074924
117	0xbd0f684e	-0.035011582
118	0x3e151cbb	0.14561741
119	0xbe1abde0	-0.15111494
120	0x3e0123a1	0.12611248
121	0x3d5f5687	0.05452588
122	0x3e622ae8	0.2208668
123	0xbe50d17d	-0.20392413
124	0x3d60db60	0.054896712
125	0xbd1e1a8c	-0.038599536
126	0xbac0c59c	-0.001470733
127	0x3e71dc97	0.23619305
128	0x3e29cd98	0.16582334
129	0x3e026914	0.12735397
130	0xbcf325ff	-0.029681204
131	0xbe0d4ccc	-0.13798827
132	0xbdcbfe66	-0.09960632
133	0xbd694d6b	-0.056958597
134	0xbdb04fa6	-0.08608942
135	0x3c650e6e	0.013980491
136	0xbe083ae7	-0.1330372
137	0xbe7e95b9	-0.24861802
138	0x3e62a2d4	0.22132427
139	0xbd2f506c	-0.042801306
140	0x3ce71b77	0.028211338
141	0x3e6b484e	0.22976801
142	0x3c39d7cf	0.011342957
143	0x3d0a024f	0.033693608
144	0xbd672923	-0.056435715
145	0xbdbd5789	-0.09245212
146	0xbb61c932	-0.0034452197
147	0x3d32014e	0.043458275
148	0xbde59b47	-0.112112574
149	0xbe0f698d	-0.14005108
150	0x3a5fd5c2	0.00085386273
151	0xbd979738	-0.074018896
152	0x3dbfcc4c	0.093651384
153	0xbd0e40df	-0.034729835
154	0xbd554a22	-0.05207265
155	0xbc9cfc40	-0.01916325
156	0xbdbd16ac	-0.0923284
157	0xbe1464ea	-0.1449162
158	0xbd1fe217	-0.039033975
159	0xbd59223b	-0.05301116
160	0xbdafe781	-0.08589078
161	0x3e0c2b22	0.13688329
162	0x3c45aad2	0.0120646525
163	0x3d67a470	0.056553304
164	0xbd996b4b	-0.07491168
165	0xbd931a11	-0.07182706
166	0xbdd117e0	-0.10209632
167	0x3d8fac12	0.07015242
168	0xbe593341	-0.21210958
169	0xbe62f554	-0.22163898
170	0xbe2ee1b9	-0.17078294
171	0xba908002	-0.0011024477
172	0xbd25e32a	-0.040499844
173	0x3df6fa4b	0.12059458
174	0xbd2a4b5c	-0.041575775
175	0x3df1c06a	0.11804278
176	0x3e51e20a	0.20496383
177	0x3e027d1c	0.12743038
178	0x3e1b0840	0.15139866
179	0xbe062397	-0.13099514
180	0x3e27e8a4	0.16397339
181	0x3e15dc6b	0.14634864
182	0x3e4ed0f5	0.20196898
183	0x3e576f38	0.2103852
184	0x3d187a00	0.037225723
185	0x3d9a27e1	0.075271375
186	0x3d8db37e	0.06919001
187	0xbd195152	-0.03743107
188	0xbe5f2016	-0.21789584
189	0xbcbceb4c	-0.023061417
190	0x3def7540	0.116922855
191	0xbdaa35cf	-0.083110444
192	0x3e72ec53	0.23722963
193	0xbd467c84	-0.04845859
194	0x3e43b295	0.19111092
195	0x3d0685a5	0.032842297
196	0x3e65c9e6	0.224403
197	0x3c4cde38	0.012504153
198	0xbd003fd8	-0.031310886
199	0xbe4714e1	-0.19441558
200	0xbcec6194	-0.028855123
201	0x3d82c3fd	0.06385038
202	0x3e5eaacb	0.2174484
203	0xbdb57143	-0.088594936
204	0x3c819262	0.015816871
205	0x3cee861d	0.029116685
206	0xbe2efaaf	-0.17087816
207	0x3e0d9f76	0.13830361
208	0xbe20195a	-0.15634671
209	0x3cee44a7	0.02908547
210	0xbdab7ee0	-0.08373809
211	0xbe0b3b38	-0.13596809
212	0x3e25743b	0.1615762
213	0x3e4cf04b	0.2001354
214	0x3c7e2db6	0.015513828
215	0xbd32afbe	-0.043624632
216	0x3e5f5dcb	0.21813123
217	0x3e107a33	0.14109115
218	0xbac0b30b	-0.0014701796
219	0xbd21e434	-0.039524272
220	0xbe5792cc	-0.21052092
221	0x3d116e16	0.035505377
222	0xbe875492	-0.2643171
223	0x3e0b0986	0.13577852
224	0xbe8a536d	-0.27016774
225	0xbe3aff2f	-0.18261407
226	0x3ccd1c05	0.025037775
227	0xbd9726ae	-0.073804244
228	0x3dbb449f	0.09143948
229	0x3d81372c	0.06309351
230	0x3c97954c	0.018503807
231	0xbe4bc1fb	-0.19898216
232	0x3e85f50b	0.26163515
233	0x3e4def5d	0.20110841
234	0xbe366a81	-0.17814066
235	0xbdc1f9ab	-0.094714485
236	0x3dcd2d1f	0.10018372
237	0xbd9757ac	-0.07389769
238	0x3dd8dac3	0.105886005
239	0xbd34e8fe	-0.04416751
240	0xbe73a494	-0.2379325
241	0xbe5e446f	-0.21705793
242	0xbdccde53	-0.100033425
243	0x3d8f10a3	0.06985595
244	0x3e2aca82	0.16678813
245	0xbc9c1b2b	-0.019055923
246	0x3e627c77	0.22117792
247	0xbe298191	-0.16553332
248	0x3c50e7c4	0.01275057
249	0x3e669eea	0.22521558
250	0x3da4bac9	0.08043439
251	0x3e76a3c4	0.24085909
252	0x3e1eee87	0.15520678
253	0xbd940c45	-0.07228903
254	0xbd743f1d	-0.059630502
255	0xbd906ef4	-0.07052413
